CartPoleDQN/dqn_cartpole20.pth (torch, 72745 bytes, 6 tensors)

layer1.weight f4 [128, 4]
00000000: ef96 893e 3075 ebbe 2752 a1be bb24 9a3e
00000010: 8a2c 3cbe 8c64 b23e 4acf c53d 2a1d 343e
00000020: 2ad3 11be 3462 1e3e 2a1a c03e 998e b6be
00000030: 8a43 de3d 229d c0be c672 98be 60b9 0ebe
00000040: 5eb6 82be f008 77bd 0e1d c2be f2dc b2bc
00000050: 86e4 953d 01ef c23d 360e 17bd 2f61 8ebd
00000060: d040 d23d c0e9 abbd 8e4d 363e 609e ef3e
00000070: bf60 2b3e 4c6a 623d 313c 373e c55a 91be
00000080: 5e3e 9bbe 5f03 a43e 4ca1 56bc 37ad ecbe
00000090: 68e6 07be a7b4 d5bb e93b 803d 4269 1f3e
000000a0: ba38 813d 5815 213e bd26 d03e 454b bf3e
000000b0: d9ac acbe cbb9 6d3e 387e b4bd e514 7ebe
000000c0: b5ee c23e 3a88 a4be 1c6b 9f3c 75a7 92be
000000d0: ec70 e63e ce1a 933d b2bc 5f3e ab69 21be
000000e0: 4e5a 1abd f47c 91be 125e 423d eac1 b0be
000000f0: 1f86 af3d 580e d23e 2b3d 35be 3507 f4be
00000100: 5ad3 d43d 2a20 c2bd 37c8 8a3e c12a f8be
00000110: f817 f0bd d967 1e3e 5589 f33d 8532 963e
00000120: 91af 6fbd 2f4f d33d 9832 b63d 2d90 b03e
00000130: 09f1 60be b663 f3be 1cfc 8bbd 1d4e b63e
00000140: 00f3 9f3e 0863 dabe 5483 80bd b8b2 afbe
00000150: da2a d53e 9094 fabe e6f9 73bc f6a5 c2be
00000160: 4c64 a43e 94c6 743e 0023 78bd 3ac6 283e
00000170: ce78 65be 24ba f83e 84ae d8be 573e ebbe
00000180: b7ca eebe a220 573e 29c1 673e dd1a a63d
00000190: 8706 f4be 4571 a9bc a872 123e 15b2 0c3e
000001a0: 1e2c e23e 4f85 233e f531 833d 8b16 a1bc
000001b0: a143 7b3e e42e 983e 529d ab3e 8a46 da3e
000001c0: 29f0 b83e 4712 09bf 9a7d 9abd ed2e 8dbe
000001d0: 7e7f 15bd 4817 78be 3271 f63e 06ae 51be
000001e0: c69e 233e 29e0 ebbc 0906 d23b 524a 0c3e
000001f0: eb6a d23e e839 a0bd fc3a 3b3e 029e 04be
00000200: ea83 e03e 5b99 3bbe 932a 993e cdd8 293c
00000210: 30ad a8be 0a0e cf3e 272d 60be e5a4 8c3e
00000220: ee5d 1cbe 8061 91be 0bad 123f b5a6 d33d
00000230: de74 10bc 0cad e83d 9d79 093f 7202 8cbe
00000240: 50a7 b2be 8a54 f3be f4d3 c43e 15b3 9abe
00000250: 7d32 b53e ee7b b2be 043e c8be 01b3 223e
00000260: 2977 93bd 4af6 663e a99e 8b3e c127 34be
00000270: 3450 013e cfe5 cd3d b498 3abd ff30 073e
00000280: 0938 24be f980 603e 57a2 8a3e 4951 18bd
00000290: face 01bf 8e2d a43e 0ee4 f23e d231 ec3e
000002a0: fdd6 473d a837 5c3e 5554 0e3e 120e ac3e
000002b0: 1158 f0be a2ec fa3e f484 77be 376f 503e
000002c0: 1d13 c43e 6d62 dcbe ff0c 93be df48 ff3e
000002d0: a4f4 7e3d dcd0 e8be 82bd dc3e 4acd 33bd
000002e0: b1f5 183e f634 2d3e 9963 debe 9e24 d8bc
000002f0: 04bd 313e 7ac6 eabe dc93 933e 67cc 2f3c
00000300: 8ea8 cb3e d66b a43e 40b3 f53e bd46 b33e
00000310: 8a5c 313e 499a 3fbe 3efa e63e d958 5bbe
00000320: 4ac2 c43d adc6 d93e 66b6 143e 5bda bbbe
00000330: 2a70 ba3e bd24 d3be 5e35 7a3e 9930 b8be
00000340: 9a95 eebd 5c8a ce3d 037e 8b3d 438a 95be
00000350: 518d 413e 8b75 bbbd 1838 7e3c 93b7 d83e
00000360: 1a49 cabe ba2a 68bd 882a eabe 2f06 cf3d
00000370: 805a 05be 1073 c8be 0a84 c8bd f5a0 883e
00000380: aaa6 2dbe 46e0 833e 9409 84bd bb90 cdbd
00000390: d200 b1bd 6048 033f 35e8 19be 6db5 76bd
000003a0: e35c cbbe a80b cabe 6f2d e53e cc38 ec3e
000003b0: 1e29 6ebe 2c4b eebd 30f6 a23d 0d6a d8be
000003c0: af37 d03e a5b4 c13d 3984 7bbe 6a41 c23d
000003d0: 438e 68be d484 ff3d 22fd d73e 741e 673e
000003e0: 2ba9 dcbe 4415 6fbd a59e 07be 2bee 4bbd
000003f0: c3a1 02be 2932 58be 0ecb a5bd df15 8d3e
0.26872966 -0.45987844 -0.3150799 0.30106148 -0.18376365 0.34842336 0.09658678 0.1758925
-0.14240709 0.15467149 0.37519962 -0.35655668 0.10852726 -0.37619883 -0.29775065 -0.13937902
-0.2552976 -0.060311258 -0.37912792 -0.02183387 0.07318978 0.095182426 -0.036878787 -0.0695213
0.10266268 -0.08394194 0.17803022 0.46800518 0.16736124 0.055277154 0.17894055 -0.28389564
-0.3032102 0.32033822 -0.01309998 -0.46225902 -0.13271487 -0.0065217796 0.06261427 0.15567496
0.06309648 0.15730798 0.40654555 0.37362114 -0.33725622 0.23215406 -0.08813137 -0.24812658
0.38072744 -0.32135183 0.019460253 -0.28643385 0.45008028 0.07182847 0.21849325 -0.15762965
-0.037683778 -0.28415644 0.047452994 -0.34522945 0.085705034 0.41026568 -0.17699115 -0.4766175
0.103918746 -0.09478791 0.27105877 -0.4847012 -0.11723322 0.15469302 0.118914284 0.29335418
-0.058517043 0.103178374 0.08896369 0.34484997 -0.21966948 -0.4753701 -0.068351954 0.3560647
0.31240082 -0.4265368 -0.06275049 -0.3431604 0.41634256 -0.4894147 -0.014891123 -0.38017243
0.3210777 0.23903877 -0.060580254 0.16481867 -0.22409365 0.48579514 -0.42320645 -0.45946
-0.46639034 0.21008542 0.22632279 0.081105925 -0.4766123 -0.020683894 0.1430155 0.13739808
0.44174284 0.15968822 0.06406013 -0.01966407 0.24537517 0.29723275 0.33518463 0.42631942
0.36120728 -0.53543514 -0.07543488 -0.27574864 -0.03649854 -0.24227631 0.48133236 -0.20476541
0.15978536 -0.028793411 0.006409411 0.13700226 0.41097197 -0.07823545 0.1828422 -0.129509
0.43850642 -0.18320219 0.29915294 0.010366631 -0.32944632 0.40440398 -0.21892224 0.27469555
-0.15270206 -0.283947 0.5729529 0.10334531 -0.008816926 0.11361131 0.5370119 -0.27345616
-0.34893274 -0.47525436 0.38442957 -0.30214754 0.35390082 -0.34860176 -0.39109814 0.15888597
-0.07200462 0.2255489 0.27269486 -0.1759329 0.12628251 0.10053598 -0.045555785 0.13202284
-0.16037 0.21924199 0.2707698 -0.037186895 -0.50706446 0.32066005 0.47439617 0.4613176
0.048789013 0.21505606 0.13899358 0.33604485 -0.4694219 0.49008662 -0.24171811 0.20354925
0.38295832 -0.43043843 -0.28720853 0.49860284 0.062245026 -0.45471847 0.43113333 -0.04389695
0.14937474 0.16914734 -0.43435362 -0.026384648 0.1735726 -0.4585455 0.28823745 0.010729886
0.39777035 0.32113522 0.4798832 0.35014907 0.17320457 -0.18711199 0.45112795 -0.21420611
0.0960737 0.4253439 0.14522704 -0.3669003 0.364137 -0.41238967 0.2443442 -0.35974577
-0.11649628 0.10084984 0.06811144 -0.29207048 0.18901564 -0.09153279 0.0155163035 0.42327556
-0.39508897 -0.056681372 -0.45735574 0.10108601 -0.13022804 -0.39150286 -0.097908095 0.266853
-0.16958109 0.25757045 -0.064471394 -0.10037371 -0.086427346 0.5128231 -0.15029986 -0.060231615
-0.39719304 -0.39462018 0.44761226 0.46137083 -0.23257872 -0.11635432 0.07957113 -0.4226841
0.40667483 0.09458283 -0.24562158 0.09485133 -0.22710519 0.12476507 0.42185313 0.2257021
-0.43097815 -0.05836989 -0.13244112 -0.04978768 -0.1275702 -0.21112885 -0.0809537 0.2755575

layer1.bias f4 [128]
00000000: 2ef0 23be a2c2 12be b609 bebe 5c16 43be
00000010: 0ebc 3cbd 55ba 6b3e 9df7 edbd ac56 023f
00000020: 68b4 073f 4b2a cb3e 0a2c 393d 3694 cfbe
00000030: fd38 833e a8ff ddbe 3ffc 053f db02 dcbe
00000040: e781 acbe b266 2bbe d1b7 ba3e b330 163e
00000050: fff4 933e 7518 8b3e 6abb b0be 76e6 8f3e
00000060: 27ad c13d dbd0 073f fff7 2dbe bf31 07be
00000070: 5d95 e23d 94c8 23be 08ea 39be da15 bd3c
00000080: c963 513e 096f 973e 41ff 99be b7dd 403e
00000090: cb6f ad3e fa0c 6dbd ed54 cfbe 785e 98bd
000000a0: 4fc6 bc3d 3ed7 bdbe ef0b 9d3d dcf2 53be
000000b0: ed5b b4bc bcd7 283c a34a b6bd 7beb 073f
000000c0: c194 d53e 977b 233e 7ac0 93be 6cd8 cd3e
000000d0: cd9f ad3d fd4c 643e 6ca8 913e 57b6 9fbe
000000e0: c1ad 91be 5bd7 6ebe f8e0 08bd a9b2 383e
000000f0: f444 173e 1db0 e2be 2ccb ee3e 1787 053f
00000100: 1cae 913e 6817 ebbc aa06 71be d432 e03d
00000110: fffa a5be 1dcb 88be 39a5 68be 74a1 30be
00000120: c8e3 b5be e4bd e93c 8486 ecbe 777c 9f3e
00000130: 5aec 7b3e 34ba ccbe 7e84 bfbe c87b c73e
00000140: 6f4e e53e 967c a2be d877 083f d58b 153d
00000150: 4f53 bcbe 2073 e63e ccd8 fabd 86b4 053e
00000160: 2169 8abd 32b8 ebbe ba4e 0b3f cdde e33e
00000170: 6ac2 0b3e a50f 87be dde6 dabd 7d18 29bd
00000180: f420 b93e 770f 4a3e dcd1 0c3e 7ec2 c53e
00000190: 1798 eb3e 5377 ad3e 4089 fc3d 7ac3 eabe
000001a0: 7d52 c6be 9100 e53d 14b2 7a3e 3a66 b83e
000001b0: 62bc 91be 00f3 c43e 3a1c 633d 720c 573e
000001c0: 8797 b13e 8fc6 7cbe 7eb0 ed3d 5345 38bd
000001d0: ef9f 42be ce41 46bd c75f b63e 2db9 b6be
000001e0: 30f0 4a3c 6652 37be 2f84 893d 2bde 03bd
000001f0: e77e c0bd fbcf f0be f0b8 b13c 432b d13e
-0.1600959 -0.14332059 -0.37116784 -0.19051498 -0.04607778 0.23020299 -0.11619494 0.509135
0.53009653 0.39680704 0.045208015 -0.40542763 0.25629416 -0.43359113 0.5233802 -0.4297093
-0.33692858 -0.16738394 0.36468366 0.14667015 0.28897855 0.27167097 -0.34517986 0.28105515
0.09456854 0.53053063 -0.16989134 -0.1320257 0.11063645 -0.15994483 -0.18155682 0.023081709
0.20448221 0.295769 -0.30077556 0.18834578 0.33874354 -0.057873704 -0.4049448 -0.074398935
0.09217512 -0.3707828 0.07668292 -0.20698112 -0.02201649 0.010305341 -0.089009546 0.5309369
0.41715053 0.15965115 -0.28857785 0.4020418 0.08477745 0.22294994 0.28448808 -0.31193802
-0.28452876 -0.23324339 -0.033417672 0.18036903 0.14772397 -0.4427499 0.46639383 0.52159256
0.28453147 -0.028697684 -0.23537698 0.10947195 -0.32418057 -0.26717463 -0.22719277 -0.1724909
-0.35525346 0.02853293 -0.46196377 0.31149647 0.2460188 -0.39985812 -0.3740577 0.38961625
0.44786403 -0.31735677 0.5330787 0.036510307 -0.3678231 0.45009708 -0.12248382 0.13057145
-0.06758333 -0.46038967 0.54417 0.4450592 0.13648382 -0.26379123 -0.10688565 -0.04128312
0.36157954 0.19732462 0.1375193 0.38624948 0.46014473 0.338801 0.12330866 -0.45852262
-0.3873481 0.11181749 0.24481994 0.36015493 -0.28464037 0.38466644 0.05544684 0.21000841
0.3468592 -0.24685119 0.11605929 -0.044987988 -0.19006322 -0.0484026 0.35619947 -0.35688153
0.012386367 -0.17902526 0.06714665 -0.032194298 -0.09399205 -0.47033677 0.02169463 0.4085332

layer2.weight f4 [128, 128]
00000000: 08dd 533d 0bbc a33d f6f5 a7bd 84b1 97bc
00000010: dc96 6c3c 6b9e 973d 1a68 7f3d 6636 003d
00000020: 3620 303d b77a 0bbd af02 94bd 9fdc 2ebd
00000030: c2d4 d0bc cad2 e1bc 345e 163d a8ff 0c3b
00000040: e1b4 8dbd a810 603c ffe5 9d3d b643 d6bc
00000050: 2e2c 8fbd 766c 033d 544a d53c 7e37 62bd
00000060: 4114 9d3d e05a 9abc e6e2 503c e8fb a43c
00000070: 025c 7abd 8a95 7abd 5b78 96bd 9ee0 b2bc
00000080: 4413 24bd 87aa 9a3d 125f 313b c836 763c
00000090: 95c0 8f3d 89c9 983d 59f4 99bd 400d 35bd
000000a0: dedb 70bd 62d5 1e3c dcef 86bb 427a 8cbd
000000b0: 824c 20bc aa42 603d 3bc6 a73d e912 9e3d
000000c0: c6dd 383d 75c2 93bd 2ec4 f9bc ee60 9dbd
000000d0: 8834 683d 9eca 953b 0c68 05bc 68e6 5fbd
000000e0: ea41 bcbc 0faa 58bd 0d62 43bd 7419 313d
000000f0: 3cd6 1bbd b820 87bd 3ad1 9dbb fa51 96bd
00000100: 3ca6 96bd aefe 623d 7042 55bd ba24 7e3d
00000110: 417d 853d 8c6a 283d f8f6 4abc 64ff 2cbd
00000120: fd49 18bd 7c68 a53c cacc e7bc 9c64 b63c
00000130: bdc1 933d 8466 06bc c229 11bd be54 503c
00000140: 881e ed3c b4c4 993a 7520 963d 5970 a8bd
00000150: a014 ae3c a247 a4bd ba9f 96bc d228 43bd
00000160: 58ee 3e3d cb2b 903d 74a5 12bd dddd a6bd
00000170: 028a 8c3b 4e38 c93c ba5b 9e3c eaba fabc
00000180: 573f 8dbd ccd9 86bc 4c3f 8cbd 3c22 d7ba
00000190: 6a55 053d a00f f73c ea39 98bd 6e5f a8bd
000001a0: 0662 26bd 1238 bdbc 592e 1cbd 7651 80bc
000001b0: 66d2 f6bc 724d adbd c631 a9bb bb7a 36bd
000001c0: 0a27 d43c 17a9 893d 6cbb 9b3c 4f48 b0bd
000001d0: babb 5bbc d1c4 a33d e2e8 06bd 86bf 81bc
000001e0: 7119 b4bd 141a 283d 5e47 ffbc 1696 053d
000001f0: 1692 fb3b 6c04 a5bd 4cbb 2b3c 6ce5 7abd
00000200: bf6c f6bc 2021 f9bc 4a1b 353d a196 b1bd
00000210: 24db 7ebd 0f1d 82bc e813 a43d a6e6 8bbc
00000220: 5dd6 95bc 38fe d33d 4af0 c03d 9465 613d
00000230: 380c bf3d 2a1f 8bbd 2409 69bd 439a 7e3d
00000240: 9f1c 183d 5ba8 15bd 350d 9d3d d762 a53d
00000250: 6ab0 a73d e972 663a 5846 753c 3548 923d
00000260: 6ed3 0c3d 1cf0 533d d2ed ad3c 12ae aebd
00000270: ee9b 34bd bad9 80bc 718c 213c 3c7c 3dbd
00000280: 6ab2 a23d c073 373d a4a5 08bd 49e9 9d3d
00000290: 8c02 ff3c 41be 0f3d 3346 073d 40d1 103d
000002a0: bb3a 84bd 360b 17be f62c 8e3c 8880 3e3d
000002b0: a5f3 2cbd 7507 a73d ba62 5f3d a22c 1a3d
000002c0: 7038 053b b197 4cbd b678 9abd 78a5 b43b
000002d0: d2b9 baba 4f1b ad3d 5a81 24bc 7a01 a1bd
000002e0: d768 843d 89b9 9bbd cd89 75bc 7503 c73d
000002f0: 4eed 993d 96fa 82bd 6598 ecbc 8b00 c73d
00000300: 1b65 5c3d 715e 1b3d 1700 9f3d 62c4 373d
00000310: e56c 61bd 868b 19bd 21fe 7bbd ea41 b1bd
00000320: 608b 773d 5b78 1dbc 062d 383d 51ab 973d
00000330: 37f4 bd3d 5cf7 8abc 8b90 7c3c 4d97 b33d
00000340: 3115 a53d fee3 87bd 4538 33bd 82e7 79bd
00000350: aaf5 413b 7e7a 3a3d f875 edbc 44f3 d33d
00000360: 11bd 81bd 1e46 643c b844 84bc 7695 493b
00000370: b313 09bd cb07 a3bd 8e06 e8bc 50e8 b53d
00000380: d209 213d 5d54 a03c 6511 ffbb 2640 44bc
00000390: eef1 29bc 8197 593d b575 8abd 52d5 eabc
000003a0: 8569 57bd cf9b d3bc f0d2 833c b190 53b9
000003b0: c5ca 22bd fac0 a43c 4490 583c b645 3c3d
000003c0: 1115 853d b0c1 6fbc a7b9 ba3d 266d 9dbd
000003d0: 27ca 66bc e218 863d 566c 583d 3de5 22bc
000003e0: 5471 6a3d f799 053c 3597 543d f71a a6bd
000003f0: b920 2abd 9c04 abbd b2b5 cfbc bb7e d03c
0.051724464 0.07994851 -0.0820121 -0.018517263 0.014440265 0.07403263 0.06235514 0.03130188
0.04299947 -0.034052577 -0.07227074 -0.04269087 -0.025492076 -0.027566332 0.036710933 0.0021514688
-0.069192655 0.013675846 0.07709884 -0.026155334 -0.069908485 0.03208586 0.026036419 -0.055228703
0.07669879 -0.01884216 0.012749409 0.02013965 -0.0611229 -0.061177768 -0.07347175 -0.021835621
-0.040057436 0.07552057 0.0027064723 0.015027709 0.07019154 0.07460315 -0.07517309 -0.04420209
-0.05880343 0.009694429 -0.004117949 -0.06859256 -0.009783866 0.054751076 0.08192106 0.077184506
0.045133375 -0.07214824 -0.030489054 -0.076845035 0.056690723 0.004571273 -0.0081424825 -0.054663092
-0.022980649 -0.052896556 -0.04770093 0.043237165 -0.038046107 -0.065980375 -0.0048162015 -0.073398545
-0.073559254 0.055418663 -0.052065313 0.062046744 0.06518031 0.041117236 -0.0123879835 -0.042235747
-0.037179936 0.020191424 -0.028295893 0.022264771 0.07214687 -0.008203153 -0.035440214 0.012715517
0.028945222 0.0011731596 0.073304094 -0.082245536 0.02125007 -0.080214754 -0.01838671 -0.04764635
0.04661402 0.07039603 -0.03580232 -0.08147786 0.0042889128 0.024562981 0.019330848 -0.030606706
-0.06896847 -0.016461276 -0.068480104 -0.0016413401 0.03255216 0.030158818 -0.07432921 -0.08221327
-0.040620826 -0.023098025 -0.038130138 -0.015663844 -0.030129623 -0.08462037 -0.005163404 -0.04455064
0.025897522 0.067217045 0.019010268 -0.08607542 -0.013411457 0.07996524 -0.032936938 -0.015838396
-0.08793915 0.041040495 -0.03116196 0.032613836 0.007677327 -0.08057484 0.010481667 -0.06125395
-0.030081151 -0.030411303 0.044215478 -0.08671308 -0.062220708 -0.015882997 0.08011609 -0.017077755
-0.018290693 0.10351223 0.094208315 0.055028513 0.093285024 -0.067930534 -0.056893483 0.062158834
0.03713667 -0.03653751 0.07668535 0.08075493 0.08187945 0.00087909267 0.014970385 0.07142679
0.034381323 0.051742658 0.021231566 -0.08529295 -0.04409402 -0.01572882 0.009860144 -0.046261057
0.07944186 0.044788122 -0.033361092 0.07710511 0.031129144 0.03509355 0.03302593 0.035355806
-0.064565144 -0.1475037 0.017355423 0.046509296 -0.042224545 0.08155719 0.054537512 0.03764022
0.0020327829 -0.04994935 -0.07542555 0.0055128895 -0.0014246053 0.08452474 -0.010040605 -0.0786161
0.06465309 -0.076037474 -0.014986468 0.09717456 0.075159654 -0.06395452 -0.028881261 0.097169004
0.05380736 0.037931863 0.07763689 0.04486502 -0.05503549 -0.037486576 -0.061521653 -0.0865515
0.060435653 -0.0096112145 0.044964813 0.07405723 0.09275096 -0.016963653 0.015415321 0.08769093
0.080606826 -0.06635283 -0.043754835 -0.0610118 0.002959589 0.045526974 -0.028986916 0.103491336
-0.0633489 0.013932733 -0.016146049 0.0030759252 -0.033466052 -0.07960471 -0.028323438 0.08882201
0.039316006 0.019571478 -0.007784056 -0.011978185 -0.010372622 0.053123 -0.06760732 -0.028666172
-0.052590866 -0.025831131 0.016091794 -0.0002017643 -0.039744157 0.02011155 0.013217989 0.04596492
0.06498159 -0.014633581 0.091174416 -0.07686834 -0.014086283 0.06547715 0.052837692 -0.00994235
0.057236984 0.008154384 0.051902015 -0.08110612 -0.041535113 -0.083504885 -0.025355194 0.025451055

layer2.bias f4 [128]
00000000: cd68 aebd e7b0 733d b883 9fbd 97a5 84bc
00000010: fa52 0c3d 5c5e 0c3d cddd 8f3d 3e43 7e3d
00000020: 6492 9cbd 8f76 c5bd da1e 823d f230 80bd
00000030: 886a d13d 4664 57bb 554b 4a3d abe1 21bd
00000040: d212 233d b002 dbbc e195 1f3d e2bc 3cbd
00000050: fa15 133b 1d7c ba3d f61e 63bd 0672 3dbd
00000060: 1984 b93d d9df 2d3b f4e1 86bd 7695 9cbd
00000070: 4233 e03d 0590 8abd 94e1 c2bd f266 2e3d
00000080: 32db 823c ed34 1b3d 3e96 69bb f9c0 47bd
00000090: 477e eb3c ad80 a03c bd32 febb 8f0b 623d
000000a0: 5312 a03c d530 b83d 24f2 073d b9dd 163d
000000b0: ba35 77bd b2e8 5abc 42eb a6bc 95ad 273d
000000c0: ad05 333d f3df 9fbd 9f5e de3c 906c 9a3d
000000d0: 66da a63d 30e2 a7bc eed4 5bb9 81ed 4d3d
000000e0: 1db3 a63d f6e4 303d 2d66 a93b fd5b c83d
000000f0: 3718 003d 988d 90bd ef2f b53c 0838 ee3d
00000100: 325b 8ebc 8392 793c 6eb6 48bd 138a be3d
00000110: d2f0 233d f6e4 a53d d40f a4bd d49a af3c
00000120: bb46 153a 4d1c 263d d9aa b8bb 6236 4ebd
00000130: fcab 78bd b65d 873b d795 a5bd f9ac 0e3d
00000140: aa14 0a3c fa66 27bd 3125 a7bb 37dd 9fbd
00000150: f092 ac3c e830 2238 a74b 543c 12a5 f53c
00000160: 3b09 8fbb 9247 db3c 5ab4 ed3d 76bb 08bd
00000170: 8c90 1f3d 6658 61bd 545c 17bc a4ce 3b3d
00000180: 3bc2 9b3d 0275 75ba 52f0 993d a4d2 babc
00000190: 929a 42bd f3e8 64bd 0539 c0bc f478 8ebd
000001a0: e7f8 e4bc afd2 8c3d 1103 2f3d 642c 9c3d
000001b0: 0865 e637 af19 e33c d56d 9a3d 5266 68bc
000001c0: 8b35 8e3d c855 fe3c 0260 bd3c 392c a6bd
000001d0: d52a a93d b0ba b33c 8efa 9fbd 249b afbb
000001e0: 9aea 5bbd 9714 1bbc f45e e23c 5db0 243d
000001f0: 4c9b 103d ac95 903b d6b6 d038 0896 90bd
-0.08516083 0.05949488 -0.07788795 -0.01619224 0.03425882 0.034269676 0.07024727 0.062075846
-0.07645109 -0.09641754 0.06353541 -0.062593356 0.10225397 -0.0032866164 0.04938825 -0.039521854
0.03981287 -0.02673468 0.038961295 -0.04607857 0.002244352 0.09105704 -0.05544945 -0.04625132
0.09058399 0.0026531129 -0.06586066 -0.07645695 0.10947277 -0.06765751 -0.09515682 0.042578645
0.015973661 0.03789227 -0.003564253 -0.048768017 0.028746737 0.019592607 -0.0077575133 0.055186804
0.019539988 0.08993689 0.033189908 0.036832545 -0.060353972 -0.013361143 -0.020375852 0.040937025
0.043706585 -0.07806387 0.027144728 0.07540238 0.08147125 -0.020493597 -0.0002096479 0.05027533
0.08139632 0.043187104 0.005169651 0.0978317 0.031273093 -0.07058257 0.022117583 0.11631781
-0.01737747 0.015232685 -0.049002104 0.09303679 0.040024586 0.081003115 -0.080108315 0.021436132
0.00056944386 0.040554333 -0.005635601 -0.050344832 -0.060710892 0.0041310443 -0.0808522 0.03483293
0.008427778 -0.04086969 -0.005100869 -0.07805865 0.021066159 3.8669357e-05 0.01295749 0.029985938
-0.004365114 0.026767526 0.11606665 -0.0333819 0.03895621 -0.055015944 -0.009238321 0.045851365
0.07605406 -0.0009363444 0.075165406 -0.02280552 -0.04751069 -0.05588622 -0.023464689 -0.06956664
-0.027950717 0.06876122 0.042727534 0.07625654 2.7465183e-05 0.027722208 0.0754048 -0.014184551
0.06943806 0.031046763 0.02311707 -0.081139036 0.08260123 0.021939605 -0.078114614 -0.0053590704
-0.05369053 -0.009465358 0.027633168 0.040207256 0.035304353 0.0044123735 9.952269e-05 -0.07059866

layer3.weight f4 [2, 128]
00000000: 176d 34bd 8984 1b3d 789c 3c3d 1bb8 e83c
00000010: af98 81bd 9c4f 96bc 3c14 2d3d 85b1 06bd
00000020: 8d1d 6bbd 67b6 c23d f582 1a3d db5a 81bd
00000030: e537 0d3d df01 7f3d c683 b53d a773 8cbd
00000040: fb4e 463d 6473 a4bd 3535 bebc 6196 973d
00000050: 70ac 1c3e 5905 183c 06bd 0a3d 750b 1cbc
00000060: 4ec1 843d 84ed a8bb 50dc 60bd 6a03 edbc
00000070: 9379 61ba e6c7 9c3c 39a0 64bd e23a 293d
00000080: 108c e63d 0bbb 313d 6953 843d 36e0 043d
00000090: c9d0 bb3c de20 a0bd ed67 f23a e2c1 e1bd
000000a0: 5386 2f3d 2023 9c3d 1bee a7bc 0c94 c83b
000000b0: 1c0a 87bd afee 96bd 2461 ea3c 1dfd 223c
000000c0: 13ec 663d 34ac 2a3c c125 e7bc e1d5 bd3d
000000d0: c803 643d 4da1 80bd 23ef b13b 2073 8ebd
000000e0: 8c36 803d 2106 80bd 3b9a acbc 8f8c b43d
000000f0: 1bc6 d7bb f674 aabd 4b2d 34bc 4d4b f13d
00000100: 784f e03c 431c 93bd d633 d2bc 984c ac3d
00000110: 3b92 983d 9146 203d 1249 7e3d 917f 3f3d
00000120: b9f8 a3bd 45e9 043d 9209 733d f51f c23d
00000130: 1750 b1bd 5a43 a7b9 bf1e 3abd c4df f53d
00000140: 7e84 963c 7b6b 40bd e98d 243c d501 0bbd
00000150: ff19 a23b 7b66 be3b a746 c43d 7c74 1d3d
00000160: 214e ba3c e11f c13d 7418 7c3d c8ab 9e3d
00000170: 7e76 83bd 1251 ac3c 763d 58bd dfce 803d
00000180: 4668 1b3d 0da6 7c3d 45bb b13d 8832 af3d
00000190: ff07 6f3d 8eb5 95bc 3aae c63d 32e7 223d
000001a0: a9da db3d 563c 93bd 5c1f 6fbc d37e 83bd
000001b0: 4205 bd3d 0e07 d53d 0a88 0a3d 3a57 b0bd
000001c0: d997 8f3d 1b05 983d 4cd3 f43c 1533 a3bd
000001d0: 7579 b53d 97f4 09bd 20cd 0f3d 5444 a33d
000001e0: f9af 96bc 3efd bfbc dc6f 5a3d 9bca 2ebd
000001f0: 2005 2d3d 0474 303d 1876 053d 2c5d b2bd
00000200: eb3a 903d 5e9b 823d 05f5 11bd 5299 57bd
00000210: 5d56 84bd 97a2 963b 4118 53bd b43a 6d3c
00000220: 1098 a1bc c2b2 40bd 7d6e ee3d e8be bebc
00000230: a125 6c3d e323 a2bd 7c0e 2e3d 0dc8 6cbc
00000240: c477 b13d b984 2e3d a469 36bd 70f2 2abd
00000250: 585b fc3d 4e17 e53c 04b6 713d cda0 2dbd
00000260: 0c5a 493b 4cda 09bd bc9a b3bc 6a31 333c
00000270: bfd1 8f3d f60e 16bd d479 363c 04ab e13c
00000280: 3562 c43c aac7 4a3d 66c0 883d ff29 20bd
00000290: 5be2 b23d 18b4 10bd d7f6 71bb 0a23 a83c
000002a0: dff4 96bd 4205 dc3c 8f92 f53a c617 8bbc
000002b0: 1673 dcbc 9bc0 dbbc 72ee c23d fb99 0fbd
000002c0: d199 e13d 5a30 49bc 6404 913d 9ed3 f63d
000002d0: 15d2 26bc 5328 f3bb 571d 01bd a4b6 19bd
000002e0: 71c2 1fbc ba57 34bc ab62 27bd 9227 873d
000002f0: d166 d63d 77d4 813d 369a de3d aae8 46bd
00000300: 42cf d53d bf15 33bc 43de cf3d 985a ccbc
00000310: bb8d 32bc 4fb5 dc3d 95a9 913d 2384 98bd
00000320: f2d2 0a3d f0bb 443d 6521 8c3d dbd4 c03d
00000330: abf5 a73c 942f 04bb 8cd7 9a3c 5dea a3ba
00000340: 66f3 29bb d52d ad3d e037 e53d b1b6 b13c
00000350: 8e6a 5ebd 7f87 8a3d adc6 313c 822d 61bd
00000360: bee7 be3d f23f 9c3d a823 f8bb c4f2 c73d
00000370: dda1 12bd 8bb6 e13d 9db3 03bd 23e4 af3d
00000380: bf3c 8a3d 8f50 973c cd06 8d3b 74a9 963d
00000390: e6ec 523d d219 61bd 0655 933d 4267 b3bc
000003a0: 7b24 a93d 2067 a7bd f252 85bd aee9 963c
000003b0: 5226 163e 1258 903c f115 053d 36fa a93d
000003c0: 23e6 9b3c bbd1 503d a29d 2f3d 759f acbd
000003d0: cad4 a33d 5f51 41bb aa6d 70bd c3f2 dc3d
000003e0: fab5 b5bc e4ba 5fbc 073d a1bc 1acd 41bc
000003f0: 4f84 ac3c 9cc4 d83d 01e6 9d3d 1634 be3c
-0.04404935 0.037968192 0.046047658 0.0284081 -0.0632795 -0.018348508 0.042255625 -0.03288414
-0.05740123 0.09507447 0.037722547 -0.063161574 0.034477133 0.062257644 0.088630244 -0.068579964
0.048415165 -0.080298215 -0.02321873 0.074017294 0.15300155 0.009278619 0.033871673 -0.009524216
0.064821824 -0.005155267 -0.054897606 -0.028932292 -0.0008601185 0.019138288 -0.055816863 0.04131592
0.112571836 0.04339127 0.06461222 0.032440387 0.022926705 -0.07818769 0.0018494107 -0.11023308
0.04285271 0.07623887 -0.02049928 0.006121164 -0.06593725 -0.07369744 0.028610773 0.009948042
0.05637748 0.010417033 -0.028216245 0.0926931 0.05566767 -0.06280766 0.0054301186 -0.06955552
0.06260404 -0.06251169 -0.021069637 0.08815872 -0.0065848953 -0.0832309 -0.010997127 0.117819406
0.027381644 -0.07183125 -0.025659483 0.084130466 0.07449766 0.039129797 0.062081404 0.046752516
-0.080064245 0.032449026 0.0593353 0.094787516 -0.08657854 -0.00031902903 -0.045439478 0.120055705
0.018373724 -0.0469775 0.0100436 -0.033937294 0.0049469466 0.0058105565 0.09583788 0.038441166
0.022742333 0.094299085 0.061546758 0.077476084 -0.06419085 0.021034751 -0.05279299 0.062894575
0.03794124 0.061681796 0.08678297 0.0855456 0.058357235 -0.018275049 0.097012 0.039771266
0.107350655 -0.071892425 -0.014594879 -0.06420674 0.092295185 0.10401736 0.033821143 -0.08610387
0.070113845 0.07422849 0.02988591 -0.079687275 0.08861057 -0.033680525 0.03510773 0.07972017
-0.018394457 -0.023436185 0.053329334 -0.04267369 0.042241216 0.04307939 0.032583326 -0.087091774
0.07042488 0.0637729 -0.03563406 -0.052636452 -0.06461785 0.004597019 -0.051536802 0.014479328
-0.01972583 -0.047045477 0.11642168 -0.02328439 0.057653073 -0.07917001 0.042494282 -0.014451993
0.086654216 0.042607043 -0.04453434 -0.041735113 0.1232211 0.027965214 0.059011474 -0.04238968
0.0030723838 -0.03365545 -0.021924369 0.010937074 0.07022428 -0.03663536 0.0111374445 0.027547367
0.02397261 0.04950682 0.06677322 -0.03910255 0.0873458 -0.035328 -0.003692081 0.02052452
-0.07370924 0.026857976 0.0018735694 -0.01697911 -0.026910346 -0.02682524 0.09518136 -0.035058957
0.11015666 -0.012279594 0.070809156 0.120520815 -0.010181923 -0.0074205785 -0.03152212 -0.037527695
-0.009750948 -0.011007244 -0.04086558 0.06599344 0.104688294 0.063393526 0.10869257 -0.04856173
0.10439922 -0.010930478 0.10149815 -0.024945542 -0.010898049 0.10776769 0.07112423 -0.07447078
0.03389258 0.048030794 0.06842307 0.09415599 0.020502886 -0.002016996 0.018901609 -0.0012505759
-0.002593243 0.084560074 0.11192298 0.02169356 -0.054300837 0.06764125 0.010850591 -0.05497504
0.09321545 0.07629384 -0.00757261 0.09763101 -0.035798896 0.110211454 -0.032153714 0.085884355
0.06749868 0.01847103 0.004303789 0.07356539 0.051495455 -0.054956265 0.07193951 -0.021899823
0.08258911 -0.081739664 -0.06509961 0.018421974 0.14663056 0.01762012 0.032491628 0.08299677
0.019030636 0.050981265 0.04287494 -0.084288515 0.07999571 -0.0029497964 -0.058698334 0.107884906
-0.0221815 -0.013655398 -0.01968242 -0.011828685 0.021059183 0.10584375 0.077098854 0.023218196

layer3.bias f4 [2]
00000000: be95 b83d 87e0 ae3c
0.09012936 0.021347297
