CartPoleDQN/dqn_cartpole90.pth (torch, 72745 bytes, 6 tensors)

layer1.weight f4 [128, 4]
0	0x3e85e5a5	0.26151767
1	0xbe56a3b2	-0.20960882
2	0x3cc1c446	0.02365316
3	0xbe0272a4	-0.12739044
4	0x3e9bb350	0.30410242
5	0xbee69275	-0.45033613
6	0x3ed2e612	0.41191155
7	0x3ef34847	0.4751608
8	0x3e6a648e	0.22889921
9	0x3e4708fd	0.19437023
10	0x3dd3bfb8	0.10339302
11	0x3bcd106d	0.0062580616
12	0xbe829198	-0.25501704
13	0xbe946aa8	-0.28987622
14	0x3dccde5f	0.100033514
15	0x3cdd8b05	0.027043829
16	0x3eb8549e	0.36002058
17	0xbed65199	-0.4185913
18	0xbeb6e063	-0.35718068
19	0xbeaf114e	-0.3419289
20	0xbf0ce535	-0.5503724
21	0xbd5b09b0	-0.053476036
22	0x3e8564cb	0.2605346
23	0xbe98c368	-0.29836583
24	0x3ed131ce	0.4085831
25	0xbec5fe39	-0.3867052
26	0xbf605127	-0.8762383
27	0xbf0be136	-0.5464052
28	0x3f6ac8f7	0.917129
29	0x3dde80e6	0.10864429
30	0xbf7ba64c	-0.98300624
31	0xbe65318f	-0.22382186
32	0x3f0d205f	0.5512752
33	0xbd5547e9	-0.052070532
34	0xbf6eca96	-0.9327787
35	0x3eb79b85	0.3586084
36	0xbefefd86	-0.49802798
37	0xbe8fa485	-0.28055206
38	0xbe55479a	-0.20828095
39	0x3e09b499	0.13447799
40	0x3e81ff74	0.25390208
41	0xbd96536e	-0.07340132
42	0xbea354b6	-0.31900567
43	0xbebeba29	-0.37251404
44	0x3c33ea7a	0.010981197
45	0x3f097a58	0.53702307
46	0x3f61e540	0.8824043
47	0x3e372656	0.17885718
48	0x3eb7d276	0.35902756
49	0xbef82f08	-0.48473382
50	0xbf6285ff	-0.8848571
51	0xbf0de008	-0.5541997
52	0xbdd7649d	-0.10517237
53	0xbc505014	-0.012714405
54	0xbeb715ea	-0.35758907
55	0xbe2fe847	-0.1717845
56	0xbef12dae	-0.47105163
57	0x3eb594fa	0.35465223
58	0x3ede26e5	0.4338905
59	0x3e262cdd	0.16228051
60	0x3e0724a3	0.1319757
61	0xbe8e97ff	-0.2785034
62	0x3f740afa	0.9532925
63	0x3eadfeab	0.3398336
64	0x3f13ae1c	0.57687545
65	0xbd9acf6c	-0.07559094
66	0xbd89107e	-0.06692599
67	0x3e8b6247	0.27223417
68	0xbe3026d9	-0.17202319
69	0xbe86aed2	-0.26305252
70	0xbd9282fd	-0.0715389
71	0xbe874e1e	-0.26426786
72	0x3a8c609e	0.0010709947
73	0x3e107055	0.14105351
74	0x3f36fb60	0.7147732
75	0x3e2a74fd	0.1664619
76	0x3e59bcd1	0.21263434
77	0x3e0d9672	0.13826922
78	0xbfa027ae	-1.2512109
79	0xbf359921	-0.7093678
80	0xbe8b9244	-0.2726003
81	0xbec85c50	-0.3913293
82	0x3f2a903d	0.6662634
83	0x3eb888c6	0.3604185
84	0xbe9ca291	-0.30592778
85	0x3ee6a7f4	0.45050013
86	0x3f20a325	0.6274894
87	0xbe8303e3	-0.25588903
88	0x3eaf84e4	0.34281075
89	0xbecd587f	-0.4010658
90	0xbdce377d	-0.10069177
91	0x3e314940	0.17313099
92	0x3eb9c981	0.36286548
93	0xbe1a2443	-0.15052895
94	0xbee5bd28	-0.44870877
95	0xbd88dcd8	-0.066827476
96	0xbeefbed7	-0.46825287
97	0x3ea3dab4	0.32002795
98	0xbf1d6191	-0.61477
99	0xbda0fc96	-0.07860677
100	0x3f18c2c0	0.59672165
101	0x3d131059	0.035904262
102	0xbefd988c	-0.49530447
103	0xbd802075	-0.06256191
104	0xbcaa1c02	-0.020765308
105	0x3d85ebfc	0.06539151
106	0xbe67d431	-0.22639538
107	0x3ca4a370	0.020097464
108	0xbde70622	-0.112804666
109	0x3f13bd60	0.5771084
110	0x3f238bce	0.638852
111	0x3eab7bd0	0.334929
112	0xbe999f88	-0.30004525
113	0x3ef89386	0.4855005
114	0x3e4e1123	0.20123725
115	0xbec4cb9b	-0.3843659
116	0xbef1c934	-0.47223818
117	0x3e146468	0.14491427
118	0x3e1c1e32	0.15245894
119	0xbdf35567	-0.118815236
120	0x3eebacc7	0.46030256
121	0xbe11a764	-0.1422401
122	0xbea468f6	-0.3211133
123	0xbee1ecea	-0.44126064
124	0xbd4e0346	-0.05029609
125	0x3be86537	0.007092144
126	0xbece996e	-0.40351433
127	0xbddd5aed	-0.10808358
128	0xbed4a772	-0.41534
129	0x3e06f47f	0.13179205
130	0x3f80fc1f	1.0076941
131	0x3edad4e9	0.42740563
132	0x3df67222	0.12033488
133	0x3dee6bbf	0.11641645
134	0xbe85dbcb	-0.2614425
135	0x3e32c265	0.17456968
136	0xbee296ea	-0.44255763
137	0x3e61d944	0.22055537
138	0xbd200ff2	-0.039077707
139	0x3e27eac0	0.16398144
140	0xbe38d867	-0.18051301
141	0xbea2aa02	-0.3177033
142	0xbde1b3a7	-0.11020594
143	0xbec986f1	-0.39360765
144	0x3ee7be5d	0.45262423
145	0xbedebf4e	-0.4350533
146	0xbf439fa8	-0.7641549
147	0xbdfe4493	-0.12415423
148	0x3f30ec4b	0.69110554
149	0xbe889208	-0.26673913
150	0xbf2bcc5c	-0.671087
151	0xbb6e3f4d	-0.0036353648
152	0x3e2c1491	0.1680472
153	0x3ed83753	0.4222971
154	0x3e444181	0.19165613
155	0x3e1e842a	0.15480104
156	0x3da54a93	0.080708645
157	0x3f0742f1	0.5283652
158	0x3eb6769d	0.3563737
159	0x3d0e1eb0	0.034697235
160	0x3eadf7af	0.3397803
161	0xbe0977ac	-0.13424557
162	0x3e093b9a	0.13401642
163	0xbe9c5b62	-0.3053847
164	0x3d8d647c	0.069039315
165	0xbe17eada	-0.14835683
166	0x3dd71f3d	0.10504005
167	0xbe0a18b3	-0.13485985
168	0x3f0c0e25	0.5470908
169	0xbe6ee893	-0.23330908
170	0x3dac47ff	0.0841217
171	0x3e52196b	0.20517509
172	0x3da2dea0	0.079526186
173	0x3a84370a	0.0010087204
174	0xbed6ab1d	-0.41927424
175	0x3de1c221	0.11023355
176	0xbda59c32	-0.080864325
177	0xbe32d877	-0.17465387
178	0xbf596aa7	-0.84928364
179	0x3e97a876	0.29620713
180	0x3da630d3	0.08114781
181	0x3ec2555a	0.37955743
182	0x3f2fe23d	0.6870459
183	0x3db90edc	0.09036037
184	0xbdc043ca	-0.0938793
185	0xbe059e5e	-0.13048694
186	0xbee7b2c0	-0.45253563
187	0x3e1ac6fc	0.15114969
188	0xbec0d459	-0.37662008
189	0x3e83b26e	0.2572207
190	0x3e1664c3	0.14686875
191	0xbdfab6e3	-0.12241914
192	0xbe4b0811	-0.19827296
193	0x3d906f93	0.07052531
194	0x3f15e9ab	0.58559674
195	0x3d93dbfe	0.072196946
196	0x3e011d75	0.12608893
197	0xbeb2bd18	-0.34909892
198	0x3deefbc7	0.116691165
199	0x3ed71e2e	0.42015213
200	0x3deebabb	0.1165671
201	0xbe1475de	-0.14498088
202	0x3f0777a5	0.5291694
203	0xbd8871e0	-0.06662345
204	0x3d4ed20b	0.05049328
205	0xbee6be60	-0.4506712
206	0x3e9b3d79	0.30320337
207	0x3ebb2ad3	0.3655611
208	0xbd100786	-0.035163425
209	0xbe029d70	-0.1275537
210	0xbdf2fab8	-0.11864227
211	0xbe8a8edb	-0.27062115
212	0xbecb7265	-0.39735714
213	0xbea8734f	-0.32900473
214	0xbe43f51d	-0.19136472
215	0xbe8548d1	-0.26032117
216	0x3f159998	0.5843749
217	0xbea54fb8	-0.32287383
218	0xbf7c166f	-0.9847173
219	0xbee6b94a	-0.4506324
220	0x3da16e38	0.07882351
221	0x3f13a67d	0.57675916
222	0x3f01af3d	0.5065802
223	0x3e3c132c	0.18366688
224	0x3ec9ad60	0.39390087
225	0xbd260376	-0.040530644
226	0x3ed0face	0.4081635
227	0xbe7d8628	-0.24758208
228	0x3ef82afb	0.48470291
229	0xbf03fcb8	-0.51557493
230	0xbf336771	-0.70079714
231	0xbdffaf79	-0.12484641
232	0xbede32fc	-0.43398273
233	0xbedfae9b	-0.436879
234	0x3e624023	0.22094779
235	0xbdf03e8e	-0.11730681
236	0x3ecf4ee0	0.40489864
237	0xbe5b51e2	-0.21417955
238	0xbf6e33d9	-0.93047863
239	0xbe71ba22	-0.2360616
240	0x3f2c35b4	0.67269444
241	0xbeb74a28	-0.35798764
242	0xbf1b5e8d	-0.6069115
243	0xbed82d90	-0.4222226
244	0x3e8236f4	0.2543255
245	0xbeceede7	-0.4041588
246	0xbec7f59e	-0.3905458
247	0xbdb4aea3	-0.08822372
248	0x3e69cd69	0.22832264
249	0x3e787aaa	0.24265543
250	0x3d8178b7	0.06321853
251	0xbbb8322f	-0.0056212167
252	0x3f6a2851	0.9146777
253	0x3e1b0727	0.15139447
254	0xbfc4a879	-1.5363914
255	0xbe3be3ec	-0.18348664

layer1.bias f4 [128]
0	0xbee976c8	-0.45598435
1	0xbe9d3c7e	-0.30710214
2	0x3efd2753	0.49444064
3	0x3e894034	0.26806796
4	0x3ef53ee4	0.47899544
5	0x3f1a6d3c	0.6032293
6	0xbec3a1a7	-0.38209268
7	0xbeb8866b	-0.36040053
8	0x3e8aff8f	0.271481
9	0x3f1da2d0	0.6157656
10	0xbeb6d896	-0.35712117
11	0x3e7b8184	0.24561125
12	0xbeaed3b0	-0.3414588
13	0x3f1f7687	0.62290233
14	0x3e98ba73	0.2982975
15	0xbf011765	-0.5042632
16	0x3efadf0f	0.48998305
17	0xbec7f223	-0.39051923
18	0xbe26a548	-0.16273987
19	0x3df6bf71	0.12048233
20	0xbf01d537	-0.50715965
21	0x3e7723c0	0.24134731
22	0x3f0270c7	0.50953335
23	0x3f0ecd8f	0.5578241
24	0xbeb6c4c4	-0.35696995
25	0xbec48180	-0.3838005
26	0x3eed1763	0.46306905
27	0x3ea7b523	0.32755384
28	0x3f1fc251	0.6240588
29	0x3ed80764	0.4219314
30	0xbed28e50	-0.411242
31	0x3ef836f2	0.4847942
32	0xbeae3f34	-0.34032595
33	0x3f209042	0.6272012
34	0xbea6252f	-0.32450244
35	0x3f0eada5	0.5573371
36	0xbdb3511b	-0.08755704
37	0x3ed1ad21	0.409524
38	0x3e4bf9af	0.19919465
39	0x3e4f738e	0.20258924
40	0x3f167874	0.58777547
41	0xbe8dc46a	-0.27688915
42	0x3e47e602	0.19521335
43	0xbed78134	-0.42090762
44	0x3e61b5d6	0.22042021
45	0xbe7e0b6b	-0.24809043
46	0x3e9b97d0	0.3038926
47	0x3e598afe	0.21244428
48	0x3e8500a4	0.2597705
49	0x3db61c19	0.08892078
50	0x3f11af4a	0.56908095
51	0x3ea21ad9	0.31661108
52	0x3f059b14	0.52189755
53	0xbe3172f0	-0.17329001
54	0xbeaf658d	-0.34257165
55	0xbeba9878	-0.3644445
56	0x3f1c32fb	0.6101529
57	0xbe50d2ad	-0.20392866
58	0x3ebccdea	0.3687585
59	0xbd022bca	-0.03178004
60	0xbe819563	-0.25309286
61	0x3ddda93f	0.10823297
62	0x3f181f47	0.59422725
63	0x3c95ddc3	0.01829422
64	0x3ee7bb5e	0.45260137
65	0x3d26b697	0.040701475
66	0x3ee0e0f0	0.43921614
67	0x3eda3824	0.42620957
68	0xbeb3556e	-0.35026115
69	0x3dc35df0	0.095394015
70	0xbd18b012	-0.03727729
71	0x3ec9062c	0.3926252
72	0x3e1a3000	0.15057373
73	0x3e922204	0.28541577
74	0xbdc9554c	-0.09830722
75	0x3ea08614	0.31352293
76	0xbe39be20	-0.18138933
77	0xbe9d7a2f	-0.3075728
78	0x3f1d5e8e	0.61472404
79	0x3ef682f8	0.48146796
80	0x3ec6d352	0.388331
81	0xbe98c92a	-0.29840976
82	0x3f0c332e	0.54765594
83	0x3f0f9d86	0.56099737
84	0x3c8e99a2	0.017407242
85	0x3f09fe28	0.53903437
86	0x3dddeb20	0.10835862
87	0x3e6fbe3f	0.23412417
88	0x3f0f7024	0.5603049
89	0xbe8c41d9	-0.27393988
90	0x3f2b4997	0.66909164
91	0x3f01aaaf	0.5065107
92	0xbddb49a5	-0.10707406
93	0x3f183b98	0.5946593
94	0xbeaa569a	-0.33269197
95	0x3e2827d9	0.1642145
96	0xbe221dbe	-0.15831658
97	0x3cafa46a	0.021440703
98	0x3e8a0473	0.2695652
99	0x3f139f7b	0.5766522
100	0x3f1647df	0.58703417
101	0x3f0a3a30	0.5399504
102	0xbe85b17e	-0.26111978
103	0xbed0b839	-0.4076555
104	0xbe662af6	-0.22477326
105	0xbe90fb96	-0.28316945
106	0xbee1af7f	-0.44079205
107	0x3e3382c8	0.17530358
108	0x3e728dcf	0.23686908
109	0x3e2e32dd	0.1701159
110	0x3e866114	0.2624594
111	0xbebbcf57	-0.36681625
112	0x3e59eee1	0.21282531
113	0x3e85a4c8	0.2610228
114	0x3f0d0f37	0.5510134
115	0xbe9c7796	-0.30559987
116	0xbeeca05c	-0.46216094
117	0x3cb8a9be	0.022541877
118	0x3efdaff0	0.49548292
119	0xbe9a0e52	-0.3008905
120	0xbec5dc69	-0.38644722
121	0xbefd44f2	-0.49466664
122	0xbe935d4d	-0.2878212
123	0x3ec03e5d	0.3754758
124	0xbe7cb939	-0.24680032
125	0xbe6fa415	-0.23402436
126	0xbf061394	-0.52373624
127	0xbeb93f49	-0.36181095

layer2.weight f4 [128, 128]
0	0x3a108107	0.00055123906
1	0x3d89a052	0.06720032
2	0xbd8da286	-0.069157645
3	0x3da912fc	0.08255574
4	0xbd50d70c	-0.050986335
5	0xbd8dd1a4	-0.069247514
6	0xbd944f01	-0.07241631
7	0xbd8ca5dc	-0.06867573
8	0xbd498914	-0.049202994
9	0xbd007a8f	-0.03136688
10	0x3d8e4cfb	0.069482766
11	0x3ca9a3c4	0.020707972
12	0x3d8e0ca9	0.069360085
13	0xbd942ba4	-0.07234886
14	0x3cd7b81d	0.02633291
15	0x3d9d528a	0.07681759
16	0xbcd2a7e1	-0.025714817
17	0xbd579fbd	-0.052642573
18	0xbda229a8	-0.079181015
19	0xbd0b6943	-0.034035932
20	0xbd0a747c	-0.033802494
21	0xbbfe26c2	-0.007756085
22	0xbd918bb4	-0.071067244
23	0x3d8850d4	0.06656042
24	0xbc04d092	-0.008106368
25	0x3da42514	0.080148846
26	0xbcc49aea	-0.02399965
27	0x3db0f834	0.08641091
28	0x3da3cebd	0.079984166
29	0xbd9625af	-0.07331406
30	0xbd557716	-0.052115522
31	0xbd82b7bc	-0.06382701
32	0x3c8e7778	0.017390952
33	0x3d49dc2c	0.049282238
34	0xbcdb07fa	-0.026737202
35	0x3d78af67	0.06071415
36	0x3bb01ad2	0.005374291
37	0x3d960985	0.073260345
38	0xbd5cad29	-0.053876076
39	0xbd4a9bd2	-0.049465008
40	0xbcbec4a0	-0.023287117
41	0x3c21e870	0.009882078
42	0xbd9dcb22	-0.0770476
43	0xbaa38d04	-0.0012477939
44	0xbd23ce61	-0.03999174
45	0x3d7d1b65	0.061793704
46	0x3cdd10c1	0.026985528
47	0xba941ed5	-0.0011300693
48	0xbbb00e6f	-0.0053728144
49	0xbd7fb3e2	-0.06242741
50	0xbd97a993	-0.074053906
51	0xbce5e49a	-0.028063107
52	0x3b8970c3	0.0041943504
53	0xbd4b636a	-0.049655356
54	0xbc2a9d96	-0.010413548
55	0x3c1fff11	0.009765402
56	0xbc529a42	-0.012854161
57	0xbd61140d	-0.054950763
58	0x3d9cfdba	0.07665582
59	0xbc9bb59f	-0.019007502
60	0x3c4abcf0	0.012374148
61	0x3d57ecb7	0.052715983
62	0x3d4b01d2	0.049562283
63	0xbd907239	-0.07053036
64	0x3d3a6139	0.045502875
65	0x3d47ff56	0.04882749
66	0xbcdd121d	-0.026986176
67	0x3d8a5038	0.06753582
68	0xbdaafd1a	-0.083490565
69	0xbd9ecaca	-0.07753523
70	0xbd7c94f5	-0.061665494
71	0x3cce6238	0.025193319
72	0x3d22458a	0.0396171
73	0x3d05e47c	0.032688603
74	0xbd88a67b	-0.06672379
75	0xbb3fc77c	-0.002926319
76	0xbd1b71bc	-0.037950262
77	0x3d8af39d	0.06784747
78	0xbd178616	-0.03699311
79	0x3ce71240	0.028206944
80	0xbd57f380	-0.052722454
81	0xbcd49d36	-0.02595387
82	0xbd928cee	-0.071557865
83	0xbd4624a3	-0.048374783
84	0x3c82a99e	0.01595002
85	0x3c6f557e	0.014607785
86	0x3d913574	0.070902735
87	0xbce27b03	-0.027646547
88	0xbcfde886	-0.030994665
89	0x3d6e6f65	0.058211703
90	0xbcbe396b	-0.023220738
91	0xbd8d45a6	-0.0689805
92	0x3d74b34c	0.059741303
93	0xbd5d27a0	-0.053992867
94	0xbccaed84	-0.02477146
95	0x3da80dc6	0.08205752
96	0x3c9e915d	0.019356424
97	0xbd6c887a	-0.05774734
98	0x3d323ba1	0.043513898
99	0x3d90ca06	0.07069783
100	0xbcabb68e	-0.020961072
101	0xbd83686e	-0.06416403
102	0xbd164bff	-0.03669357
103	0xbd9fe61a	-0.0780756
104	0xbd5c12fc	-0.053729042
105	0xbd956eab	-0.07296499
106	0xbd16bab0	-0.036799133
107	0xbd0a5ce9	-0.033780012
108	0xbd1b697e	-0.037942402
109	0x3da5fada	0.08104487
110	0x3d83cc3d	0.0643544
111	0xbce87334	-0.028375246
112	0x3d5e0738	0.054206103
113	0x3b6b73f5	0.003592727
114	0xbd6cabad	-0.05778091
115	0xbbdca92e	-0.006734035
116	0x3d81a7c0	0.06330824
117	0xbd117d9f	-0.035520192
118	0xbd35a4ac	-0.044346496
119	0x3d1d7aa5	0.03844704
120	0x3a865d56	0.0010251205
121	0xbd77ae72	-0.0604691
122	0xbda85669	-0.082196064
123	0xbca7c73d	-0.020480746
124	0xbc319f53	-0.0108412085
125	0x3d7baaa3	0.06144203
126	0xbd54f142	-0.051987894
127	0x3d30bef5	0.04315086
128	0xbc8892ff	-0.016671656
129	0xbd8f1304	-0.06986049
130	0x3daaeb30	0.0834564
131	0xbce5b3e4	-0.02803988
132	0x3d7ebdd1	0.06219274
133	0x3dd4299d	0.103594996
134	0xbf00c3cd	-0.5029877
135	0xbde1bd2b	-0.11022409
136	0xbd34df36	-0.044158183
137	0x3e2403cd	0.16017075
138	0xbe072a2c	-0.13199681
139	0x3daf0efa	0.085477784
140	0xbefe1728	-0.49627042
141	0x3d344547	0.04401138
142	0x3e4d37e7	0.20040856
143	0xbe357104	-0.17718893
144	0x3e105566	0.14095077
145	0xbddeab33	-0.108724974
146	0xbed10f17	-0.40831825
147	0x3d3dff53	0.046386074
148	0xbcf97469	-0.030451017
149	0x3dcf9676	0.1013612
150	0x3d3ff7ea	0.04686729
151	0x3e011259	0.12604655
152	0xbe356c19	-0.17717017
153	0xbece6704	-0.4031297
154	0x3e2b2699	0.16713943
155	0x3e0a3b20	0.13499117
156	0x3db23575	0.08701602
157	0x3d1c310e	0.03813272
158	0xbe5c707a	-0.21527281
159	0x3dccdcf1	0.10003079
160	0xbdbba50f	-0.09162342
161	0x3e3207af	0.17385744
162	0xbe1756f5	-0.14779265
163	0x3e1f7c11	0.15574671
164	0x3e4dd319	0.20100059
165	0x3e356c2f	0.1771705
166	0x3d727033	0.059189033
167	0x3deeac2d	0.11653934
168	0x3e02f4ef	0.12788747
169	0x3b348746	0.002754645
170	0x3d9ce366	0.0766056
171	0xbdaf5d65	-0.085627355
172	0x3d87ebd4	0.066367775
173	0xbe826b0a	-0.2547229
174	0x3e273e50	0.16332364
175	0xbcb80412	-0.022462878
176	0x3e226513	0.15858869
177	0xbd786e0b	-0.06065182
178	0x3d573684	0.052542225
179	0x3d048376	0.032351933
180	0x3dd9d7d7	0.10636871
181	0x3e2bb8d3	0.16769724
182	0xbeb8a2ae	-0.36061615
183	0xbe017e72	-0.12645891
184	0x3ddac66c	0.10682377
185	0x3d415355	0.047198612
186	0x3bc4132e	0.0059837317
187	0x3ec522c4	0.38503087
188	0xbe4d36fb	-0.20040505
189	0x3d44f598	0.04808578
190	0x3e23b71a	0.15987816
191	0xbc1cb4da	-0.009564603
192	0x3d3b59c4	0.045739904
193	0xbbd1545c	-0.0063882302
194	0x3dfbcfd0	0.122954965
195	0x3dc34b2d	0.09535823
196	0xbeebb922	-0.46039683
197	0x3c6574ff	0.014004945
198	0xbd98be06	-0.07458119
199	0x3db92c85	0.090416946
200	0x3decd700	0.115644455
201	0x3d9cce30	0.07656515
202	0xb8c17d1e	-9.226262e-05
203	0x3de2735c	0.11057159
204	0x3cab417d	0.02090525
205	0x3a8210d9	0.0009923234
206	0x3e1878be	0.1488981
207	0x3dd3d1f0	0.10342777
208	0x3c610973	0.013735163
209	0xbe1a0ffd	-0.15045162
210	0x3e0e751c	0.13911861
211	0x3cc5c441	0.024141433
212	0x3ea28144	0.31739247
213	0x3e116a4c	0.14200705
214	0x3ce0db17	0.02744822
215	0x3e3ebf8e	0.1862776
216	0x3e100fa0	0.1406846
217	0xbc3e1c51	-0.011603431
218	0x3accda99	0.0015629112
219	0x3db2cf64	0.08730963
220	0xba67be38	-0.00088402955
221	0x3dff0301	0.12451745
222	0xbb8f9bb7	-0.0043825763
223	0xbdb9f00a	-0.09078987
224	0xbeebce5d	-0.4605588
225	0x3cce10d4	0.025154509
226	0x3d0d1608	0.03444484
227	0x3e0ced9b	0.13762514
228	0x3d319756	0.043357216
229	0x3cef5f24	0.029220171
230	0xbd60052d	-0.054692436
231	0xbeaa2bff	-0.3323669
232	0xbd5d125c	-0.053972587
233	0x3dab1ea5	0.08355454
234	0xbcab7b0a	-0.020932693
235	0xbd307490	-0.043079913
236	0x3db8e049	0.09027154
237	0x3dd69597	0.10477751
238	0x3e02971e	0.12752959
239	0xbd6bcccb	-0.057568353
240	0x3e22d318	0.15900838
241	0x3de03bc8	0.10948902
242	0x3d76e8a3	0.060280453
243	0x3bdc056b	0.006714513
244	0xbee8235d	-0.4533948
245	0x3d6f5978	0.058434933
246	0x3db26933	0.087114714
247	0xbea183fc	-0.3154601
248	0xbd41a76e	-0.047278814
249	0xbdc8a301	-0.097967155
250	0xbe95b1b9	-0.29237154
251	0x3d4e968a	0.050436534
252	0xbe4bb12c	-0.19891804
253	0xbe12d6f9	-0.14339818
254	0xbebb1485	-0.36539093
255	0xbed9895a	-0.42487603

layer2.bias f4 [128]
0	0x3d3ab5c8	0.045583516
1	0x3df243c3	0.11829331
2	0x3d87e16f	0.06634795
3	0x3dbad443	0.09122517
4	0x3e164645	0.14675243
5	0xbcfae692	-0.030627523
6	0x3c32d3a3	0.010914716
7	0x3dda292a	0.10652383
8	0xbd3bd920	-0.045861363
9	0x3e2703ce	0.16310045
10	0x3c8a3ba9	0.016874151
11	0x3e06d841	0.13168432
12	0x3c0e2e94	0.008678097
13	0x3ddd92af	0.10818993
14	0xbd87b538	-0.066263616
15	0x3bcb02ea	0.0061954157
16	0x3e7087ed	0.23489352
17	0x3d82bf6e	0.063841686
18	0x3cd0f6dd	0.025508339
19	0x3e07931a	0.13239709
20	0xbd20d4c0	-0.039265394
21	0x3d0276cb	0.03185157
22	0xbd905002	-0.0704651
23	0xbcf9fb85	-0.030515442
24	0xbcfac4dd	-0.03061145
25	0xbd9c4baf	-0.07631623
26	0xbd122810	-0.035682738
27	0x3e22d872	0.1590288
28	0x3d3dcc9f	0.04633772
29	0xbdaa9f05	-0.08331112
30	0x3c79fac2	0.015257539
31	0x3d498ade	0.0492047
32	0x3dc75b5d	0.09734223
33	0x3d228621	0.039678697
34	0xbd882789	-0.06648166
35	0x3dc84a3b	0.09779783
36	0x3d5e6629	0.054296646
37	0xbd817544	-0.06321195
38	0xbda85dd2	-0.0822102
39	0xbd9032a7	-0.07040911
40	0xbd7940bb	-0.060852747
41	0x3da13b59	0.07872648
42	0x3dc69209	0.09695823
43	0xbc9d5cab	-0.019209227
44	0xbd1c6c90	-0.03818947
45	0xbce4c720	-0.027926981
46	0xbcb1409a	-0.02163725
47	0xbbcb6d17	-0.006208073
48	0x3e46d731	0.19418027
49	0xbdb29f3a	-0.08721776
50	0xbdac866b	-0.08424076
51	0x3e129bdf	0.14317273
52	0x3d4ee421	0.05051053
53	0xbca492ce	-0.020089533
54	0x3e4c9e75	0.19982322
55	0xbc1cc62a	-0.00956873
56	0xbdb27d00	-0.08715248
57	0x3e08f82f	0.13375925
58	0x3d9c6aba	0.07637544
59	0xbd256f5b	-0.0403894
60	0x3c89d834	0.016826726
61	0xbd5df846	-0.05419185
62	0x3e0e01b8	0.13867843
63	0xbd3965cd	-0.0452631
64	0x3e283cc3	0.16429429
65	0x3e159de4	0.14611012
66	0x3ddb5b20	0.1071074
67	0x3dafc1ed	0.0858191
68	0x3d6905ed	0.056890417
69	0x3c48024a	0.012207577
70	0xbd9d1e45	-0.07671789
71	0x3e0adaed	0.13560076
72	0x3e2150eb	0.15753524
73	0x3e005b2f	0.12534784
74	0x3cb0cba7	0.021581484
75	0xbd102049	-0.03518704
76	0xbcabfb1b	-0.02099376
77	0x3dcad2c7	0.09903484
78	0x3d508baf	0.050914463
79	0x3d477455	0.048694927
80	0x3dd3c859	0.10340948
81	0xbc42614a	-0.011864016
82	0xbda28bb9	-0.07936806
83	0x3cf3791b	0.029720834
84	0x3cabb603	0.020960813
85	0x3d46dd00	0.048550606
86	0x3d44bee7	0.04803362
87	0x3d8bb4ba	0.0682158
88	0xbd913ad2	-0.07091297
89	0x3e4328b6	0.19058499
90	0x3c1e60ac	0.009666603
91	0x3e50b764	0.20382458
92	0x3d73e3c9	0.059543405
93	0x3e12f98e	0.1435301
94	0x3d4b1d85	0.0495887
95	0x3df531f2	0.11972417
96	0x3d2f7df1	0.042844716
97	0x3d587178	0.052842587
98	0x3de4dcf6	0.111749575
99	0xbd9b2d60	-0.07577014
100	0x3e24e01d	0.16101117
101	0xbd1aee79	-0.03782508
102	0x3e123526	0.14278087
103	0x3c799878	0.015234105
104	0xbcd4e29a	-0.025986958
105	0x3db825d2	0.08991589
106	0xbd71c326	-0.059024
107	0xbdd43710	-0.10362065
108	0x3ce915a5	0.028452704
109	0x3e21810d	0.15771885
110	0x3d6ec38e	0.058291964
111	0xbd1f03f4	-0.03882213
112	0x3e132a1b	0.1437153
113	0xbddfa0c3	-0.10919335
114	0xbc8cb376	-0.017175417
115	0xbd860c77	-0.06545346
116	0x3d17ffcc	0.03710918
117	0xbcae9050	-0.021309048
118	0xbd8c92b1	-0.06863917
119	0x3da3f121	0.08004976
120	0x3e305d24	0.1722303
121	0xbd83ca03	-0.06435015
122	0x3dddb034	0.10824624
123	0xbc80cfcd	-0.015724087
124	0xbb9730e3	-0.004613982
125	0x3b74dabe	0.0037361826
126	0xbd0f0f2a	-0.03492657
127	0x3e40219b	0.1876282

layer3.weight f4 [2, 128]
0	0x3d832dcf	0.06405222
1	0x3e7330f2	0.2374914
2	0x3d04ec59	0.03245196
3	0x3e56332c	0.20917958
4	0x3e896c86	0.2684061
5	0x3e323a99	0.17405166
6	0xbc8a07b6	-0.01684938
7	0x3e7b7d6e	0.24559566
8	0x3cffe236	0.031235795
9	0x3e92a6aa	0.2864278
10	0xbf016d92	-0.50557816
11	0x3ea042f1	0.31301072
12	0x39dbe906	0.0004194455
13	0x3e4c1f54	0.19933826
14	0xbb56d9d4	-0.0032783644
15	0xbe2cfd23	-0.16893439
16	0x3e63694d	0.22208138
17	0x3cab9e07	0.020949377
18	0x3d6370b2	0.055527397
19	0x3e45b8d2	0.19308785
20	0xbe5cd6fe	-0.21566388
21	0x3c10841e	0.008820562
22	0xbcca063d	-0.024661178
23	0xbdd6b045	-0.104828395
24	0xbd64c9ea	-0.055856623
25	0xbdcd0a0b	-0.10011681
26	0xbcaa983d	-0.020824546
27	0x3e4dbd0b	0.20091645
28	0xbc99a4e4	-0.018755384
29	0x3d5e6294	0.05429323
30	0xbd74f24b	-0.05980138
31	0xbd105fda	-0.03524766
32	0x3df6d0a4	0.12051514
33	0x3e897b03	0.26851663
34	0xbd353feb	-0.04425041
35	0x3e793bde	0.24339244
36	0x3eb6d6e8	0.35710835
37	0xbecbf427	-0.3983471
38	0xbd9374c1	-0.072000034
39	0xbd60782f	-0.054802116
40	0xbd35f9e0	-0.044427752
41	0x3e3b59e5	0.18296011
42	0x3e380f2a	0.17974535
43	0x3eb30b54	0.3496958
44	0xbd6fb9e7	-0.0585269
45	0xbe08a171	-0.13342835
46	0xbda57e83	-0.08080771
47	0xbb21d9e7	-0.002469653
48	0x3e670ccd	0.22563477
49	0x3c07c066	0.008285617
50	0xbf50e4af	-0.81598943
51	0x3e891b6c	0.26778734
52	0x3e89dc9a	0.26926118
53	0x3e632cf6	0.2218512
54	0x3e832a98	0.25618434
55	0xbbfee2b1	-0.0077784886
56	0x3c83dbb3	0.016095972
57	0x3e0df21b	0.13861887
58	0x3e8125ff	0.252243
59	0xbc35db99	-0.011099719
60	0xbd442e43	-0.04789568
61	0xbc1fdc9a	-0.009757185
62	0x3e60af56	0.21941885
63	0xbea5b858	-0.32367206
64	0x3e0b5ea1	0.13610317
65	0x3e583d43	0.2111712
66	0x3e61ce1b	0.22051279
67	0xbebf826a	-0.37404186
68	0xbd3d91c4	-0.04628159
69	0x3e1c1e59	0.15245952
70	0xbf2b7729	-0.669787
71	0x3e1b386c	0.15158242
72	0x3eae6a6e	0.34065574
73	0xbed0bdf8	-0.40769935
74	0x3e7c2a6c	0.24625558
75	0xbd79139d	-0.06080972
76	0xbd0558b0	-0.032555282
77	0x3e6f9c62	0.23399499
78	0xbed1b77d	-0.40960303
79	0x3d20a997	0.039224233
80	0x3e8b7feb	0.2724603
81	0xbeda696e	-0.4265856
82	0xbd219819	-0.039451692
83	0xbdd6b7d4	-0.10484281
84	0xbef78529	-0.4834378
85	0xbe9125ab	-0.2834905
86	0xbb255bae	-0.0025231647
87	0xbecb5320	-0.39711857
88	0xbef57394	-0.47939742
89	0x3e237717	0.15963398
90	0xbee4f448	-0.44717622
91	0x3e8f111e	0.27942747
92	0x3e14b518	0.14522207
93	0x3e4d0716	0.20022234
94	0x3e4b90da	0.19879475
95	0x3e46b629	0.19405426
96	0xbf26a644	-0.6509745
97	0xbea67a4c	-0.3251518
98	0x3ea00c20	0.3125925
99	0x3c71eb44	0.014765564
100	0x3e9cb264	0.3060485
101	0xbd8031e8	-0.06259519
102	0x3e8c47ac	0.2739843
103	0x3da42770	0.080153346
104	0x3d97f313	0.074194096
105	0x3ea25062	0.31701952
106	0xbd81daf5	-0.06340591
107	0xbf192fce	-0.5983857
108	0x3e883e67	0.2661011
109	0x3e8555ed	0.2604212
110	0xbd3f76a7	-0.046744015
111	0x3f0694c7	0.52570766
112	0x3e9ad238	0.3023851
113	0xbdecb3ac	-0.11557707
114	0xbde740b9	-0.11291642
115	0xbc9032bf	-0.017602323
116	0xbc79b2ed	-0.015240413
117	0xbce83d5f	-0.028349577
118	0x3c7673e6	0.015042281
119	0x3e8b850e	0.2724995
120	0xbd8c7604	-0.06858447
121	0x3c80ee83	0.015738731
122	0x3ea5660c	0.32304418
123	0x3b8694c4	0.0041070897
124	0xbcafad65	-0.021444986
125	0xbd4edd25	-0.05050387
126	0xbcba8fd7	-0.022773666
127	0x3e8228e8	0.25421834
128	0x3b09ef63	0.0021047227
129	0x3e102e69	0.14080204
130	0xbd157910	-0.036492407
131	0x3e1f6a3a	0.15567866
132	0x3e4b8b51	0.19877364
133	0x3e820d47	0.25400755
134	0x3b9292a4	0.0044730473
135	0x3e4db313	0.20087843
136	0xbc6c680f	-0.014429106
137	0x3d8f2f38	0.06991428
138	0xbf17e5f5	-0.5933526
139	0x3e51a3f8	0.20472705
140	0x3d557a3c	0.052118525
141	0x3e8359e0	0.25654507
142	0xbd95270f	-0.072828405
143	0xbdc25740	-0.09489298
144	0xbd35f50b	-0.044423144
145	0xbda57486	-0.08078866
146	0xbd4b93b2	-0.0497014
147	0x3e606049	0.2191173
148	0x3e98eb8b	0.29867205
149	0xbcaad4e9	-0.020853477
150	0xbd84f417	-0.06491869
151	0xbeb4c27e	-0.35304636
152	0xbcb65ed0	-0.022262007
153	0xbd1fcbc6	-0.039012693
154	0xbea55b64	-0.32296288
155	0x3eb61b83	0.35567865
156	0x3c3295b2	0.010899948
157	0xbecda144	-0.40162098
158	0x3bd44839	0.006478336
159	0xbda35140	-0.079744816
160	0x3e9bf82a	0.30462772
161	0x3e8f0e0c	0.27940404
162	0x3cce7dfe	0.025206562
163	0x3e87c351	0.26516202
164	0x3eb1b1f6	0.34706086
165	0xbe2c4139	-0.16821755
166	0xbd492e9a	-0.04911671
167	0xbd03471e	-0.032050245
168	0xbd6e6d42	-0.058209665
169	0x3eab0998	0.33405757
170	0x3e71c304	0.23609549
171	0x3c3792b6	0.011204412
172	0x3d2cec60	0.042217612
173	0xbeac8e53	-0.33702335
174	0x3e220c0f	0.15824912
175	0xbd99777e	-0.074934945
176	0x3dd23bee	0.10265337
177	0xbca0dc62	-0.019636337
178	0xbe80a536	-0.25126046
179	0x3e907a60	0.28218365
180	0x3e78e92b	0.24307697
181	0xbf06b2e1	-0.526167
182	0xbce69164	-0.0281455
183	0xbd397f97	-0.045287695
184	0x3b9ffd19	0.0048824665
185	0x3e9baea6	0.30406684
186	0x3e886381	0.26638415
187	0x3ed7c8dd	0.42145434
188	0x3c9063c9	0.017625706
189	0xbd54bd8e	-0.051938586
190	0x3e930149	0.28711918
191	0x3c3c3a27	0.011488474
192	0x3e8b24a7	0.271764
193	0x3c7ec0ed	0.015548927
194	0x3e2f1982	0.17099574
195	0x3ea62a74	0.32454264
196	0x3d43d8f7	0.047814336
197	0x3eaed1ef	0.34144542
198	0xbea6268e	-0.3245129
199	0x3e9c6d97	0.3055236
200	0x3e94c063	0.2905303
201	0x3e46c05b	0.19409315
202	0x3e953875	0.29144636
203	0xbed38721	-0.41314033
204	0xbd2d0892	-0.0422445
205	0x3e593195	0.2121032
206	0xbf068383	-0.5254442
207	0xbd9290cd	-0.07156525
208	0x3e0b41b0	0.13599277
209	0x3e964739	0.29351214
210	0xbc85aa8e	-0.016316678
211	0x3dc07192	0.09396662
212	0xbebbc4f8	-0.36673713
213	0xbdd1649c	-0.10224268
214	0xbb9fefec	-0.004880896
215	0xbc7fe79e	-0.015619187
216	0x3ec7bbfb	0.39010605
217	0x3e9fcbea	0.31210262
218	0x3e1f7bfa	0.15574637
219	0x3dba9136	0.09109728
220	0x3e9c601c	0.30542076
221	0x3e8617f7	0.2619016
222	0x3dfa92f6	0.12235062
223	0x3ebbf2fa	0.36708814
224	0xbec05fe3	-0.37573156
225	0x3d6455b3	0.05574579
226	0x3e1c4beb	0.15263335
227	0xbd2a7906	-0.041619323
228	0x3e9c5952	0.30536896
229	0xbd872d50	-0.066004395
230	0x3d0406d2	0.032233067
231	0xbd968718	-0.07349986
232	0x3d87e75d	0.06635926
233	0x3da233dd	0.079200484
234	0xbd0dbae4	-0.03460206
235	0x3d8478b2	0.06468333
236	0x3e0bd43a	0.13655177
237	0x3e393793	0.18087606
238	0x3bc6c6c4	0.006066175
239	0xbf2599f3	-0.6468803
240	0x3e66bcfe	0.22533032
241	0xbece275b	-0.402644
242	0xbd957939	-0.07298512
243	0x3cf18a97	0.02948503
244	0x3d60ad23	0.054852616
245	0xbd3fa3cc	-0.04678707
246	0x3d1f77c5	0.03893258
247	0x3e1fe74e	0.1561558
248	0x3e59fdac	0.21288174
249	0xbd59dd98	-0.053189844
250	0x3ea2ba4e	0.31782764
251	0xbdad3ef8	-0.08459276
252	0xbd89a3e3	-0.06720712
253	0xbcf64f49	-0.030067103
254	0xbd8dc733	-0.0692276
255	0x3e3a0a52	0.18168

layer3.bias f4 [2]
0	0x3d79c826	0.060981892
1	0x3dc5e25e	0.09662317
