CartPoleDQN/dqn_cartpole40.pth (torch, 72745 bytes, 6 tensors)

layer1.weight f4 [128, 4]
00000000: b116 883e 212b 5abe 9af2 c43c aa9e 04be
00000010: 41d4 7a3e 1a4b f7be 5bcf 283e 05cc eb3e
00000020: 9fd9 413e 8a34 443e d92a c73d 0f84 853c
00000030: 0842 a0be b7de 6dbe 6d8b 853e a774 f23c
00000040: 544b 7d3e 5951 e1be 7839 19be 288d a2be
00000050: 5452 0abf 069b 50bc b679 3b3e 33b8 babe
00000060: 6bc9 cebd 5925 8ebe 180c 69be 0991 00bf
00000070: 49f3 233f a6c0 8d3e 3404 c3be 9b9d 31be
00000080: cfe2 f83e 305b 18bd 413b 0abf 00a5 e43e
00000090: 7666 e6be 6f1b 88be 5b29 afbe febc 843d
000000a0: 2a3d 093e 4d2e 8b3d 98e6 843e 6ce7 9abe
000000b0: a23a c73d 0cb1 ec3e 11bb 053f 97aa 263e
000000c0: 6a10 77bb 9709 edbe 5be2 babe 7917 f4be
000000d0: a97c 34be 8db2 16bd 7c0a 93be b8a7 1ebe
000000e0: b534 c4be 9138 a93e 7136 4e3e d534 0d3e
000000f0: 2b18 ca3d 037c b7be 59fa e33e 39fa a93e
00000100: 6a83 d23e be44 fbbd ee46 083e c423 b33e
00000110: bcaa 91bd 2924 70be 442b 613d 2124 efbd
00000120: 2ef4 8f3e 66b9 1b3e 2dd0 6e3e a14a c93d
00000130: cec1 a2be 5e42 6d3e de3c 84be d7ce e1be
00000140: 9d2f 42be bfd9 dabe 6dad 943e d566 ba3e
00000150: b741 b7be 8d14 bd3e d4c1 bd3e f9da 83be
00000160: aad7 703e 1061 d6be 4d40 5b3e 51d6 813e
00000170: 8908 933e 877b 30be 0884 aabe 5722 38bd
00000180: 0cad e2be a417 983e 1bf0 e3be 1552 883d
00000190: 888d c13e 201b 26bc 8c43 eabe b9d4 c8bd
000001a0: 93ed 85bd 22cd 2d3d ba43 3ebe a39c 0e3d
000001b0: e2bf 95bd c320 ff3e 41eb a43e d7c3 a83e
000001c0: ae1f b1be 91b0 f93e c231 ec3c e06d ddbe
000001d0: 1b0c f0be 65bd e23d 3473 543d eab4 e8bd
000001e0: 4edc ab3e 91b1 793c bcbe 8c3e 3ca0 c1be
000001f0: f165 c0bd 98be 77bc 33fc b9be 408e c5bd
00000200: bfd5 8abe d9d4 863d 6002 003f 8cb4 da3e
00000210: 347d 173e adb7 c23d 9ebb afbe 71b9 2e3e
00000220: eb7c d0be ccbd 853e 8630 d4bd e81f 253e
00000230: 6367 9bbe 973d a7be 9323 63bd 1672 d8be
00000240: 6c34 e63e 3c70 d0be 356d 5dbe 4117 87bd
00000250: 0a5c 013f d625 8dbe df0f 59be bb14 a03d
00000260: 7071 1c3e 5a87 c83e 415e cbbd 4fce cb3d
00000270: 56ac ac3d d4c5 eb3e a016 ef3c 2853 29bc
00000280: 990c 603e 380b a7bd 0195 4c3e c63c bfbe
00000290: 84bc 8f3d be6d 1abe 9da9 da3d 4d5b 0cbe
000002a0: c3c8 b23e de65 8cbe 99be 8e3e 336f 7f3e
000002b0: 608c a53d 3664 863a b932 dabe 5b7a e53d
000002c0: 4072 81be 380a 29be 34dc 08bf d9c2 b93e
000002d0: 6e4d 853d 409d 8d3e 897d ee3e 4d23 0c3e
000002e0: df80 5dbe ab98 03be 5e19 60be db9a 4f3e
000002f0: 28a0 f1be 37a6 6c3e 835a 37bd 9070 0ebe
00000300: 748c a3bd 63e3 ab3c cfc4 9c3e 7aaa 413d
00000310: 7ed6 e93d 4612 9abe 3643 9b3e 0bff db3e
00000320: 653f ee3d fb99 30be 3d20 f93e 4f45 8bbd
00000330: 0eee 893d c2c4 d9be 9d79 cc3e 9e33 d63e
00000340: 61fd c8bd 491f fdbd 1f76 d0bc c175 8ebe
00000350: efc6 b0be 46de 7fbe 461c 063e 862c 55be
00000360: a260 993e 8592 00be f940 a4be 51ab cdbe
00000370: 9d5b 8cbc 5e4b cf3e 66cc bf3e 8a7d 8e3e
00000380: bc91 b13e dcd3 b6bc 5814 f13e b745 7fbe
00000390: 1ae6 ec3e 4c0a edbe bbc0 65be 4025 eebd
000003a0: f349 d5be 4049 d0be e195 203e b92a 3dbe
000003b0: f483 bd3e 6d12 85be f87d 7abe 113f 87bc
000003c0: 6365 073f 5ba3 0abe 47eb f63d b93f b4be
000003d0: 9894 523e aed5 b4be 7bc8 ddbd d1f0 a2bd
000003e0: 3ac4 9b3e 2039 903e 00ed 7cbd ad2a 4dbd
000003f0: a67c ae3e 754a cf3e e217 abbe dc8e 0bbd
0.26579812 -0.21305515 0.024041463 -0.1295115 0.24495031 -0.48299485 0.1648535 0.46054092
0.18930672 0.19160667 0.097249694 0.016298322 -0.31300378 -0.2322949 0.26082936 0.02959664
0.24735767 -0.44007376 -0.14963329 -0.3174832 -0.5403187 -0.012732273 0.18308148 -0.36468658
-0.10097011 -0.2776287 -0.2275852 -0.50221306 0.640431 0.27686042 -0.38089144 -0.17345278
0.4861054 -0.03719634 -0.53996664 0.44657135 -0.45000046 -0.2658343 -0.3421124 0.0648136
0.13402238 0.067959405 0.2595718 -0.30254686 0.0972798 0.46228826 0.52238566 0.16276012
-0.0037698993 -0.4629638 -0.3650082 -0.47674158 -0.17625679 -0.036791373 -0.28718936 -0.15493667
-0.38321462 0.3305097 0.20137955 0.13789685 0.09867891 -0.358368 0.44526938 0.33198717
0.41115886 -0.12268971 0.13308308 0.34988225 -0.07112643 -0.23451294 0.054972902 -0.11676813
0.28115982 0.15207443 0.233216 0.098286875 -0.31788486 0.23169848 -0.25827688 -0.4410312
-0.18963476 -0.42744252 0.29038563 0.3640658 -0.35792324 0.36929742 0.37061942 -0.25753
0.2351977 -0.41870928 0.21411248 0.25358823 0.2871745 -0.17234622 -0.33303857 -0.044954624
-0.4427265 0.29705536 -0.44519123 0.06656281 0.37803292 -0.010138303 -0.4575466 -0.098061986
-0.06539454 0.042431958 -0.18580523 0.03481735 -0.07311989 0.49829683 0.32210734 0.32961914
-0.34594482 0.48767522 0.02883232 -0.4324789 -0.46884236 0.110712804 0.05186768 -0.113626316
0.33566517 0.015240089 0.2748927 -0.37817562 -0.09394444 -0.015121125 -0.36325225 -0.09646273
-0.271162 0.06583566 0.50003624 0.4271587 0.14793855 0.095076896 -0.34322828 0.17062928
-0.40720305 0.26121366 -0.103608176 0.16125453 -0.30352315 -0.32664177 -0.055453848 -0.4227454
0.4496187 -0.40710628 -0.2162369 -0.06596232 0.50531065 -0.2756793 -0.2119746 0.07816454
0.15277648 0.39165765 -0.09930087 0.099514596 0.08431308 0.46049368 0.029185593 -0.010334767
0.21879806 -0.08156437 0.19978715 -0.37351054 0.070183784 -0.15080926 0.106768824 -0.13706703
0.34918794 -0.27421468 0.2787979 0.24944763 0.08083415 0.0010253254 -0.42616823 0.11204978
-0.25282478 -0.16507804 -0.53461003 0.3628147 0.06508909 0.27659035 0.4658015 0.13685341
-0.21631192 -0.12851207 -0.21884677 0.20273916 -0.47192502 0.23110281 -0.044764053 -0.13910127
-0.07985774 0.02098245 0.30618903 0.04728172 0.11417864 -0.30092067 0.30324715 0.4296802
0.11633185 -0.17246239 0.48657408 -0.06800329 0.067348585 -0.42532927 0.39936534 0.41836256
-0.09813953 -0.12359483 -0.02544695 -0.27824214 -0.34526774 -0.24987134 0.13096723 -0.20817766
0.29956537 -0.12555893 -0.3208082 -0.40169767 -0.017133528 0.40487188 0.3746063 0.27830154
0.346815 -0.02231782 0.47085834 -0.24928938 0.46269304 -0.46296918 -0.22436802 -0.116281986
-0.4165798 -0.40680885 0.15682174 -0.18473329 0.37014735 -0.2599062 -0.24462116 -0.016509565
0.5288908 -0.13538878 0.12056594 -0.35204867 0.20564497 -0.35319275 -0.10829254 -0.07956088
0.30423146 0.28168583 -0.06174946 -0.050089527 0.34079474 0.40486494 -0.3341666 -0.03407179

layer1.bias f4 [128]
00000000: 8c50 edbe cce9 11be 4b3c c93e 8f1c 383e
00000010: ea4a c83e 3483 f43e 0520 9fbe 0023 b7be
00000020: 711c 073e ec62 0f3f e47b a3be 3a26 303e
00000030: 6210 0ebe 518f 093f 400e 493e 7a8e 92be
00000040: ecda c03e d8f8 d6be 4b9c bdbd 0aa5 123e
00000050: e257 94be 049c 503e 2a2a ce3e 1187 ed3e
00000060: a3b2 c9be e90a d3be 2304 bd3e 19b8 623e
00000070: 6054 0a3f 6eb2 ab3e 2189 c0be e1cd ce3e
00000080: 2b5c c8bd fb84 083f e9ca 9dbe 7e14 df3e
00000090: b3be 94be 7be7 a53e 82d3 ee3d 8d92 333e
000000a0: c0d2 e13e 721c 90be 659a c93d e90d dbbe
000000b0: 7efd f33d 0d27 a7be ff52 553e 86b2 1c3e
000000c0: 3f67 263e 1129 ac3d b84b f63e 6b33 623e
000000d0: 52a7 d33e 0ad7 8cbe 21d6 8dbe 3683 eabe
000000e0: b6ea 003f 5e49 b9be 48b2 a03e 468f 4fbe
000000f0: 0663 e2bd 75b2 2e3d 94fc f73e 9ef3 e63c
00000100: 567f bb3e a988 9ebc 549c 913e 225d 8f3e
00000110: 8431 b2be ad5b ef3c 1951 1cbd 2fb1 a13e
00000120: d700 df3c f6d2 553e 9d9b 9fbd feb0 533e
00000130: 418a a7be 8112 a0be f4d8 063f 49ff c63e
00000140: 9a43 b93e cb38 acbd ca67 d23e c6fb fa3e
00000150: 69e8 cebd 75af f03e 6b43 be3d 36f5 ed3d
00000160: cebe f13e 64a1 e7bc 2cd1 063f 901d d43e
00000170: ece0 adbd 0e69 033f 0c26 adbe 6be3 433d
00000180: e639 43be 145c 7cba 4a5d 2d3e 3014 f93e
00000190: 57a1 f73e 0822 e73e e5c2 25be 4896 5bbe
000001a0: e039 f5bd 7b60 93be 5270 4bbe 2671 ba3d
000001b0: 7be1 0d3e bed2 e03d b321 1b3e 3de8 bebe
000001c0: 970c f33d 6a5b 0f3e f2b9 f43e be16 b0bd
000001d0: 55c1 7bbe 2cfb 1abd 01bf d03e 7c1b 7dbe
000001e0: b53c b2be fd19 9dbe eda0 dbbd aa24 923e
000001f0: e433 9cbd 672e 6abe 27b8 c1be 6fb3 1ebe
-0.46350515 -0.14249343 0.39303812 0.17979644 0.39119655 0.4775635 -0.31079116 -0.3576889
0.13194443 0.5601032 -0.3193046 0.17202082 -0.13873437 0.5373431 0.19634342 -0.28624326
0.37667024 -0.41986728 -0.09258326 0.1432077 -0.289733 0.20372015 0.40266544 0.4639211
-0.39394102 -0.4121926 0.3691722 0.2214054 0.54034996 0.3353457 -0.3760462 0.40391448
-0.09783205 0.5332791 -0.3081887 0.43570322 -0.29051742 0.32403168 0.11661436 0.17536373
0.44106102 -0.28146702 0.098439015 -0.4278405 0.11913584 -0.3264698 0.20832442 0.15302476
0.16250323 0.0840627 0.48104644 0.22089927 0.41338593 -0.27507812 -0.2770243 -0.4580323
0.5035814 -0.36188787 0.31386018 -0.20269498 -0.110540435 0.04265066 0.4843489 0.028192338
0.36620587 -0.019352274 0.2843958 0.28000742 -0.34803402 0.02921852 -0.03816328 0.31580493
0.02722208 0.20881256 -0.07793353 0.20672986 -0.32722667 -0.31264117 0.52674794 0.38866642
0.36184388 -0.0840927 0.4109481 0.49020213 -0.101029225 0.47008863 0.09290203 0.11619036
0.47215885 -0.0282752 0.5266292 0.41428804 -0.08490166 0.51332176 -0.3381809 0.047824305
-0.19065055 -0.0009626758 0.16930118 0.48648214 0.4836528 0.4514315 -0.16187628 -0.21444046
-0.119739294 -0.28784546 -0.19867066 0.091036126 0.13855545 0.10977696 0.15149574 -0.3728656
0.11867636 0.13999715 0.47798115 -0.08598088 -0.24585469 -0.037837192 0.40770724 -0.24717516
-0.3481194 -0.3068389 -0.107240535 0.28543597 -0.07627085 -0.22869264 -0.3783581 -0.15498136

layer2.weight f4 [128, 128]
00000000: 8be1 123a ece2 8b3d 8efa 8fbd 9fd8 ab3d
00000010: aa45 54bd ac29 90bd 77bc 96bd 73fc 8ebd
00000020: a5dd 4cbd 6c92 02bd 03a5 903d ca6d ac3c
00000030: b164 903d 1a99 96bd 2146 db3c dcea 9f3d
00000040: 8a20 d6bc 2c2d 5bbd 68d7 a4bd 20b4 0dbd
00000050: 16b7 0cbd 1f2b 01bc bef5 93bd 6e93 8a3d
00000060: befd 06bc 38d6 a63d 35db c7bc 3ee6 b33d
00000070: 2e7d a63d b2a0 98bd 22fb 58bd e8e4 84bd
00000080: 80cf 903c de32 4d3d 74a1 debc 75c9 7c3d
00000090: d504 b33b 8f83 983d e74f 60bd 02f5 4dbd
000000a0: 6eea c1bc 3096 243c 7463 a0bd c43a a6ba
000000b0: cf7c 26bd 92a4 803d d0b5 e03c 4b8c 96ba
000000c0: 15f8 b2bb aff1 81bd 772c 9abd ecac e9bc
000000d0: 5db3 8b3b 9abc 4ebd 2e6f 2dbc 38a2 223c
000000e0: 9612 56bc 52c8 64bd 0c96 9f3d 194a 9ebc
000000f0: 2016 4e3c fb7b 5b3d 025b 4e3d 36d2 92bd
00000100: 9176 3d3d ce49 4b3d 34b7 e0bc d292 8c3d
00000110: 97d1 adbd ff63 a1bd fb5f 80bd 97ca d13c
00000120: 4af3 243d 7d15 083d 15e9 8abd 4af4 42bb
00000130: f303 1ebd 1f3a 8d3d fa08 1abd 46e1 ea3c
00000140: ee82 5bbd 4221 d8bc 64fa 94bd 6568 49bd
00000150: cad6 843c 1045 733c 6a9c 933d 7137 e6bc
00000160: 010c 01bd 975e 723d 765b c1bc ae9d 8fbd
00000170: 0dba 783d 37cd 60bd b446 cebc f4d0 aa3d
00000180: af29 a13c 116f 70bd ab29 353d 262d 933d
00000190: 2a8f aebc 9a95 85bd 54c8 18bd 7388 a2bd
000001a0: 24b2 5fbd 5ee3 97bd d63a 19bd 839f 0cbd
000001b0: 6ffb 1dbd acba a83d 69f9 853d 124a ecbc
000001c0: 02b2 613d 8954 6f3b 0893 70bd d44b e0bb
000001d0: a9cb 833d 29e7 13bd 4aa7 38bd f712 203d
000001e0: fd92 883a 19c5 7bbd 9719 abbd 6b8a aabc
000001f0: 5d8d 34bc dcd0 7f3d 4e75 58bd ffac 333d
00000200: 99d5 8abc 2875 73bc f7c8 a6bb 0ac6 6ebd
00000210: b981 f6bc 205b eb3c 33d4 3bbe ba03 f33b
00000220: ca43 55bd cef6 d73d 4cd7 8d3b 3629 84bc
00000230: 8081 23be 2607 2dbd 6b9c ff3d c18c f2bc
00000240: 3bf9 ca3d a105 c73b 2a6d 7dbd 3bb0 443b
00000250: 9d31 a33d dc0f 7d3d c3f4 9b3b c4ac 1d3d
00000260: efe1 1e3d 8a9f 16bd b839 aa3d cee1 603d
00000270: 2d2d 273d 1c43 2dbd 650a 17bd 7692 4a3c
00000280: bc36 533d 4f33 be3d 25bc 5abd f9c6 9c3d
00000290: 6f00 123d 0331 e03d c82b 74bc 4996 833d
000002a0: 565b 243d bc81 373b 5ce2 c83d d641 b2bd
000002b0: 44f0 973d fafa 70bd d939 d83d 72b1 41bd
000002c0: 539d c53d 5c3e c3bc 2cd5 b3bc 2d95 763d
000002d0: 8e42 983c dfa2 863d d670 c7bd ac4e 7e3d
000002e0: db93 853c 29a3 e53c 6196 26bd 6f61 863d
000002f0: 2444 a1bd 4ebd 47bd dd3a 993d 24f6 86bd
00000300: da1e b9bc 2f1c 683c 1ae1 be3d de51 323d
00000310: e0eb 24be 3829 30bd 0eeb 25bd 831b 993c
00000320: 2ba6 b23d a028 003d dbb7 843a de3b ad3c
00000330: ed01 85bd f638 843a d231 9c3d 1654 9e3c
00000340: 0aea 4fbd eab8 933c 2dbf b83d 9cb6 4fbd
00000350: f022 f23d 55d6 b83d 97bb 8a3d 111c e53d
00000360: 7667 943d 7d70 dcbc dedd 45bd b8cb ad3c
00000370: a1d4 0c3d f768 853d 0bf4 91bb c6da 91bd
00000380: e60f 73bd 8432 903d 658c 3fbd ade5 a23d
00000390: 2952 f8bb 915d 16bd d9ff 9d3c 7c33 36bd
000003a0: 9865 123b 27f4 ad3d cc2d 763d ebcc c0bc
000003b0: a2ec 703c b712 473d ac55 c03d 4daf 6fbd
000003c0: 2347 e93d 4c06 4b3d 7d6a 1339 3a98 c93c
000003d0: 275c e1bd 8329 193c 8e54 0a3d 5af1 b63d
000003e0: 16f8 e2bb b1dc 49bc 35ae 7abd 0e9e 44bc
000003f0: c1c5 5cbc 96b8 f2bd 38a1 7cbd 5c58 c5bd
0.00056030665 0.06830391 -0.070302114 0.083909266 -0.05182425 -0.07039198 -0.073601656 -0.069817446
-0.050016064 -0.03187792 0.070627235 0.021048445 0.07050455 -0.073534206 0.026766839 0.07808468
-0.026138563 -0.053509876 -0.08048898 -0.03459561 -0.03435429 -0.007883816 -0.07224606 0.06766401
-0.008239208 0.08146328 -0.024396518 0.087841496 0.08129345 -0.07452525 -0.052973874 -0.06488973
0.017677069 0.05009734 -0.027176596 0.061715562 0.0054632225 0.07446968 -0.0547637 -0.050282486
-0.023671355 0.010045573 -0.07831469 -0.0012682308 -0.04064637 0.06281389 0.027430445 -0.0011485902
-0.0054617026 -0.063449256 -0.07528012 -0.028524838 0.004263325 -0.050472833 -0.010585589 0.009926371
-0.013065955 -0.055855103 0.07792291 -0.019322442 0.012578517 0.053585034 0.05037976 -0.07169001
0.04625565 0.049630933 -0.027431108 0.06863941 -0.08487242 -0.07880401 -0.06268307 0.025609298
0.04027108 0.033223618 -0.06782738 -0.0029747658 -0.038577985 0.06895851 -0.037606217 0.028671872
-0.05359166 -0.026383046 -0.07274321 -0.049171824 0.0162157 0.014848009 0.07207568 -0.028102608
-0.03150559 0.05917224 -0.023603182 -0.07012497 0.060724307 -0.054883208 -0.025180198 0.08340636
0.019673197 -0.05869967 0.04422919 0.07186346 -0.0213085 -0.06522675 -0.037300423 -0.07936182
-0.054613248 -0.07416414 -0.037409626 -0.03433181 -0.038569864 0.0823873 0.06541712 -0.028843913
0.055101402 0.0036518893 -0.05873397 -0.006844977 0.064353295 -0.036109123 -0.045081414 0.039080586
0.0010419782 -0.061467264 -0.0835449 -0.020817956 -0.011020032 0.062455043 -0.052846245 0.043866154
-0.016947554 -0.014859475 -0.005089875 -0.058294334 -0.030091153 0.028729975 -0.18342666 0.0074162157
-0.0520666 0.10545121 0.004328644 -0.016132932 -0.15967369 -0.042243145 0.12481006 -0.029608132
0.09910818 0.006073669 -0.061871685 0.0030012268 0.07968447 0.061782703 0.0047594025 0.03849484
0.038789686 -0.036773242 0.0831179 0.054902844 0.040814567 -0.04230033 -0.036875147 0.012364021
0.05156587 0.0928713 -0.053402085 0.076551385 0.035644945 0.10946848 -0.014903016 0.06425149
0.040126167 0.0028000912 0.098087996 -0.087039635 0.07418874 -0.0588331 0.105579086 -0.047288366
0.09649148 -0.023833446 -0.021952234 0.06020086 0.018586423 0.06574034 -0.097383186 0.062086746
0.016305855 0.028031902 -0.040670756 0.06561553 -0.07874325 -0.04876452 0.074819304 -0.06589916
-0.022597719 0.014166876 0.093202785 0.043535106 -0.16105604 -0.04300806 -0.04050737 0.018689876
0.087231 0.031288743 0.0010125594 0.021146711 -0.06494508 0.0010087776 0.0762669 0.019327205
-0.050760306 0.01803251 0.09020839 -0.05071126 0.1182307 0.090252556 0.06774061 0.11186994
0.07246296 -0.026909107 -0.048307292 0.021215305 0.034382466 0.06514161 -0.004454141 -0.07121806
-0.059341334 0.07040885 -0.04676475 0.079539634 -0.0075781536 -0.036710326 0.019287037 -0.044482693
0.0022338387 0.08493834 0.06010227 -0.023535213 0.014704855 0.048601832 0.093913406 -0.05851679
0.113905214 0.049566552 0.00014058682 0.02460872 -0.11003905 0.009348276 0.033772044 0.08932753
-0.006926547 -0.012320683 -0.061201293 -0.012000574 -0.013474883 -0.11851613 -0.061677188 -0.09635994

layer2.bias f4 [128]
00000000: 79cd 3d3d 1498 2f3d 0924 8a3d a3f5 153d
00000010: a6c7 d33d 35ec 7abd a6b2 7f3c ec69 813d
00000020: 06f2 3ebd 8201 813d 3024 a9ba ad32 163d
00000030: 9c86 103c 5e80 983d 9f1b 70bd 90e6 8f3c
00000040: af57 ef3d d72d 833d 7b65 d43c 0d79 ae3d
00000050: 0862 8abd fca2 043d c6ae 92bd 1461 a73c
00000060: 65e6 febc d6ca 99bd d28b 3abd b0c7 de3d
00000070: ea54 613d 0204 c0bd dddb 9b3c 2a61 4e3d
00000080: 7f85 773d 9592 89bc 236a 8abd 5369 543d
00000090: 97ae 63bc 7848 4abd 7e18 abbd 5f90 92bd
000000a0: c95a 7dbd 48a6 063d 0eb2 1a3d d74a d3bc
000000b0: e204 1fbd b746 eebc 059c 0bbd 47c6 cebb
000000c0: 769e b83d aec8 a2bd 9768 71bd 4f6c e03d
000000d0: 60db 59bb b5af 08bd 6d53 993d 691f bfbb
000000e0: 389e a2bd e757 ad3d fc0c 373d a085 fbbc
000000f0: f2ec 9b3c b7a2 61bd d777 953d 4db3 71bd
00000100: 5eca e83d abc6 bf3c 865a a23c b194 62bb
00000110: b1df 6c3d ce02 1dbd 87a8 a1bd 731b cc3d
00000120: 057d b83d 8dfc a53d 14b5 09bd 8b5d 11bd
00000130: b7d3 aebc b4b3 923d 9128 303d 3dbb 4a3d
00000140: b26d 003b befc 85bd 8da8 93bd 66de 5d3d
00000150: 5495 773c 7789 8e3d 3c5d 543d 4fb3 463d
00000160: fcc1 c2bd dbe5 0b3e f26e 28bd 7534 b43d
00000170: 683f 323c b2d3 ad3d 824a 95bb 385e 843d
00000180: 66b7 2c3d 5472 0c3d a38c b03b 90c8 8cbd
00000190: bbc1 d93d cf7d 10bd 6b1c b23c dfb3 7d3c
000001a0: da24 9bbc 2379 e1bc 564f 63bd c7ae 82bd
000001b0: f9fa 3bbd 00f0 be3d d501 733d a600 58bd
000001c0: 33e2 a13d edab 7dbd f18e 5fbc 023f 88bd
000001d0: b082 1a3d 156d a9bc 93e8 8ebd 94f7 a5bc
000001e0: 06f3 4e3d 3455 7cbd 19f2 983c 12eb 82bc
000001f0: c7b3 99bb 2ee9 583c 3267 11bd 074d e03d
0.046338532 0.042869642 0.067451544 0.03661121 0.10340814 -0.06126042 0.015606558 0.06319031
-0.04661753 0.06299116 -0.0012904461 0.036669422 0.008821156 0.07446359 -0.05862009 0.017565995
0.11686646 0.06405228 0.025927296 0.08519182 -0.06756979 0.032381997 -0.07162242 0.020432033
-0.03111572 -0.07509391 -0.0455435 0.10877931 0.05501262 -0.093757644 0.019025737 0.05038563
0.060430046 -0.016793529 -0.06758525 0.051858258 -0.013896606 -0.049385518 -0.08354281 -0.07156443
-0.061854158 0.032873422 0.037767462 -0.025792522 -0.038823016 -0.029086454 -0.03408434 -0.0063102576
0.09014599 -0.07948433 -0.058937635 0.10958158 -0.003324233 -0.033370692 0.07486615 -0.005832602
-0.07940334 0.08464032 0.044690117 -0.030703366 0.019033883 -0.055086818 0.07298248 -0.059008885
0.113667235 0.023410162 0.019818556 -0.003457349 0.057830516 -0.038332753 -0.07893472 0.09966173
0.090082206 0.08104811 -0.033619955 -0.0354896 -0.021341188 0.07163182 0.043007437 0.04949497
0.0019596634 -0.06542347 -0.07209883 0.054167174 0.015111286 0.06959813 0.051846728 0.048510846
-0.09509656 0.13661902 -0.04112143 0.08799068 0.010879375 0.08487643 -0.004556001 0.06463283
0.04216709 0.03428872 0.005387859 -0.06874192 0.10632654 -0.03527623 0.021742066 0.015484779
-0.01893847 -0.027523583 -0.055495583 -0.063809924 -0.045893643 0.0932312 0.05932792 -0.052734993
0.07904472 -0.06193154 -0.01364492 -0.06652643 0.03772229 -0.020681897 -0.06977954 -0.020259656
0.050524734 -0.061604694 0.018670129 -0.01598123 -0.0046906206 0.013239188 -0.035498805 0.10952192

layer3.weight f4 [2, 128]
00000000: fb5a 853d 3b68 ab3d 8519 073d 5c09 913d
00000010: 37ba ea3d 3a5e 8a3d 4eca d6bb 3455 d13d
00000020: d908 023d 984a fc3d 2811 dfbd 5c43 e63d
00000030: 3487 df39 11b1 993d 8d62 5abb acec cebc
00000040: d484 d83d 7398 c53c b532 673d e997 3b3d
00000050: f628 64bd bfe4 123c 035e cdbc a1da 4dbc
00000060: 408e 68bd 6542 0fbd 5b85 98bc 5cfe 253d
00000070: 5163 d5bb 8dc8 08bc 7434 70bd ab22 12bd
00000080: 5635 41bc 8099 a53d a83f 38bd 4597 9b3d
00000090: bf0a 2f3e 6b80 86bd 37e2 95bd e928 64bd
000000a0: 58fd 38bd 7435 453d ca61 d63c 76dd b13d
000000b0: 9cab 73bd 771c 74bd a8c0 1dbd a787 24bb
000000c0: 5c55 8e3d 7c46 8f3c f042 03be 7e39 ea3d
000000d0: 01ca ce3d 94bb 97bb 37ae dc3d 1534 e636
000000e0: fb1b d13c a43c 353b 4e46 dc3d 69b5 863d
000000f0: 78dc ebbc a47e 22bc e4b0 713d 2370 92bd
00000100: 7659 4539 ec2c 543d f148 533d 6e3d 66bc
00000110: 47af 40bd 7562 bc3b 7256 62bd 3615 123d
00000120: 13cc 0e3e 1a84 dabc bac1 7c3d e924 c0bc
00000130: dc85 07bd 7bcd e43d d982 afbd 3e52 233d
00000140: cda8 b83d 20ba adbc 5cc1 0abd c615 4fbd
00000150: 1606 c4bc a6e7 2dbd b0f5 18bc 89a3 84bd
00000160: beba 7cbd cac4 153c c5d9 22bd d4cd d33d
00000170: 6d7d 0d3d aa84 1e3d 6c1a 8e3d 985d a33c
00000180: 4b12 a7bd a88a 85bd 82df 053e 1b2a 933b
00000190: 8786 ee3d b10d 5ebd 2710 f53d a7d8 a63d
000001a0: 477c 9b3d feaf 1b3e 1a58 5cbd 348c 90bd
000001b0: f20c d43d 4ce6 b13d ddad 42bd 3723 6dbd
000001c0: e538 043e ffbe 8b3b 3e43 8fbd 7890 92bc
000001d0: dece 7dbc 3607 d6bc ff83 7a3c b146 b13d
000001e0: 16a8 843b d7a2 fa3a 0fdb a33d 8dcc 883b
000001f0: 3094 b2bc 9748 52bd 7aa6 bdbc b106 903d
00000200: fd31 0c3b 3dc4 c83c 1fee 17bd c747 5d3d
00000210: 8528 8b3d df1c ec3d 15ed b53b efa7 8e3d
00000220: f14d 70bc 28b1 8cba 95ef bbbd 3cb3 943d
00000230: 48fe 583d c58c ca3d f075 a9bd 5c2d e23b
00000240: 324f 33bd 2e34 9ebd e2ec 4ebd e2b8 b83d
00000250: 5030 093d 2fa8 adbc 4321 87bd 49c5 a7bc
00000260: 4862 b9bc 9a18 0ebd a02a 73bd 1f38 023e
00000270: 80d0 df3c e5b2 46bd 9e3e 033c 5402 a7bd
00000280: 5993 063e 8c6c e33d 0fe7 d13c a364 c83d
00000290: 31fb 1b3e d021 25bd 5e82 4cbd 4a74 05bd
000002a0: 745c 72bd fd7f f53d f599 ff3d 9dc6 9a3d
000002b0: fcc4 2f3d 5deb 9abd 9a91 8e3c 62fa 9bbd
000002c0: fec5 7f3c ac86 a3bc 0422 683d 7f47 ee3d
000002d0: 12fb 943d 1b19 96bd 74fb 67bd a34b a8bc
000002e0: 30a0 a23b 1b09 dd3d ba6c ea3d 429e 76bd
000002f0: a831 8dbb 9a41 58bd 4bfa 993d 8749 aebc
00000300: 76db cc3d 1c40 e3bc 81dd 633d 02e5 a23c
00000310: 2714 473d 1d7d ef3d 0889 153c b956 f73d
00000320: 19ac 053e 0bea 9dbb ee91 cf3d a1d1 5abd
00000330: 2ee1 2fbd ac71 d43d e2c5 85bd 43fe 94bd
00000340: ffc1 2b3d fc87 a13c 5d20 dcbc 937b 413d
00000350: 874f 65bc 6a47 8639 b080 3ebc 8830 38bd
00000360: b41a 083c 87de f93d a1b3 42bd b0d4 2cb7
00000370: 56d3 cd3d 491b 123e f350 393d 6ed9 273e
00000380: 1f70 fabc 7b0b d4bb 0397 763d 1cb9 69bd
00000390: d084 063e 875b 9bbd 585b 88bc 7705 99bd
000003a0: 487f a93d b34c 65bb d29c 43bd 0474 453d
000003b0: eff6 f63c e14e 9d3d e302 ca3b 91bb 6ebd
000003c0: 7e8c 6d3d 9190 8cbd c8b0 15bd 2f86 f53c
000003d0: 115f 643d ed31 62bd 8e16 223d e11e 473d
000003e0: c36d fc3c 94cc 7fbd fcb8 ac3d 9417 b0bd
000003f0: 7de6 8bbd 372d 22bd 3b1f 90bd 7b9d 773d
0.06511494 0.0836949 0.03298332 0.07081863 0.11461299 0.067562535 -0.0065548783 0.10221329
0.03174672 0.12318915 -0.10891944 0.112433165 0.0004263461 0.07504476 -0.00333229 -0.025259338
0.1057221 0.024120545 0.056444842 0.04579917 -0.055703126 0.00896567 -0.025069242 -0.012564332
-0.056776285 -0.034975428 -0.018618276 0.04052578 -0.0065120836 -0.008348596 -0.058643773 -0.035677593
-0.011792501 0.080859184 -0.044982582 0.07597212 0.17093943 -0.065674625 -0.07318538 -0.055703077
-0.045163482 0.04814668 0.026169676 0.086848184 -0.05948983 -0.05959746 -0.03851381 -0.002510527
0.06949875 0.017489664 -0.12818503 0.11436747 0.10097123 -0.0046305154 0.10775416 6.8605973e-06
0.025526037 0.0027654553 0.10755597 0.0657757 -0.028791651 -0.009917889 0.059006587 -0.07150295
0.00018820711 0.051800653 0.051583234 -0.014052732 -0.047042158 0.0057490417 -0.055258222 0.03566476
0.13945036 -0.026674319 0.06170819 -0.0234551 -0.033086643 0.11172005 -0.08569879 0.039873354
0.09016571 -0.021206915 -0.033875808 -0.050557874 -0.023928683 -0.042457245 -0.00933592 -0.06476504
-0.06170153 0.009141156 -0.039758462 0.10341993 0.034543443 0.038700737 0.06938633 0.01994209
-0.08157786 -0.06520587 0.13073543 0.0044911033 0.11646753 -0.054212276 0.119659714 0.08146792
0.075920634 0.15203854 -0.053794958 -0.070579916 0.103540316 0.08686504 -0.04752909 -0.05789491
0.12912329 0.004264712 -0.06995247 -0.017891154 -0.0154912155 -0.026126485 0.015290259 0.086560614
0.0040483577 0.0019122016 0.080007665 0.004174775 -0.021799177 -0.05133876 -0.023150671 0.07032526
0.00213921 0.024507636 -0.037092324 0.05402353 0.06794838 0.11528944 0.005551944 0.069656245
-0.01466702 -0.0010733949 -0.09176556 0.07260749 0.052976876 0.09890131 -0.08274448 0.00690238
-0.0437767 -0.07724796 -0.050518878 0.090196386 0.03349334 -0.02119836 -0.06598141 -0.020479815
-0.022629872 -0.03469143 -0.059366822 0.12716721 0.0273211 -0.04851045 0.008010535 -0.08154741
0.13142146 0.11104688 0.025622873 0.0978482 0.1523254 -0.04031545 -0.049929015 -0.032581605
-0.0591702 0.119873025 0.12480537 0.07557414 0.04291247 -0.07564423 0.017403413 -0.07616116
0.01561117 -0.019961677 0.056673065 0.116347305 0.0727445 -0.07329007 -0.05663629 -0.020543879
0.0049629435 0.10792752 0.11446519 -0.06020952 -0.004308898 -0.052796938 0.07518443 -0.021275295
0.10002796 -0.02774053 0.055631164 0.01988459 0.048603203 0.11693785 0.009126909 0.12077088
0.13053931 -0.00481916 0.10135256 -0.053422574 -0.042939357 0.10373244 -0.06531884 -0.07275059
0.041933056 0.019718163 -0.0268709 0.04723699 -0.013996012 0.0002561168 -0.011627361 -0.044968158
0.008307148 0.12200647 -0.04753459 -1.0301519e-05 0.10050075 0.14268221 0.045243215 0.16391537
-0.030571042 -0.006471095 0.06020261 -0.0570613 0.13136601 -0.07585817 -0.016645119 -0.074717455
0.0827623 -0.0034988343 -0.047756977 0.048206344 0.030147044 0.076810606 0.006164895 -0.058284346
0.057995312 -0.06863511 -0.036545545 0.02997121 0.055754725 -0.055223394 0.03957229 0.048613433
0.030814057 -0.06245096 0.084337205 -0.08598247 -0.068310715 -0.0395939 -0.07037207 0.06045292

layer3.bias f4 [2]
00000000: 7729 093d 0ddc c93d
0.03348681 0.098564245
