CartPoleDQN/dqn_cartpole50.pth (torch, 72745 bytes, 6 tensors)

layer1.weight f4 [128, 4]
0	0x3e88017e	0.26563638
1	0xbe5a095e	-0.21292636
2	0x3cc4d4c4	0.024027236
3	0xbe048a40	-0.12943363
4	0x3e751ec8	0.23937523
5	0xbef61af0	-0.48067427
6	0x3e338228	0.1753012
7	0x3eeb6252	0.4597345
8	0x3e40abf9	0.18815602
9	0x3e44f675	0.19234641
10	0x3ddae2d7	0.106877975
11	0x3c97d01a	0.018531848
12	0xbe8cf21f	-0.27528474
13	0xbe6f4174	-0.23364812
14	0x3e5db531	0.2165115
15	0x3c8985a9	0.016787367
16	0x3e7bdad3	0.24595194
17	0xbee0f555	-0.43937173
18	0xbe0f5f4f	-0.14001201
19	0xbea15b4c	-0.31514966
20	0xbf1143bf	-0.56744
21	0xbd0ef810	-0.03490454
22	0x3e5ac0bf	0.2136259
23	0xbeae2b4b	-0.34017405
24	0xbd78fc7a	-0.060787655
25	0xbe957729	-0.29192474
26	0xbe8d738e	-0.27627224
27	0xbf010ec6	-0.5041317
28	0x3f3050b1	0.68873125
29	0x3e899428	0.26870847
30	0xbee2461a	-0.44194108
31	0xbe3b88f2	-0.18313959
32	0x3f055e81	0.52097327
33	0xbd2cb99c	-0.0421692
34	0xbf14e695	-0.5816434
35	0x3ee25735	0.4420716
36	0xbeec0e3e	-0.46104616
37	0xbe880a69	-0.26570442
38	0xbea67236	-0.3250901
39	0x3d8b316d	0.067965366
40	0x3e341089	0.17584433
41	0x3d777fbf	0.060424563
42	0x3e5045fd	0.20339198
43	0xbe9fc95a	-0.31208307
44	0x3daa89cb	0.08327063
45	0x3ef20fb0	0.47277594
46	0x3f0bbe87	0.54587597
47	0x3e23d882	0.1600056
48	0x3d2ecd14	0.042676046
49	0xbef3a519	-0.47586897
50	0xbed6b57e	-0.41935343
51	0xbef635b2	-0.4808784
52	0xbe36a397	-0.17835842
53	0xbd111de9	-0.035428915
54	0xbe8d99e1	-0.27656463
55	0xbe1c98c9	-0.15292658
56	0xbec8222d	-0.39088574
57	0x3ea9de05	0.331772
58	0x3e60c7fc	0.21951288
59	0x3e1112f9	0.14167394
60	0x3d95a7f7	0.073074274
61	0xbeb2c7ad	-0.34917966
62	0x3ef9cbf4	0.48788416
63	0x3ea931d1	0.3304582
64	0x3ee30abd	0.4434413
65	0xbe06a430	-0.1314857
66	0x3db969fb	0.09053417
67	0x3eb0869e	0.34477705
68	0xbd9194c0	-0.0710845
69	0xbe6fff42	-0.23437217
70	0x3d6108b8	0.054939955
71	0xbdeeff3a	-0.11669774
72	0x3e8f8aec	0.28035676
73	0x3e1c57e8	0.15267909
74	0x3e6df612	0.232384
75	0x3dc7bfa8	0.097533524
76	0xbea9ba4c	-0.33149946
77	0x3e6ebd06	0.23314294
78	0xbe6f671c	-0.23379177
79	0xbee02e79	-0.43785456
80	0xbe5c5bde	-0.2151942
81	0xbed631f6	-0.41834992
82	0x3ea9ccb1	0.3316398
83	0x3eb997c9	0.36248615
84	0xbec1e7f4	-0.3787228
85	0x3ec25547	0.37955686
86	0x3eccd0e1	0.40003112
87	0xbe83c280	-0.2573433
88	0x3e8458bf	0.25848958
89	0xbed91199	-0.42396238
90	0x3e3317a7	0.17489491
91	0x3e7e2394	0.2481826
92	0x3e92cbbc	0.28671062
93	0xbe302277	-0.17200647
94	0xbea5ffdd	-0.3242177
95	0xbd2f7c31	-0.042843048
96	0xbee28a80	-0.44246292
97	0x3e980016	0.29687566
98	0xbee3cd00	-0.4449234
99	0x3d883ce2	0.066522375
100	0x3ec16fb2	0.3778053
101	0xbc260200	-0.010132313
102	0xbeea1f6e	-0.45727104
103	0xbdc8b61a	-0.09800358
104	0xbd87f9f0	-0.06639469
105	0x3d334d93	0.043775152
106	0xbe350621	-0.17678119
107	0x3d15f16f	0.036607202
108	0xbdaa02a3	-0.08301284
109	0x3f01641a	0.5054337
110	0x3ead670a	0.33867675
111	0x3ea7854c	0.32718885
112	0xbeb98a8c	-0.36238515
113	0x3efc20ac	0.49243677
114	0x3d6950ba	0.056961752
115	0xbedc8975	-0.4307362
116	0xbef1ed59	-0.47251394
117	0x3de2645a	0.11054297
118	0x3d807978	0.06273168
119	0xbde3096f	-0.11085784
120	0x3ec0b38c	0.37636983
121	0x3bedc8e6	0.007256615
122	0x3e612b09	0.21989073
123	0xbec64972	-0.3872791
124	0xbdc8b530	-0.09800184
125	0xbc6711ae	-0.014103336
126	0xbeb378f1	-0.35053208
127	0xbdbfb559	-0.09360761
128	0xbea212d6	-0.31654996
129	0x3d98a852	0.074539796
130	0x3f0ff2f9	0.5623012
131	0x3edcee8f	0.43150756
132	0x3e0ddc7c	0.1385364
133	0x3dc50741	0.09620524
134	0xbea5dfbd	-0.3239726
135	0x3e331492	0.17488316
136	0xbed05cba	-0.40695745
137	0x3e85a962	0.2610579
138	0xbdd41055	-0.103546776
139	0x3e2506c8	0.16115868
140	0xbe9cdd92	-0.30637795
141	0xbea8448d	-0.328648
142	0xbd39d77b	-0.045371514
143	0xbed63b50	-0.41842127
144	0x3ef22e38	0.47300887
145	0xbed2921a	-0.41127092
146	0xbe758c00	-0.23979187
147	0xbd80bafe	-0.06285666
148	0x3f07f943	0.5311472
149	0xbe8d92bb	-0.2765101
150	0xbe706b60	-0.2347846
151	0x3d99ef56	0.07516353
152	0x3e09a819	0.1344303
153	0x3ecbd7a8	0.3981297
154	0xbd925fb6	-0.07147162
155	0x3dcdf2d0	0.100560784
156	0x3d864dd1	0.06557811
157	0x3eefa295	0.46803728
158	0x3d6a8eab	0.057264965
159	0xbc1ea5a2	-0.009683045
160	0x3e49ac7d	0.19694705
161	0xbdbd10dc	-0.09231731
162	0x3e661fa6	0.2247301
163	0xbeb7d7e9	-0.35906914
164	0x3d8fa688	0.07014185
165	0xbe1a5630	-0.1507194
166	0x3dda87da	0.10670443
167	0xbe0c461a	-0.13698617
168	0x3ec3d2bc	0.38246715
169	0xbe8de7a8	-0.27715802
170	0x3e7215a4	0.23641068
171	0x3e754811	0.23953272
172	0x3da57340	0.08078623
173	0x3a864fcc	0.001024717
174	0xbeda10f6	-0.42591065
175	0x3de55706	0.11198239
176	0xbe61592c	-0.22006673
177	0xbe2d9629	-0.16951813
178	0xbf12caa0	-0.5734043
179	0x3eb7c70a	0.35894042
180	0x3d853904	0.065050155
181	0x3e8d8744	0.27642262
182	0x3eee58a2	0.46551996
183	0x3e0c0e1a	0.13677254
184	0xbe3d82c3	-0.18506913
185	0xbe094a9b	-0.13407366
186	0xbe8476f2	-0.25871998
187	0x3e47febd	0.19530769
188	0xbef8643c	-0.48513973
189	0x3e736c01	0.23771669
190	0xbc9d0b10	-0.019170314
191	0xbe0fb472	-0.14033678
192	0xbdc04c11	-0.093895085
193	0x3cc47995	0.023983756
194	0x3ea8d601	0.32975772
195	0x3d55423d	0.052065123
196	0x3e07cc70	0.1326158
197	0xbe9aef31	-0.30260614
198	0x3e8b1ba8	0.27169538
199	0x3eda0698	0.42583156
200	0x3de472fd	0.11154745
201	0xbe2ee271	-0.17078568
202	0x3effe8ec	0.49982393
203	0xbd85b652	-0.065289155
204	0x3dc2fea2	0.095212236
205	0xbed9cbeb	-0.4253839
206	0x3eb94caa	0.36191303
207	0x3ed09fc6	0.40746897
208	0xbdd83a04	-0.105579406
209	0xbe02dec9	-0.12780298
210	0xbc4ce934	-0.012506772
211	0xbe8af79c	-0.27142036
212	0xbeb0ab74	-0.34505808
213	0xbe7fb704	-0.24972159
214	0x3e0607dc	0.13088936
215	0xbe550b8c	-0.20805186
216	0x3eb19a16	0.3468787
217	0xbe09d456	-0.13459906
218	0xbec17220	-0.37782383
219	0xbed1c908	-0.40973687
220	0xbc8c466a	-0.01712342
221	0x3ecf2bf6	0.40463227
222	0x3ebfaf59	0.37438467
223	0x3e8e678e	0.2781338
224	0x3eb065c1	0.34452632
225	0xbcb490eb	-0.022041759
226	0x3ef53f9e	0.479001
227	0xbe7ceee6	-0.24700508
228	0x3eecc1fc	0.46241748
229	0xbeece62e	-0.46269363
230	0xbe659d66	-0.22423324
231	0xbdee00c6	-0.11621241
232	0xbed6efe1	-0.41979888
233	0xbed19eab	-0.40941367
234	0x3e2c74a5	0.16841371
235	0xbe381ba5	-0.17979296
236	0x3ecc627e	0.39918894
237	0xbe868566	-0.2627365
238	0xbe8e850f	-0.2783589
239	0xbc8415cf	-0.01612368
240	0x3f12caee	0.57340896
241	0xbe127460	-0.14302206
242	0x3d861485	0.065468825
243	0xbeb84d5b	-0.35996518
244	0x3e6c5d39	0.23082437
245	0xbeb99327	-0.3624508
246	0xbe188d09	-0.1489755
247	0xbda4c1f2	-0.08044805
248	0x3e8f2a86	0.2796213
249	0x3e89a7fa	0.26885968
250	0xbd0afdb8	-0.03393337
251	0xbd0aaac4	-0.03385426
252	0x3eb58223	0.3545085
253	0x3ecdc1a7	0.40186808
254	0xbeb6c38b	-0.35696062
255	0xbd13f49f	-0.03612196

layer1.bias f4 [128]
0	0xbeed2c6e	-0.4632296
1	0xbe1379ad	-0.14401884
2	0x3ecfb610	0.4056859
3	0x3e3bd81a	0.18344155
4	0x3ece65ac	0.40311944
5	0x3efe98c4	0.49725926
6	0xbead2547	-0.33817503
7	0xbebd8f1a	-0.3702324
8	0x3e06b811	0.13156153
9	0x3f118f5c	0.56859374
10	0xbeab21f2	-0.33424336
11	0x3e324a6a	0.17411199
12	0xbe293fc6	-0.16528234
13	0x3f0bb0a1	0.5456639
14	0x3e578522	0.2104688
15	0xbe9ecd54	-0.31016028
16	0x3ec1a115	0.37818208
17	0xbed6d7de	-0.4196157
18	0xbdbeeb62	-0.093222395
19	0x3e18521b	0.14875071
20	0xbea5a98c	-0.32355917
21	0x3e54383f	0.20724581
22	0x3ecef20b	0.4041904
23	0x3ef28506	0.47367114
24	0xbec99404	-0.3937074
25	0xbed2eab8	-0.411947
26	0x3ec1481c	0.37750328
27	0x3e74888d	0.23880215
28	0x3f0a3977	0.53993934
29	0x3eb169f9	0.34651163
30	0xbec8a1a2	-0.39185816
31	0x3ed21fde	0.41039938
32	0xbdd4c2f5	-0.103887476
33	0x3f0bb4a9	0.5457254
34	0xbe9db292	-0.308003
35	0x3ee35b74	0.4440571
36	0xbe8e386d	-0.27777424
37	0x3ea82d44	0.32847035
38	0x3df406a2	0.119153276
39	0x3e34e68f	0.17666076
40	0x3ee99bab	0.45626578
41	0xbe900676	-0.2812993
42	0x3dc469c7	0.09590488
43	0xbedaec26	-0.42758292
44	0x3df22e3f	0.11825227
45	0xbea70d24	-0.32627213
46	0x3e55ae03	0.20867161
47	0x3e19cf73	0.15020542
48	0x3e33e002	0.17565921
49	0x3da9bc20	0.08287835
50	0x3efb5a78	0.4909246
51	0x3e5e3dd0	0.21703267
52	0x3ed9a0cf	0.425055
53	0xbe8cc179	-0.27491358
54	0xbe940b3a	-0.28914815
55	0xbeea5f18	-0.45775676
56	0x3f03367c	0.5125501
57	0xbeb92d1a	-0.36167222
58	0x3ea5cec0	0.323843
59	0xbe41ac62	-0.18913415
60	0xbe01149d	-0.1260552
61	0x3d5f09bc	0.054452643
62	0x3f000ab2	0.5001632
63	0x3cdb7d80	0.026793242
64	0x3ec0cfb2	0.3765846
65	0xbc9c9afd	-0.019116873
66	0x3e9394ba	0.28824407
67	0x3e92b258	0.2865169
68	0xbebb9111	-0.36634114
69	0x3d0eafbd	0.034835566
70	0xbd3c5663	-0.045980822
71	0x3ea762ab	0.32692465
72	0x3cf34c19	0.029699372
73	0x3e567c6f	0.20945905
74	0xbda00a15	-0.07814423
75	0x3e5faa3f	0.21842287
76	0xbea77058	-0.327029
77	0xbe9ffa2a	-0.31245548
78	0x3f09740d	0.53692704
79	0x3eca9632	0.39567715
80	0x3ebea301	0.37233737
81	0xbdddb244	-0.10825017
82	0x3ed1b917	0.40961525
83	0x3eff0970	0.49811888
84	0xbd94d79b	-0.07267686
85	0x3ef52eb2	0.47887188
86	0x3dbae01a	0.09124775
87	0x3dfedc37	0.124443464
88	0x3ef77f1a	0.48339158
89	0xbd29ddd9	-0.041471336
90	0x3f073f1f	0.5283069
91	0x3ed98cee	0.42490333
92	0xbdb3dcfe	-0.08782385
93	0x3f04bba1	0.518488
94	0xbead0b5a	-0.33797723
95	0x3d3896c6	0.045065664
96	0xbe431c10	-0.19053674
97	0xbb61ad7f	-0.0034435687
98	0x3e3679ce	0.17819902
99	0x3efea6b6	0.49736565
100	0x3eface0b	0.48985323
101	0x3eed6332	0.46364743
102	0xbe3592e7	-0.1773182
103	0xbe7a2135	-0.2442673
104	0xbdfdd98c	-0.123950094
105	0xbe9349b6	-0.28767174
106	0xbe62c6fb	-0.22146218
107	0x3db4952e	0.08817516
108	0x3e194b9b	0.14970247
109	0x3de1a0b6	0.11016981
110	0x3e19cb3f	0.15018938
111	0xbebecb30	-0.37264395
112	0x3e051b93	0.129988
113	0x3e14787a	0.14499083
114	0x3ef7382d	0.48285046
115	0xbdd4ce99	-0.10390968
116	0xbe8b48b6	-0.27203912
117	0xbd15ca27	-0.03656974
118	0x3ed2d190	0.41175508
119	0xbe7cf518	-0.24702871
120	0xbeb7c09d	-0.3588914
121	0xbeae39dc	-0.34028518
122	0xbe119704	-0.14217764
123	0x3e96cd32	0.29453427
124	0xbdc69be4	-0.096977025
125	0xbe716b46	-0.23576078
126	0xbecd2efe	-0.40074915
127	0xbe313a64	-0.1730743

layer2.weight f4 [128, 128]
0	0x3a12cac6	0.00055996736
1	0x3d8bcdb9	0.06826348
2	0xbd8fe492	-0.07026018
3	0x3dabbded	0.08385835
4	0xbd542579	-0.05179355
5	0xbd9013b0	-0.07035005
6	0xbd96a5b2	-0.073558226
7	0xbd8ee677	-0.069775514
8	0xbd4cbe3d	-0.049986113
9	0xbd027eac	-0.031859085
10	0x3d908f07	0.0705853
11	0x3cac5318	0.021035716
12	0x3d904eb5	0.07046262
13	0xbd968255	-0.073490776
14	0x3cdb245e	0.02675074
15	0x3d9fd285	0.07803825
16	0xbcd5ff90	-0.026122838
17	0xbd5b0b69	-0.05347768
18	0xbda4be48	-0.08044106
19	0xbd0d9e24	-0.034574643
20	0xbd0ca1e3	-0.034334075
21	0xbc01177e	-0.007879136
22	0xbd93def9	-0.07220263
23	0x3d8a7e3b	0.06762358
24	0xbc06e954	-0.008234341
25	0x3da6bc4f	0.08141386
26	0xbcc7bc96	-0.024381917
27	0x3db3cac3	0.08778908
28	0x3da6635d	0.08124421
29	0xbd988924	-0.074480325
30	0xbd58da28	-0.052942425
31	0xbd84d07e	-0.06485079
32	0x3c90b984	0.017666586
33	0x3d4d1376	0.050067388
34	0xbcde7fb1	-0.027160497
35	0x3d7ca2fc	0.06167887
36	0x3bb2e95a	0.0054599466
37	0x3d986c01	0.07442475
38	0xbd602d5b	-0.054730754
39	0xbd4dd59a	-0.050252534
40	0xbcc1cc98	-0.023657128
41	0x3c247d10	0.010039583
42	0xbda04b1d	-0.07826827
43	0xbaa621a4	-0.0012674821
44	0xbd266301	-0.04062176
45	0x3d8090f1	0.062776454
46	0x3ce09344	0.027413972
47	0xba967586	-0.0011479117
48	0xbbb2dc9a	-0.0054584267
49	0xbd81de0e	-0.06341182
50	0xbd9a14e9	-0.075235195
51	0xbce988ce	-0.028507616
52	0x3b8b9e2a	0.004260798
53	0xbd4e9d32	-0.050442882
54	0xbc2d547c	-0.010579225
55	0x3c228918	0.009920381
56	0xbc55f19c	-0.013058092
57	0xbd64a4fd	-0.055821408
58	0x3d9f7db5	0.077876486
59	0xbc9e31c2	-0.019310836
60	0x3c4df6b8	0.012571029
61	0x3d5b5a38	0.053552836
62	0x3d4e3b9a	0.05034981
63	0xbd92bb71	-0.07164658
64	0x3d3d5984	0.046227947
65	0x3d4b2a66	0.04960098
66	0xbce094a8	-0.027414635
67	0x3d8c7d9f	0.06859898
68	0xbdadb6e5	-0.0848215
69	0xbda14adf	-0.07875609
70	0xbd804c5a	-0.06264563
71	0x3cd1aa66	0.025593948
72	0x3d24da2a	0.04024712
73	0x3d08004a	0.0332034
74	0xbd8ad3e2	-0.06778695
75	0xbb42d674	-0.0029729875
76	0xbd1deb9c	-0.038554773
77	0x3d8d2423	0.06891658
78	0xbd19f16c	-0.037583753
79	0x3ceabd28	0.02865465
80	0xbd5b612b	-0.053559463
81	0xbcd80048	-0.026367322
82	0xbd94e39f	-0.07269978
83	0xbd4949c6	-0.04914262
84	0x3c84c260	0.016205966
85	0x3c731fc9	0.014839121
86	0x3d9385a5	0.07203225
87	0xbce6141c	-0.02808576
88	0xbd00f860	-0.03148687
89	0x3d7239b0	0.059137046
90	0xbcc13da0	-0.023588955
91	0xbd8f87b2	-0.07008304
92	0x3d789394	0.060687616
93	0xbd60aaab	-0.05485026
94	0xbcce274c	-0.025165223
95	0x3daab70b	0.08335694
96	0x3ca11158	0.01966159
97	0xbd704a2a	-0.05866448
98	0x3d350e30	0.044202983
99	0x3d931661	0.07182003
100	0xbcae7478	-0.021295771
101	0xbd858130	-0.06518781
102	0xbd18b0c6	-0.03727796
103	0xbda26f53	-0.0793139
104	0xbd5f8f98	-0.0545803
105	0xbd97cbd0	-0.07411921
106	0xbd192348	-0.037387162
107	0xbd0c8a50	-0.034311593
108	0xbd1de318	-0.03854665
109	0x3da8a0c3	0.08233788
110	0x3d85e4ff	0.06537818
111	0xbcec25f4	-0.028826691
112	0x3d618f76	0.055068456
113	0x3b6f2fa2	0.0036496897
114	0xbd706e21	-0.058698777
115	0xbbe02948	-0.0068408586
116	0x3d83b73f	0.06431436
117	0xbd13d064	-0.03608741
118	0xbd388b06	-0.045054458
119	0x3d1ffaa0	0.039057374
120	0x3a887dca	0.0010413465
121	0xbd7b9ea0	-0.061430573
122	0xbdaaffae	-0.08349548
123	0xbcaa7082	-0.020805601
124	0xbc3471e2	-0.01101348
125	0x3d7fa99a	0.062417604
126	0xbd585454	-0.052814797
127	0x3d339184	0.043839946
128	0xbc8ac066	-0.016937446
129	0xbc81bef1	-0.015838118
130	0xbace3783	-0.0015733097
131	0xbd76fcdf	-0.06029975
132	0xbce98226	-0.028504442
133	0x3d0036ef	0.03130239
134	0xbe63d1a1	-0.22247936
135	0xbc923852	-0.017849121
136	0xbd51e647	-0.051245
137	0x3ddbd7d0	0.10734522
138	0xbc8b23d4	-0.016984858
139	0xbc03e794	-0.008050818
140	0xbe4e12f3	-0.20124416
141	0xbd233497	-0.039845075
142	0x3e07f39d	0.13276525
143	0xbd0bdf89	-0.034148727
144	0x3dc7f851	0.097641595
145	0x3bc6e702	0.0060700187
146	0xbd80093d	-0.06251762
147	0x3b6e6f87	0.0036382393
148	0x3d9c5453	0.07633271
149	0x3d89745c	0.06711647
150	0x3b8120f7	0.0039406973
151	0x3d262d7b	0.040570717
152	0x3d1ec998	0.038766474
153	0xbd1688c5	-0.036751527
154	0x3dafa7a3	0.08576896
155	0x3d78d95f	0.060754176
156	0x3d3321f1	0.04373354
157	0xbd1f20eb	-0.038849752
158	0xbd84f3d8	-0.06491822
159	0x3c706a3b	0.014673765
160	0x3d276d22	0.04087556
161	0x3dc3bc7f	0.09557437
162	0xbd5a9a62	-0.053369887
163	0x3da0c0e6	0.078492925
164	0x3d6fda2b	0.05855767
165	0x3de2dcc0	0.11077261
166	0xbc137d7b	-0.009002085
167	0x3d8e3206	0.06943135
168	0x3d2c15a3	0.042012822
169	0x3b376578	0.0027984064
170	0x3dc51a71	0.09624184
171	0xbdb2265b	-0.08698722
172	0x3d9727e4	0.073806554
173	0xbd70d613	-0.058797907
174	0x3dd63b4e	0.1046053
175	0xbd2f8031	-0.042846862
176	0x3dd0b50a	0.101907805
177	0xbcda9e25	-0.026686737
178	0xbc9db060	-0.019249141
179	0x3d6d2eb5	0.05790587
180	0x3caca349	0.021073954
181	0x3d868e75	0.0657014
182	0xbe04e358	-0.1297735
183	0x3d7e276a	0.062049307
184	0x3c9e1be7	0.019300414
185	0x3ce57fd4	0.028015055
186	0xbd1ed6b7	-0.038778987
187	0x3dcbb059	0.09945745
188	0xbdc0d1d5	-0.09415022
189	0xbd28c0cf	-0.0411995
190	0x3d9fa3e6	0.07794933
191	0xbd86abe5	-0.06575755
192	0xbc9c84e1	-0.01910633
193	0x3be1bc70	0.0068889186
194	0x3dc164d3	0.09443059
195	0x3d3c2c16	0.04594048
196	0xbe4cbd87	-0.19994174
197	0xbd2a4b4d	-0.04157572
198	0xbd261282	-0.040544994
199	0x3cb85e73	0.022505974
200	0x3db52348	0.0884462
201	0x3d128142	0.0357678
202	0x3b3418c0	0.0027480572
203	0x3cc6d0b7	0.024269445
204	0xbd84ed83	-0.06490614
205	0x3a84248c	0.0010081693
206	0x3da1cf74	0.07900897
207	0x3cb7edee	0.02245232
208	0xbd3faf94	-0.046798304
209	0x3c88fbee	0.016721692
210	0x3db85dbd	0.09002254
211	0xbd4a5c42	-0.04940439
212	0x3e1e3960	0.15451574
213	0x3dbf4fb2	0.093413725
214	0x3d830259	0.06396932
215	0x3dec073c	0.11524817
216	0x3d99e7ad	0.07514892
217	0xbd03e6d2	-0.03220255
218	0xbd3ea73b	-0.046546202
219	0x3cc10191	0.023560317
220	0x3d0f13cb	0.034930985
221	0x3d896c4b	0.06710108
222	0xbb91ddc3	-0.004451485
223	0xbd93b90a	-0.07213028
224	0xbd72eaff	-0.05930614
225	0x3d8b486a	0.06800921
226	0xbd2cca61	-0.04218519
227	0x3da980eb	0.08276542
228	0xbc0be4c8	-0.008538432
229	0xbd0923e4	-0.033481494
230	0x3b4522f3	0.0030080646
231	0xbd780f6a	-0.060561575
232	0x397ae40c	0.00023926812
233	0x3dadd975	0.08488742
234	0x3d818b83	0.06325438
235	0xbcf3a616	-0.029742282
236	0x3cb10f22	0.021613661
237	0x3d4a7155	0.049424488
238	0x3dbd4541	0.09241725
239	0xbd6f8a66	-0.058481596
240	0x3df4d22d	0.1195415
241	0x3d55a231	0.05215663
242	0x3b0be926	0.0021348684
243	0x3c8c3541	0.017115237
244	0xbe0be2b4	-0.13660699
245	0x3c79873a	0.015229994
246	0x3d07adde	0.033124797
247	0x3db6d508	0.08927351
248	0xbc9834ae	-0.018579807
249	0xbc2c1fdd	-0.010505644
250	0xbd81a5e6	-0.06330471
251	0xbc10dbe1	-0.008841486
252	0xbd219e95	-0.039457876
253	0xbe073def	-0.1320722
254	0xbdb84f4d	-0.089995004
255	0xbdea5279	-0.11441512

layer2.bias f4 [128]
0	0x3d3db06c	0.046310827
1	0x3d3940c7	0.045227792
2	0x3d8a0ed6	0.06741111
3	0x3d1e83a1	0.03869975
4	0x3dd740c8	0.10510403
5	0xbd7343ad	-0.059390713
6	0x3c7f8b64	0.015597198
7	0x3d85195a	0.06498976
8	0xbd3ed4f9	-0.046589825
9	0x3d86a654	0.06574693
10	0xbb4d0d1c	-0.0031288331
11	0x3d373121	0.044724587
12	0x3c1070a0	0.008815914
13	0x3d9c5894	0.076340824
14	0xbd6ff6b8	-0.0585849
15	0x3c8fd094	0.017555512
16	0x3df2c6a2	0.118542925
17	0x3d83196d	0.06401334
18	0x3cd4454a	0.025911946
19	0x3db45a52	0.0880629
20	0xbd8a4cd5	-0.06752936
21	0x3d048e92	0.03236253
22	0xbd929801	-0.07157899
23	0x3ca7472b	0.020419678
24	0xbcfebf23	-0.031097
25	0xbd99b348	-0.07504898
26	0xbd3a6f8e	-0.045516543
27	0x3de59ac2	0.11211158
28	0x3d61325e	0.054979675
29	0xbdc17bad	-0.094474174
30	0x3c98a7dd	0.018634731
31	0x3d4e41c2	0.05035568
32	0x3d8f1fab	0.06988462
33	0xbc62d39b	-0.013844396
34	0xbd8a54f0	-0.06754482
35	0x3d5d2846	0.053993486
36	0xbc039636	-0.008031419
37	0xbd529837	-0.051414695
38	0xbdaafe95	-0.08349339
39	0xbd92799a	-0.071521
40	0xbd7d3450	-0.061817467
41	0x3d1147c5	0.035468835
42	0x3d489a8b	0.04897551
43	0xbcd32aa6	-0.025777172
44	0xbd1eec8b	-0.038799804
45	0xbcf44da9	-0.029822187
46	0xbd0b86d2	-0.03406412
47	0xbbcea6df	-0.0063065137
48	0x3dc56452	0.09638275
49	0xbda2af8e	-0.07943641
50	0xbd7e5bb2	-0.062099166
51	0x3de3ff88	0.11132723
52	0xba5ada7e	-0.0008348598
53	0xbd089a82	-0.033350475
54	0x3d9d24ea	0.076730564
55	0xbbbf025c	-0.0058291387
56	0xbda28518	-0.07935542
57	0x3dbaa2f1	0.0911311
58	0x3d3de6ef	0.046362814
59	0xbcfb5f27	-0.03068502
60	0x3c9bd564	0.019022651
61	0xbd61802b	-0.05505387
62	0x3d9fe839	0.07807965
63	0xbd718e66	-0.058973692
64	0x3dfb40f9	0.12268252
65	0x3ccb8dcf	0.024847893
66	0x3ce77177	0.028252346
67	0xbb627225	-0.0034552899
68	0x3d6cbb93	0.057796072
69	0xbd0bc71c	-0.034125432
70	0xbda52ff1	-0.08065785
71	0x3dd0f9c8	0.10203892
72	0x3dc06062	0.093933836
73	0x3da91fcb	0.08258017
74	0xbcf7c9ec	-0.030247651
75	0xbd13b347	-0.036059644
76	0xbcaeb905	-0.021328459
77	0x3d95b8f3	0.07310667
78	0x3d236af0	0.039896905
79	0x3d4a9bd5	0.04946502
80	0x3c159c55	0.009131511
81	0xbd8287c5	-0.06373552
82	0xbd9391c8	-0.0720554
83	0x3d5d8b8d	0.054088164
84	0x3c5ffa54	0.013670523
85	0x3d8adb97	0.06780165
86	0x3d543d0b	0.051816028
87	0x3d4e8610	0.05042082
88	0xbdc29ffc	-0.09503171
89	0x3e13ec7d	0.14445682
90	0xbd285514	-0.04109676
91	0x3dc31dee	0.09527193
92	0x3c622fe1	0.0138053605
93	0x3dc44624	0.09583691
94	0xbb2c9dcd	-0.0026339174
95	0x3d9820b6	0.07428114
96	0x3d25caac	0.040476486
97	0x3d0eaad0	0.03483087
98	0x3c79fa83	0.015257481
99	0xbd8cb35d	-0.06870148
100	0x3ddfa742	0.10920574
101	0xbd1067d3	-0.035255264
102	0x3cdb3fcf	0.026763825
103	0x3c7d8c9d	0.015475419
104	0xbc9b0d4c	-0.018927239
105	0xbcad11ed	-0.021126712
106	0xbd632cca	-0.055462636
107	0xbd8a3987	-0.06749254
108	0xbd32c803	-0.043647777
109	0x3dc47446	0.0959249
110	0x3d72dcee	0.059292726
111	0xbd57dfac	-0.052703544
112	0x3da6c24b	0.08142527
113	0xbd7d84ab	-0.0618941
114	0xbc5f6c65	-0.013636683
115	0xbd8829cf	-0.06648599
116	0x3d1a6b22	0.037699826
117	0xbca9532c	-0.020669542
118	0xbd8ed297	-0.069737606
119	0xbc4a3475	-0.012341608
120	0x3d4ed39e	0.050494783
121	0xbd7c2ebb	-0.061568003
122	0x3d0abae2	0.03386963
123	0xbc82d6a8	-0.015971497
124	0xbb999c39	-0.0046878126
125	0x3c58c834	0.013231326
126	0xbd115136	-0.03547784
127	0x3de8c226	0.11365156

layer3.weight f4 [2, 128]
0	0x3d854691	0.065076
1	0x3dba2aee	0.090902194
2	0x3d07051b	0.032963853
3	0x3d9ad3bc	0.075599164
4	0x3df9e92a	0.12202676
5	0x3d92ff24	0.071775705
6	0xbbd6a954	-0.006550947
7	0x3dde6313	0.10858741
8	0x3d01f538	0.031728
9	0x3e0a2dd6	0.13494048
10	0xbe191cf6	-0.14952454
11	0x3e0584b5	0.13038905
12	0x39df64a8	0.0004260887
13	0x3da498f1	0.08036984
14	0xbb5a40ca	-0.0033302777
15	0xbccecd44	-0.025244363
16	0x3de3b0e6	0.11117725
17	0x3cc579d4	0.024105944
18	0x3d670f60	0.056411147
19	0x3d57d7f3	0.05269618
20	0xbd6405a1	-0.05566943
21	0x3c12cdfa	0.008960241
22	0xbccd3e9b	-0.025054267
23	0xbc4dbb39	-0.012556844
24	0xbd686aeb	-0.05674259
25	0xbd0f2c69	-0.034954462
26	0xbc986dcd	-0.018607045
27	0x3d560f2f	0.052260574
28	0xbbd54257	-0.0065081525
29	0xbc621bc5	-0.013800566
30	0xbd70c05b	-0.058777194
31	0xbd120be6	-0.03565588
32	0xbb7665e2	-0.0037597348
33	0x3dc0016c	0.09375271
34	0xbd382364	-0.044955626
35	0x3da97f7e	0.0827627
36	0x3e4468b5	0.19180568
37	0xbd9bc740	-0.07606363
38	0xbd95cb72	-0.07314195
39	0xbd640594	-0.055669382
40	0xbd38e114	-0.045136526
41	0x3d61eaea	0.055155672
42	0x3d1dcb11	0.038523737
43	0x3db1c1fb	0.08679577
44	0xbd7385ec	-0.05945389
45	0xbd84e839	-0.064896055
46	0xbd1da851	-0.038490597
47	0xbb246e87	-0.0025090293
48	0x3da2176e	0.07914625
49	0x3c8f3080	0.017479181
50	0xbe391167	-0.18073045
51	0x3df9b0a0	0.12191892
52	0x3ddf9134	0.10916367
53	0xbb97a406	-0.0046277074
54	0x3df8380b	0.12120064
55	0x36e610c0	6.856484e-06
56	0x3cd0fbca	0.025510687
57	0x3c1c704b	0.009548257
58	0x3de9ed2e	0.114221916
59	0x3d86a0ff	0.06573676
60	0xbcebb85a	-0.02877443
61	0xbc226584	-0.0099118985
62	0x3d931f0d	0.07183657
63	0xbd92595e	-0.07145952
64	0x3c048d4c	0.008090328
65	0x3d7aa999	0.061196897
66	0x3d86ba7e	0.06578539
67	0xbc661a19	-0.014044308
68	0xbd409171	-0.047013704
69	0x3c68ef26	0.014217174
70	0xbdc2e771	-0.095168
71	0x3d28e5cc	0.041234776
72	0x3e1e20b2	0.1544216
73	0xbd0357c7	-0.032066133
74	0x3d93a943	0.072100185
75	0xbcfd32cb	-0.030908009
76	0xbd077172	-0.033067174
77	0x3deeb7b7	0.116561346
78	0xbdd87dc8	-0.10570866
79	0x3d23391e	0.039849393
80	0x3dd63c01	0.104606636
81	0xbcb0243f	-0.021501658
82	0xbd0aac29	-0.03385559
83	0xbd4ef61e	-0.050527684
84	0xbd202543	-0.039098036
85	0xbd507269	-0.05089036
86	0xbc18de22	-0.009330304
87	0xbd8c6caf	-0.06856667
88	0xbd7c959f	-0.061666127
89	0x3c946e52	0.018119011
90	0xbd22c0a5	-0.0397345
91	0x3df532b6	0.11972563
92	0x3d278fa3	0.040908467
93	0x3d54c5e4	0.051946536
94	0x3d98ebef	0.07466876
95	0x3d122bea	0.03568641
96	0xbe051727	-0.12997113
97	0xbd85a0b8	-0.06524795
98	0x3e167be2	0.14695695
99	0x3b931356	0.004488389
100	0x3e06161d	0.13094373
101	0xbd5debee	-0.05418008
102	0x3e0780e0	0.13232756
103	0x3da6bebe	0.0814185
104	0x3d9b64b9	0.07587571
105	0x3e32081b	0.17385904
106	0xbd5c3657	-0.05376276
107	0xbdb4f19d	-0.088351466
108	0x3de7ddc0	0.11321592
109	0x3dc2d90a	0.09514053
110	0xbd429007	-0.047500636
111	0xbd6cff19	-0.057860468
112	0x3e100b0a	0.14066711
113	0x3b8ba9cc	0.0042621847
114	0xbd8f2d42	-0.06991054
115	0xbc9279b3	-0.017880296
116	0xbc7da79c	-0.015481856
117	0xbcd5e63c	-0.02611076
118	0x3c7a5d86	0.015281087
119	0x3dce6121	0.100771196
120	0x3b8493ac	0.004045924
121	0x3afa7c5e	0.0019110551
122	0x3df4d3d6	0.11954467
123	0x3b88b75a	0.004172248
124	0xbcb278b5	-0.021786073
125	0xbd522866	-0.05130806
126	0xbcbd896d	-0.023136819
127	0x3da6b7ce	0.08140527
128	0x3b0c1cca	0.0021379464
129	0x3d03c126	0.032166623
130	0xbd17d691	-0.03706986
131	0x3d71d287	0.059038665
132	0x3d9875fe	0.0744438
133	0x3df561d6	0.11981551
134	0x3bb5d0d1	0.0055485745
135	0x3d9b4fc0	0.075835705
136	0xbc70290a	-0.014658222
137	0x3bcaaf91	0.00618548
138	0xbddc1122	-0.10745455
139	0x3db36d8c	0.08761129
140	0x3d58dd4e	0.052945428
141	0x3dd525c6	0.10407595
142	0xbda95c07	-0.08269506
143	0x3be20ad0	0.0068982616
144	0xbd27484f	-0.040840443
145	0xbd9e1bd7	-0.07720154
146	0xbd4ecd7a	-0.050488926
147	0x3dc55fc2	0.09637405
148	0x3d091b1d	0.033473123
149	0xbcad8d7d	-0.021185631
150	0xbd870cd9	-0.06594247
151	0xbca7ab60	-0.02046746
152	0xbcb94604	-0.022616394
153	0xbd0e029e	-0.034670465
154	0xbd7305b9	-0.05933163
155	0x3e0cdd40	0.13756275
156	0x3cdfadf4	0.027304627
157	0xbd52214e	-0.051301293
158	0x3c041ba2	0.008063229
159	0xbda6e86b	-0.08149799
160	0x3e12df4d	0.14342995
161	0x3df65c15	0.12029282
162	0x3cd1c6de	0.025607523
163	0x3dd9f1b4	0.10641804
164	0x3e2d4469	0.16920628
165	0xbd32a331	-0.043612663
166	0xbd4c62f6	-0.049899064
167	0xbd055fe0	-0.032562137
168	0xbd72378d	-0.05913501
169	0x3e03cf60	0.12872076
170	0x3e0d20dd	0.13782068
171	0x3d9aaf0f	0.07552921
172	0x3d2faa4a	0.04288701
173	0xbd9e8be2	-0.07741524
174	0x3c8e7b9e	0.01739293
175	0xbd9be2d4	-0.076116234
176	0x3ccaea88	0.024770036
177	0xbca36d8c	-0.019949697
178	0x3d167a72	0.036737867
179	0x3dfc818b	0.12329396
180	0x3da7c414	0.08191696
181	0xbd960256	-0.07324664
182	0xbd5228dd	-0.0513085
183	0xbca831ba	-0.020531524
184	0x3ba28710	0.0049599484
185	0x3def679a	0.11689682
186	0x3df78332	0.120855704
187	0xbd767892	-0.06017358
188	0xbb8d1bac	-0.0043062773
189	0xbd5820a0	-0.05276549
190	0x3db33a94	0.08751407
191	0xbcae2ed5	-0.021262566
192	0x3de3882b	0.11109956
193	0xbcc0259e	-0.023455437
194	0x3d870445	0.06592611
195	0x3ca2cbe2	0.01987261
196	0x3d46f588	0.048574
197	0x3e009812	0.1255801
198	0xbb771c8b	-0.0037706222
199	0x3e01ee50	0.12688565
200	0x3e132fe0	0.14373732
201	0xbbb1f14f	-0.0054303776
202	0x3de15266	0.110020444
203	0xbd67a0a5	-0.056549687
204	0xbd2fc67c	-0.0429139
205	0x3ddb68b1	0.10713328
206	0xbd925787	-0.07145601
207	0xbd94e77e	-0.07270716
208	0x3d59586c	0.05306284
209	0x3ca10ff7	0.019660933
210	0xbcdbfe9a	-0.026854802
211	0x3d415dbd	0.047208536
212	0xbc9677fc	-0.01836776
213	0xbb1f08ee	-0.0024266797
214	0xbc3e63a3	-0.011620435
215	0xbd38154e	-0.044942193
216	0x3c080581	0.0083020935
217	0x3e09cfe9	0.13458218
218	0xbd4295cb	-0.047506135
219	0x3c5e0fc7	0.013553566
220	0x3ddd8e68	0.108181775
221	0x3e21eba2	0.15812543
222	0x3d456544	0.048192278
223	0x3e3922cc	0.1807968
224	0xbd446bbe	-0.047954313
225	0xbbd3e587	-0.006466571
226	0x3d98a259	0.0745284
227	0xbd6994fe	-0.057026856
228	0x3e118045	0.14209087
229	0xbd9b43f9	-0.07581324
230	0xbc0624b6	-0.0081874635
231	0xbd98ede9	-0.07467253
232	0x3da9655f	0.08271288
233	0x3bc8a84c	0.006123578
234	0xbd437efc	-0.047728524
235	0x3d2e0bd0	0.042491734
236	0x3d184985	0.03717949
237	0x3dab0067	0.08349686
238	0x3bc9e444	0.0061612446
239	0xbd6e96aa	-0.058249153
240	0x3d8f3a64	0.06993559
241	0xbd8c7b5e	-0.06859468
242	0xbd159a03	-0.03652383
243	0x3cf5607f	0.02995324
244	0x3d643bbc	0.05572103
245	0xbd620f61	-0.055190448
246	0x3d21fd6e	0.03954833
247	0x3d770fee	0.060317926
248	0x3cfc474a	0.030795712
249	0xbd7fa552	-0.06241352
250	0x3ddeeeb5	0.108853735
251	0xbdaffce2	-0.085931554
252	0xbd8bd14a	-0.06827028
253	0xbd221417	-0.03956994
254	0xbd90093f	-0.070330136
255	0x3d8d81bc	0.069095105

layer3.bias f4 [2]
0	0x3d0cfa68	0.034418494
1	0x3dcccc1e	0.0999987
