CartPoleDQN/dqn_cartpole30.pth (torch, 72745 bytes, 6 tensors)

layer1.weight f4 [128, 4]
00000000: b824 883e 7841 5abe 5806 c53c 2cac 04be
00000010: c9ca 7c3e 931d f8be 89bb 243e ed2e ec3e
00000020: 9a79 463e fc48 433e 5891 b43d a217 793c
00000030: e736 acbe 623a 6bbe 4c09 943e 90db 163d
00000040: dd1d 813e f720 e2be 460c 23be 5aee a2be
00000050: 106f 04bf 83ac 6f3b 38f8 203e eee8 c3be
00000060: 0e83 11be 4a08 8abe 30fc 3bbe 9b20 febe
00000070: ba04 193f 9165 903e cc26 aabe 2be7 28be
00000080: b9c4 ed3e d59f 0ebd 3a6a 02bf def5 e63e
00000090: 2690 e1be c932 89be 8d1e b5be 0ead 853d
000000a0: 1861 c33d bfdb 943d c1d1 9b3e 33c6 96be
000000b0: b4c7 e13d 2807 e93e fd16 013f f641 283e
000000c0: 19dd 3dbd f054 e8be 4e42 a4be 9c36 f1be
000000d0: 5736 2fbe 5588 1ebd 6935 98be 425d 1fbe
000000e0: 53fe bfbe d1a2 a83e f90c 403e bf59 0b3e
000000f0: 8139 f43d d630 b8be 03bf d53e 545f a83e
00000100: deeb c53e 1e97 edbd ab7d 243e 9161 b43e
00000110: 48b9 91bd 943c 70be 2042 613d 8c3c efbd
00000120: ba02 903e fcc8 1b3e 98e8 6e3e e45e c93d
00000130: 97c0 9abe ca71 6e3e aa25 8fbe bab3 e3be
00000140: e2f2 26be 5dba dabe d210 843e 257c b73e
00000150: 2c2a adbe 726a b83e f8f0 b03e 2b03 84be
00000160: 3572 633e 36f2 d3be 0ed1 713e a281 823e
00000170: 74d8 943e b811 31be b87a aebe f97c 3bbd
00000180: e8c3 e2be 3a27 983e 7c07 e4be 1c60 883d
00000190: 46a1 c13e c02b 26bc 725b eabe fce8 c8bd
000001a0: e03b 78bd ab11 293d 8caf 47be d903 093d
000001b0: ecce 90bd 2f56 fa3e d15c a53e bf5a ad3e
000001c0: c531 a8be 8e55 f93e be31 ac3b 4255 dfbe
000001d0: 9dd7 ecbe f53b e33d 8cb3 2a3d ca5e ecbd
000001e0: 5e70 983e bb81 aa3c c854 a33e 2896 bdbe
000001f0: 9709 b4bd 64ab 8abc c8b7 bfbe d1fc c7bd
00000200: e30d 79be e92b 783d cd06 ed3e 6732 d93e
00000210: abf9 213e 3a68 bf3d 4be2 b7be 5136 2c3e
00000220: 3892 d0be 4ecb 853e d345 d4bd 8830 253e
00000230: 0279 91be 7629 9ebe 4408 9fbd d943 e2be
00000240: c1cb da3e a31d d3be 3eb0 46be 4438 74bd
00000250: 7a6c fb3e 0a8c 8cbe 4f68 4abe 796c a33d
00000260: 8d02 303e aff2 c63e 8d1d fcbd c483 c63d
00000270: 3a79 d03d db42 e93e c37e cc3b 90fe 3ebc
00000280: e442 713e 851f 9ebd f2d1 383e 8048 c3be
00000290: 10cb 8f3d 547d 1abe f4bf da3d 5469 0cbe
000002a0: ecd2 a93e b6a9 88be b24d 9c3e 5590 803e
000002b0: 009d a53d b871 863a 1049 dabe bc91 e53d
000002c0: f2c7 8cbe 44f4 26be 447c 01bf f6c8 bb3e
000002d0: f05a 853d ccab 8d3e f495 ee3e 5431 0c3e
000002e0: 5712 71be 8057 fabd cd7e 47be c9ba 513e
000002f0: 9043 e9be 80af 6a3e 2e86 88bd 1b98 0fbe
00000300: 8a48 85bd 3474 923c edb4 923e 3df7 333d
00000310: 1340 d13d 8c2e 99be 8d64 a63e c225 dd3e
00000320: 157f fd3d 405b 32be f5e7 f23e 5ba0 8ebd
00000330: 8d27 563d 6bd7 d6be eb20 da3e 9685 d73e
00000340: 3e72 9ebd 347b ddbd 18e5 43bd 9874 97be
00000350: 1ed9 b0be 40f8 7fbe c829 063e 5842 55be
00000360: 2a2c 843e c044 f1bd 676b 8dbe 346b cabe
00000370: a469 8cbc 4060 cf3e 9fdf bf3e 168c 8e3e
00000380: c1e8 b43e 999c b3bc 5e4c ec3e 9ae3 80be
00000390: 00fe ec3e 3222 edbe 1cd8 65be ab3d eebd
000003a0: 1926 d6be b219 d1be 8f54 1c3e 80a2 3cbe
000003b0: 866e b13e a82f 87be 70e4 61be 2aeb 31bc
000003c0: 674c fe3e 2d5f 04be e1c9 223e 0559 b2be
000003d0: cb47 443e 2de6 b1be df4e b7bd 675a a5bd
000003e0: 8dad a53e 2682 953e ba4a acbd 70a2 80bd
000003f0: 22d7 ac3e cfc3 d03e 75c0 a7be 170e 0ebd
0.26590514 -0.21314037 0.024050876 -0.12956303 0.24686731 -0.48460063 0.16087164 0.46129552
0.19382325 0.1907081 0.088167846 0.015203388 -0.33635637 -0.2297149 0.28913343 0.036830485
0.25218096 -0.44165775 -0.1592265 -0.31822473 -0.5173197 0.003657133 0.15719688 -0.3826365
-0.1421015 -0.2695945 -0.1835792 -0.4963425 0.5977284 0.2820249 -0.33232725 -0.16494434
0.4643915 -0.034820396 -0.5094334 0.45109457 -0.4405529 -0.26796558 -0.3537487 0.06527148
0.095400035 0.07268476 0.30433467 -0.2944809 0.110244185 0.45513272 0.504257 0.16431412
-0.046353433 -0.45377302 -0.32081836 -0.47111976 -0.17110573 -0.038704235 -0.2972825 -0.15562919
-0.3749872 0.3293672 0.18754949 0.13608454 0.119250305 -0.3597476 0.41747293 0.3288523
0.38656515 -0.11601089 0.16063564 0.35230687 -0.07115418 -0.23460609 0.054994702 -0.1168147
0.2812708 0.15213388 0.23330915 0.09832552 -0.3022506 0.23285595 -0.27958423 -0.44473058
-0.1630359 -0.4272031 0.25794083 0.35836902 -0.33821237 0.3601871 0.34558845 -0.25783667
0.22211535 -0.4139573 0.23614904 0.25489527 0.2907139 -0.17291915 -0.34078002 -0.04577348
-0.4429009 0.29717427 -0.4453696 0.066589564 0.37818354 -0.010142267 -0.45772892 -0.09810063
-0.060603976 0.041276615 -0.1950056 0.033450935 -0.07070717 0.48893878 0.32297376 0.33858296
-0.3285047 0.48698086 0.005254953 -0.43619734 -0.4625825 0.1109542 0.041675135 -0.11541517
0.2977323 0.020813813 0.3190062 -0.37028623 -0.087908916 -0.016927429 -0.374449 -0.09765018
-0.24321704 0.06058875 0.4629425 0.42421266 0.15817897 0.093460515 -0.35914835 0.16817595
-0.40736556 0.26131672 -0.103648804 0.16131794 -0.28412634 -0.30891007 -0.077652484 -0.4419239
0.42733577 -0.4123355 -0.19403169 -0.05962397 0.491062 -0.2745059 -0.19766353 0.07979674
0.17188473 0.38857028 -0.12310324 0.09693101 0.10179372 0.4555882 0.006240697 -0.011657372
0.23560673 -0.077208556 0.18048838 -0.3814125 0.07021153 -0.15086871 0.106811434 -0.13712054
0.33168733 -0.2669198 0.30528027 0.25110117 0.08086586 0.001025728 -0.42633867 0.11209437
-0.27496296 -0.16304117 -0.5058024 0.3667676 0.065114856 0.27670133 0.4659878 0.13690692
-0.23542152 -0.122237206 -0.19481964 0.20481409 -0.4555936 0.2291851 -0.06666218 -0.14022867
-0.06507976 0.017877676 0.2865366 0.043936957 0.10217299 -0.29918325 0.3249859 0.4319287
0.123777546 -0.17417622 0.47442594 -0.06964179 0.052283812 -0.41961226 0.4260324 0.42094105
-0.07736634 -0.10814515 -0.047825903 -0.2958114 -0.34540647 -0.24997044 0.13101876 -0.2082609
0.25814945 -0.11780691 -0.27621004 -0.39534914 -0.017140217 0.4050312 0.37475297 0.27841252
0.35333827 -0.021925258 0.46152014 -0.25173646 0.46287537 -0.4631515 -0.2244572 -0.11632856
-0.4182594 -0.40839916 0.15266632 -0.18421364 0.34654635 -0.26403546 -0.22059798 -0.01085929
0.49667665 -0.12926932 0.15897323 -0.34833542 0.19168012 -0.34745923 -0.0895059 -0.080738835
0.3235897 0.29200858 -0.084126905 -0.062809825 0.33757883 0.4077439 -0.3276402 -0.034681406

layer1.bias f4 [128]
00000000: 7268 edbe 897e 11be 1a2b c33e 93e7 363e
00000010: a583 c23e 2fc1 ed3e 9526 95be 6a20 aebe
00000020: f3da 053e cd94 0d3f 8d0a 9abe 9b20 2b3e
00000030: 550e ebbd bffc 073f 7807 3a3e 71af 8cbe
00000040: e718 c13e aa0e d7be 84af bdbd 05e0 0f3e
00000050: fd6a 87be 00d9 4e3e ce75 ce3e a635 e93e
00000060: e6c6 c9be 3620 d3be eeb5 b93e 75d7 523e
00000070: dbd9 093f 8a7e a63e 279c b6be 2d5e cc3e
00000080: 77b2 bcbd 8a76 053f 04db 9dbe 4d20 d93e
00000090: d1fe 94be 0cd7 a33e 4d3f e93d 4430 323e
000000a0: 38fc dc3e fe2a 90be 82ff cb3d 4024 dbbe
000000b0: 4b8f f13d 3238 a7be 7cdf 563e 38fd 1b3e
000000c0: dcaf 193e fe4e ac3d 8d02 f23e e999 643e
000000d0: 3667 cc3e 96e5 8cbe 6784 85be 1c9b eabe
000000e0: f400 fe3e 125c b9be 0748 9b3e b8c2 51be
000000f0: b6a5 cdbd 4481 1d3d 2bbe f13e 6ada eb3c
00000100: e432 b73e c04e 8ebc 09fe 8f3e b6b7 8b3e
00000110: 8a53 a8be 0fac b13c caea 0abd 5f09 9d3e
00000120: b00e d53c a4ed 543e ca33 a0bd e66e 493e
00000130: 669b a7be 9c22 a0be 96b2 043f 9c6c c43e
00000140: 1d93 b43e 7013 90bd b001 d33e 3888 f83e
00000150: b61e 05be a9ca ed3e c93d c13d 5738 dd3d
00000160: 953d ea3e 56c7 adbc fcdb 053f 0a5b cf3e
00000170: bf6d acbd 209d 013f b637 adbe 11be 483d
00000180: 6f49 43be 1054 b0b8 4db1 253e 7847 f43e
00000190: 727c f53e 0b0d e13e 0bb0 15be a609 4cbe
000001a0: ab40 efbd 8c6f 93be d399 4ebe 5658 bd3d
000001b0: 20de 033e 3725 e23d 7c7e 1c3e 76fb bebe
000001c0: ab53 de3d f711 0d3e 07d0 f13e bd21 9dbd
000001d0: edb2 6dbe db59 1abd 137d d03e 90d3 76be
000001e0: fa49 aabe fec9 93be 83bf b8bd 2199 8e3e
000001f0: 5c12 7bbd e7a7 59be ebe5 c2be f17e 15be
-0.46368748 -0.14208426 0.3811882 0.17861776 0.37991062 0.4643645 -0.29130998 -0.34009105
0.13071804 0.55305177 -0.30086175 0.16711657 -0.11477343 0.53120035 0.18166912 -0.274776
0.3771431 -0.42003375 -0.092619926 0.140503 -0.26448813 0.20199966 0.40324253 0.45548743
-0.3940956 -0.41235512 0.36271614 0.20590003 0.53848046 0.32518417 -0.3566601 0.399156
-0.09213727 0.52134 -0.30831158 0.42407456 -0.2910066 0.32000005 0.11389027 0.17401224
0.43161178 -0.281578 0.099608436 -0.42801094 0.11794909 -0.3266006 0.2098369 0.15233314
0.15008491 0.08413504 0.4726757 0.22324337 0.39922494 -0.2751891 -0.26077577 -0.45821464
0.49610102 -0.36203057 0.3032839 -0.20484436 -0.100413725 0.038453355 0.472154 0.028790671
0.35781014 -0.017371535 0.281235 0.27288598 -0.32876235 0.02168849 -0.03391532 0.30671212
0.02600798 0.20793778 -0.07822378 0.1967121 -0.32735747 -0.31276405 0.51835 0.38364112
0.3526849 -0.070349574 0.41212225 0.48541427 -0.12999997 0.4644368 0.09435613 0.108017616
0.45750108 -0.021213215 0.52288795 0.40499145 -0.0841937 0.5063038 -0.33831567 0.049009386
-0.19070981 -8.407992e-05 0.16180916 0.47710776 0.47946507 0.43955263 -0.14617936 -0.19925556
-0.11682256 -0.2879604 -0.20175867 0.09245364 0.12877703 0.110422544 0.15282625 -0.37301224
0.10855802 0.13776384 0.47229025 -0.07672451 -0.23212786 -0.03768335 0.40720424 -0.24104142
-0.33259565 -0.28865045 -0.09020903 0.27851203 -0.061296806 -0.21255456 -0.38066038 -0.14599206

layer2.weight f4 [128, 128]
00000000: 9cf0 123a f3f0 8b3d 1a09 90bd 49ea ab3d
00000010: f75a 54bd 3838 90bd 88cb 96bd ff0a 8fbd
00000020: 6df2 4cbd ee9f 02bd 8fb3 903d 747f ac3c
00000030: 3d73 903d 2ba8 96bd 785c db3c f7fa 9f3d
00000040: 5c36 d6bc 8343 5bbd 08e8 a4bd acc2 0dbd
00000050: 1dc5 0cbd 1c38 01bc cf04 94bd 75a1 8a3d
00000060: 400b 07bc 5de7 a63d 78ef c7bc 6df8 b33d
00000070: 538e a63d 48b0 98bd f410 59bd 6af2 84bd
00000080: 0cde 903c a647 4d3d cbb7 debc eae2 7c3d
00000090: 0417 b33b 2593 983d c366 60bd ca09 4ebd
000000a0: 2cfe c1bc d0a6 243c 8f73 a0bd 644b a6ba
000000b0: f48d 26bd 8fb1 803d accc e03c 5c9b 96ba
000000c0: 440a b3bb acfe 81bd 0d3c 9abd d2c4 e9bc
000000d0: 64c1 8b3b 62d1 4ebd d880 2dbc d8b2 223c
000000e0: 6828 56bc b3df 64bd 27a6 9f3d 345a 9ebc
000000f0: e82a 4e3c 5292 5b3d ca6f 4e3d 47e1 92bd
00000100: ca89 3d3d 965e 4b3d 10ce e0bc d9a0 8c3d
00000110: 41e3 adbd 9f74 a1bd f86c 80bd e4df d13c
00000120: ea03 253d 8423 083d 1cf7 8abd 0808 43bb
00000130: 0e14 1ebd ab48 8d3d 9018 1abd 2cf9 ea3c
00000140: 4599 5bbd 1437 d8bc 7509 95bd a87c 49bd
00000150: 4ce4 843c 005e 733c 7bab 933d d24e e6bc
00000160: fe18 01bd 0277 723d 346f c1bc 3aac 8fbd
00000170: 82d3 783d 13e4 60bd 7c5b cebc 19e2 aa3d
00000180: ca39 a13c 7c87 70bd da3b 353d 373c 933d
00000190: d4a0 aebc 1ca3 85bd ead7 18bd 1399 a2bd
000001a0: 00c9 5fbd f4f2 97bd 6c4a 19bd 8aad 0cbd
000001b0: 8a0b 1ebd d1cb a83d eb06 863d f861 ecbc
000001c0: dec8 613d f46c 6f3b 73ab 70bd b062 e0bb
000001d0: 2bd9 833d 3af6 13bd feb9 38bd 1223 203d
000001e0: 04a1 883a 8ede 7bbd bc2a abbd 909b aabc
000001f0: 8c9f 34bc d6ea 7f3d 208b 58bd 2ebf 333d
00000200: a0e3 8abc c321 8abc dbba f3bb 673d 6cbd
00000210: 594f fdbc 9458 dd3c 8c5b 1dbe 00d0 d53c
00000220: d9b2 5bbd d48e d43d 8809 a23c 86cb b3bc
00000230: 5aff 02be a682 33bd 2231 f33d 6cd8 febc
00000240: 4bbb cb3d e419 c73b 1287 7dbd d453 283b
00000250: 9129 9f3d c8e9 6c3d f669 983b 79e7 173d
00000260: 0af2 1e3d 9bae 16bd 3c49 a63d 2c2e 4f3d
00000270: b242 1e3d cdfd 36bd 4c2b 71bc 7a88 323c
00000280: 8105 643d 2d1e ba3d 7cd2 5abd f6b1 9a3d
00000290: 6b00 9a3c bdd2 dd3d b215 9cbc ccf7 773d
000002a0: c5c0 1e3d 7094 373b 266f c83d 0554 b2bd
000002b0: a1bc 953d 6513 71bd fa36 d83d 9b4f 4fbd
000002c0: 9577 bc3d a4dd c1bc cd59 c5bc ac47 773d
000002d0: f7fc 8c3c 61b0 863d 1cd1 92bd a668 7e3d
000002e0: bfb7 6b3c 8aba e53c 4a87 2dbd 4e98 313d
000002f0: 7db4 8bbd 06d9 5dbd ff54 953d 1efa 87bd
00000300: a982 d0bc e78a 873c 6735 bd3d c8f5 2a3d
00000310: 0c47 04be 5181 31bd 19ff 2dbd 412b 803c
00000320: 3209 b03d 1e41 e53c 7f48 72ba 4033 9b3c
00000330: 6f0f 85bd 7846 843a adcb 973d ce47 8c3c
00000340: 87a1 5cbd 24d4 803c 26be b73d f49d 54bd
00000350: c8e3 b13d 419d b33d c11b 8c3d b364 e03d
00000360: b13d 903d 4cea c0bc 1417 4bbd ef60 9d3c
00000370: bebf 003d 856e 823d 1c03 92bb d86c 94bd
00000380: 9b29 73bd 6d56 8f3d 9716 4ebd e826 9d3d
00000390: 953f f2bb 6c84 20bd 474e f83c 356a 20bd
000003a0: 98b4 5d3a d105 ae3d 665b 053d 501c 9ebc
000003b0: b7cd 163c eedd 423d 3f10 c03d b8c7 6fbd
000003c0: f0e9 de3d b51a 413d f384 b0ba ac59 f23c
000003d0: c341 c6bd 6229 653b f61c 0a3d ab04 ba3d
000003e0: 84a6 873a efbe fcbc 254c 83bd d55c 71bc
000003f0: aba8 653b 919e e1bd 1052 4fbd ca62 b4bd
0.00056053116 0.06833067 -0.07032986 0.08394296 -0.051844563 -0.07041973 -0.07363039 -0.06984519
-0.050035883 -0.031890802 0.07065498 0.021056868 0.0705323 -0.07356294 0.026777491 0.078115396
-0.026148967 -0.05353118 -0.08052069 -0.03460948 -0.03436767 -0.007886913 -0.0722748 0.06769077
-0.008242428 0.08149598 -0.02440618 0.08787618 0.08132615 -0.07455498 -0.052994683 -0.06491549
0.017684005 0.050117157 -0.027187249 0.06173984 0.00546539 0.074499406 -0.0547855 -0.050302304
-0.023680769 0.010049537 -0.07834541 -0.0012687263 -0.04066272 0.062838666 0.027441345 -0.0011490392
-0.0054638702 -0.06347403 -0.07530985 -0.028536234 0.0042649973 -0.05049265 -0.010589801 0.009930335
-0.013071157 -0.0558774 0.07795363 -0.019330122 0.012583472 0.05360634 0.05039958 -0.071718745
0.046273984 0.04965075 -0.027442008 0.06866617 -0.08490611 -0.07883572 -0.06270784 0.025619455
0.040286936 0.033236995 -0.067854136 -0.0029759426 -0.038593344 0.06898626 -0.03762108 0.028683268
-0.053612966 -0.02639345 -0.072771944 -0.049191147 0.016222142 0.014853954 0.07210442 -0.028113756
-0.031517975 0.059195526 -0.023612596 -0.070152715 0.060748585 -0.05490501 -0.025190108 0.08343906
0.019680876 -0.058722958 0.044246532 0.071892194 -0.021316923 -0.06525251 -0.037315287 -0.07939353
-0.054635048 -0.074193865 -0.03742449 -0.034345187 -0.038585223 0.08242 0.06544288 -0.028855309
0.055123203 0.0036533447 -0.058757257 -0.006847702 0.06437906 -0.03612349 -0.04509925 0.039095946
0.0010423963 -0.06149154 -0.0835776 -0.020826131 -0.011024367 0.062479816 -0.052867055 0.043883495
-0.016954243 -0.016861802 -0.0074380464 -0.057675745 -0.030921625 0.027019776 -0.15366954 0.026100159
-0.05363736 0.10378805 0.019779935 -0.021947633 -0.12792721 -0.043825768 0.11874606 -0.031109057
0.09947833 0.0060760844 -0.06189639 0.002568473 0.077716 0.05784014 0.0046513034 0.037085984
0.038805045 -0.03678761 0.08119437 0.050581142 0.038637824 -0.044675637 -0.014719795 0.010896796
0.05566931 0.09087787 -0.05342339 0.075534746 0.018799027 0.10831211 -0.019053314 0.060539052
0.038758058 0.002801206 0.09786825 -0.08707432 0.07311369 -0.058856387 0.10557361 -0.050613027
0.09202496 -0.023665257 -0.024090672 0.060371086 0.017210467 0.0657661 -0.07168791 0.06211152
0.01438707 0.02804305 -0.04236535 0.04335814 -0.06821535 -0.054162048 0.07291602 -0.06639503
-0.025452929 0.016545726 0.09238701 0.0417383 -0.12917727 -0.043336216 -0.04247961 0.015645625
0.08595504 0.027985152 -0.000924237 0.018945336 -0.06497084 0.0010091802 0.07411895 0.017124083
-0.053864982 0.015726157 0.08971815 -0.05190845 0.08686024 0.08770228 0.06841231 0.10956707
0.07043017 -0.023549221 -0.049582556 0.01921126 0.03143286 0.06368736 -0.004455937 -0.07247323
-0.05936585 0.06998906 -0.050314512 0.076734364 -0.0073928335 -0.039188787 0.030310763 -0.039163787
0.00084573915 0.08497203 0.032557867 -0.01930061 0.00920432 0.04757493 0.09378099 -0.058540076
0.10884464 0.04714461 -0.0013467356 0.029583775 -0.09680512 0.0034967293 0.033719026 0.090829216
0.0010349308 -0.030852763 -0.06411008 -0.014731606 0.003504316 -0.11016572 -0.05061537 -0.08807905

layer2.bias f4 [128]
00000000: b2e0 3d3d 334d 283d 1032 8a3d 0f2c 0f3d
00000010: 1702 d13d 8291 80bd a0cc 7f3c d7f3 7c3d
00000020: 3f05 3fbd 31bc 793d 3b15 003b df30 f63c
00000030: 2895 103c 9b64 953d 0a34 70bd 1cf5 8f3c
00000040: 04de ec3d 593b 833d c87a d43c c2da a93d
00000050: 0f70 8abd 7eb0 043d d7bd 92bd 3972 a73c
00000060: 5f00 ffbc 6cda 99bd 869e 3abd e785 d93d
00000070: c66b 613d 5ed8 bebd d42e 9c3c f275 4e3d
00000080: 3fc9 413d fb37 9cbc 2a78 8abd a688 4d3d
00000090: a942 95bc d7c3 43bd a329 abbd 709f 92bd
000000a0: 5174 7dbd a990 fc3c e4b9 ce3c 2460 d3bc
000000b0: fd14 1fbd 7123 e7bc 0caa 0bbd 0fdb cebb
000000c0: e989 af3d 4ed9 a2bd d790 6bbd 4488 dd3d
000000d0: 6395 a7bb bcbd 08bd e43e 973d a232 bfbb
000000e0: d8ae a2bd d114 a33d 4582 313d 159f fbbc
000000f0: 88fc 9b3c 93b9 61bd 86d6 8d3d b8cb 71bd
00000100: 780d d73d df75 bb3c 9c63 5c3c 8dab 62bb
00000110: 97f7 6c3d b22d 2abd 4692 9dbd 6e35 c83d
00000120: e765 b23d c2fb a43d 5c3c 14bd 4e5f 0ebd
00000130: 61e5 aebc 7b36 903d bf33 363d 05d0 4a3d
00000140: bb21 57bb 3e08 86bd 9eb7 93bd bdf4 5d3d
00000150: 24de 873c 789c 903d 8972 543d 44ee 433d
00000160: bad5 c2bd 1717 053e 758d 27bd 9de9 a83d
00000170: e6c1 0c3c 1322 963d 328e c7bb 8725 633d
00000180: 5684 353d 5b80 0c3d d829 60bb f4d6 8cbd
00000190: 6d28 d53d 5b8c 10bd 5548 933c d9cd 7d3c
000001a0: 7034 9bbc d216 05bd 3266 63bd 5a2a 74bd
000001b0: 03f6 42bd 969d ba3d 401a 733d 7816 58bd
000001c0: 7f2d 9e3d e7c5 7dbd cda5 5fbc 094d 88bd
000001d0: 4692 1a3d 3a7e a9bc 1ff7 8ebd e98f dabc
000001e0: ce07 4f3d a96e 7cbd 16b0 7dba 94f8 82bc
000001f0: 5dc3 99bb 00ff 583c be75 11bd 0b4e d93d
0.046356864 0.041089248 0.0674783 0.034954127 0.10205477 -0.062777534 0.015612751 0.06175598
-0.046635862 0.06097049 0.0019543904 0.0300526 0.008824624 0.072945796 -0.05864338 0.017572932
0.115657836 0.06407804 0.025937453 0.08293678 -0.06759655 0.03239488 -0.07165115 0.020440208
-0.031128107 -0.07512364 -0.045561336 0.10621243 0.05503442 -0.093186125 0.019065298 0.05040545
0.047311064 -0.019069662 -0.06761201 0.050179146 -0.018220263 -0.04779419 -0.08357551 -0.071593165
-0.061878506 0.030830698 0.025235124 -0.02580268 -0.038838375 -0.028215142 -0.034097716 -0.006312735
0.08571226 -0.07951604 -0.057511177 0.10817006 -0.005114244 -0.03338407 0.07385042 -0.0058348933
-0.07943505 0.07962955 0.043337125 -0.030715505 0.019041315 -0.055108618 0.06925683 -0.059032172
0.10500616 0.022883354 0.013451483 -0.0034587116 0.057853308 -0.041547485 -0.07693915 0.09775816
0.087108426 0.080558315 -0.036190376 -0.03475886 -0.02134961 0.07041641 0.044482943 0.04951479
-0.0032826501 -0.06544541 -0.072127566 0.05418848 0.016585417 0.07061094 0.05186704 0.04783465
-0.09513421 0.1299709 -0.04090639 0.08247683 0.008591151 0.07330718 -0.006089949 0.05545571
0.04431566 0.034302097 -0.0034204628 -0.068769366 0.10408101 -0.035290103 0.017978827 0.015490972
-0.018945903 -0.032492466 -0.055517383 -0.059610702 -0.047597896 0.091120884 0.059351206 -0.052755803
0.077235214 -0.061956313 -0.01365037 -0.06655318 0.037737153 -0.020690072 -0.06980728 -0.02667995
0.050544553 -0.06162897 -0.0009677423 -0.015987672 -0.0046924786 0.0132443905 -0.03551268 0.10610589

layer3.weight f4 [2, 128]
00000000: 7d68 853d 2694 a13d 0727 073d 56f2 8a3d
00000010: 3f0f e13d 648c 843d 20e0 d6bb 2d6d c93d
00000020: d615 023d f61b ec3d 576f b2bd 0817 d03d
00000030: 109e df39 cc97 923d e478 5abb 7401 cfbc
00000040: 7e77 cf3d b6ac c53c 164a 673d dc2b 2b3d
00000050: 5740 64bd d0f3 123c cb72 cdbc 69ef 4dbc
00000060: a1a5 68bd f150 0fbd f194 98bc 2b81 073d
00000070: 2479 d5bb ab54 aebb 849c 6fbd bc31 12bd
00000080: fdf1 87bc 5c8e 953d 5c52 38bd 455f 943d
00000090: fffb 1f3e 6a92 7bbd 48f1 95bd 4a40 64bd
000000a0: 0c10 39bd 4e90 333d 1242 863c a5ef b13d
000000b0: 8cc4 73bd 98bf 6bbd c3d0 1dbd 4798 24bb
000000c0: d9a2 813d 0855 8f3c 70d3 c8bd 64e6 e03d
000000d0: b14d c43d 2acb 97bb dfcd c73d 764b e636
000000e0: 4831 d13c 147b 82ba 209d d33d ebc2 863d
000000f0: 5ef4 ebbc 448f 22bc a2ee 4f3d 347f 92bd
00000100: 0c63 96bb 4de2 393d ccdf 2d3d cf54 66bc
00000110: 05c3 40bd 9f6e 8c3a fc71 1fbd 4eb1 043d
00000120: e8b6 053e bfe4 bfbc a305 663d b270 a1bc
00000130: 5e93 07bd 8f12 de3d 0a0c 9dbd de62 233d
00000140: bf3a a63d 13c0 adbc 63cf 0abd 8e2a 4fbd
00000150: 427d 97bc b617 1dbd 4605 19bc 30b3 82bd
00000160: 33d4 7cbd edc2 893b 5b13 23bd 7f25 bd3d
00000170: 8680 f83c 5f70 ee3c 361a 873d 892b 2c3c
00000180: b2ab 66bd 2a98 85bd f151 f33d 2c39 933b
00000190: e198 dc3d 0824 5ebd 9c6f e03d cce9 a63d
000001a0: dd8b 9b3d c006 083e 716e 5cbd 34a8 80bd
000001b0: ff48 c73d c7b5 a83d 9bc1 42bd 1d3b 6dbd
000001c0: 6a7a f93d 06cd 8b3b ca51 8fbd 899f 92bc
000001d0: d8e8 7dbc 081d d6bc 749d 7a3c cb6a a03d
000001e0: 98b5 843b 4cbc fa3a d8a6 463d 94da 883b
000001f0: 5fa6 b2bc e45d 52bd b3b9 bdbc 7321 843d
00000200: 0440 0c3b 4f2a ac3c b5fd 17bd 1ef2 503d
00000210: 329a 833d 251a e73d c9ff b53b 5292 863d
00000220: 5c66 70bc b44b afbb 3e6f a1bd f113 6e3d
00000230: 1a14 593d 3727 c43d 1587 a9bd 3844 e23b
00000240: 365f 36bd 4944 9ebd aa01 4fbd da2d af3d
00000250: 573e 093d d9b9 adbc c52e 87bd 6ed6 a7bc
00000260: fc74 b9bc 2627 0ebd 6243 73bd 1762 f83d
00000270: 5ce7 df3c 1eb2 40bd e9a3 023c 7913 a7bd
00000280: 64f3 f33d 9ce1 d63d 5cfc d13c 8298 bb3d
00000290: 45b9 0e3e efda 18bd 2697 4cbd cc81 05bd
000002a0: df74 72bd 9d80 ea3d 73a3 e63d 33d6 9a3d
000002b0: a6d6 2f3d d863 98bd 26a0 8e3c f809 9cbd
000002c0: 685c 223c 4c97 a3bc 4905 8b3d 2e86 e53d
000002d0: f2cb 893d 2c28 96bd 777b 6fbd c85c a8bc
000002e0: d0b0 a23b 5a23 cf3d ed64 e33d 32b7 76bd
000002f0: 3440 8dbb 6c57 58bd 2146 8b3d 315b aebc
00000300: ae95 bc3d 9009 ebbc 16ec 463d a2f5 a23c
00000310: 6a28 473d dbbe e23d 9fd3 703c 611b ee3d
00000320: 9e8c f43d 1609 a8bb 8bec c13d c744 53bd
00000330: d8f2 2fbd cb43 d13d 68fe 7abd 540d 95bd
00000340: ceeb 043d 37a4 a13c b436 dcbc 518f 413d
00000350: 4f61 39bc 7445 e23a e993 3ebc 00c0 38bd
00000360: bb28 083c 08e7 e43d 5fc7 42bd 03e6 2ebc
00000370: 96da c43d 7bcb 023e 1bc9 323d 7b80 163e
00000380: 9cf8 93bc c820 d4bb 573f 393d 02d1 69bd
00000390: 3987 fc3d 1d6b 9bbd 460f b5bc 0d15 99bd
000003a0: 6d90 a93d a4fa 0ebc 90b0 43bd 88aa 513d
000003b0: 8e07 d63c 2e12 923d 2617 ca3b fcd3 6ebd
000003c0: 4d8c 503d 989e 8cbd d9bf 15bd 1f9f f53c
000003d0: 7276 643d c948 62bd 2e27 223d 15c2 193d
000003e0: 3887 fc3c 8ee6 7fbd 7a95 9a3d 3e29 b0bd
000003f0: 84f4 8bbd d73d 22bd c72d 90bd 3a3b 5c3d
0.0651407 0.07889585 0.032996204 0.06784503 0.10989236 0.0647209 -0.0065574795 0.09835277
0.031759106 0.115287706 -0.08712643 0.10160643 0.0004265164 0.07157859 -0.0033336217 -0.025269248
0.10130213 0.024130207 0.05646714 0.041789874 -0.05572542 0.008969262 -0.025079152 -0.012569287
-0.05679858 -0.0349893 -0.018625708 0.03308217 -0.006514685 -0.005320152 -0.058498874 -0.03569196
-0.016594881 0.073025435 -0.04500042 0.07244734 0.15623473 -0.06141893 -0.07321411 -0.055725373
-0.04518132 0.04383879 0.016388927 0.08688287 -0.059513614 -0.057555765 -0.03852917 -0.0025115178
0.06329889 0.0174966 -0.098059535 0.109814435 0.09585131 -0.0046323733 0.09756064 6.863319e-06
0.025536194 -0.0009954893 0.103327036 0.065801464 -0.028803047 -0.0099218525 0.050764687 -0.07153168
-0.004589444 0.045381833 0.042449757 -0.014058306 -0.047060985 0.001071412 -0.038927063 0.032395653
0.13058054 -0.023424504 0.05615772 -0.019707058 -0.033099525 0.108433835 -0.07668312 0.03988921
0.08116674 -0.021209752 -0.033889186 -0.050577693 -0.018492345 -0.03835269 -0.009339636 -0.063818336
-0.061725806 0.004204145 -0.03981338 0.092356674 0.030334722 0.029106317 0.06596796 0.010508426
-0.056316085 -0.065231636 0.118808635 0.0044928994 0.10771347 -0.05423358 0.10958788 0.08150062
0.07595036 0.13283825 -0.053816263 -0.06282082 0.0973072 0.08237796 -0.047547918 -0.057917703
0.12181552 0.004266384 -0.06998022 -0.017898338 -0.015497409 -0.02613689 0.015296329 0.07832869
0.004049968 0.0019129603 0.04849896 0.004176447 -0.021807848 -0.051359072 -0.023159837 0.064516924
0.002140046 0.021016268 -0.03710719 0.05101215 0.06425895 0.112842835 0.0055541736 0.06570877
-0.014672842 -0.0053496007 -0.07882546 0.058124486 0.052997686 0.09577792 -0.08277718 0.006905105
-0.044524394 -0.07727868 -0.050538696 0.08553667 0.033506718 -0.021206783 -0.066007175 -0.02048799
-0.02263879 -0.034705304 -0.059390433 0.12128084 0.027332 -0.047044866 0.00797365 -0.08158011
0.119116575 0.1049225 0.02563303 0.09159948 0.13937862 -0.037318166 -0.049948834 -0.032594487
-0.05919349 0.11450312 0.11261644 0.075603865 0.042929314 -0.07440919 0.01741035 -0.07619089
0.009909727 -0.019969605 0.067881174 0.11207233 0.067283526 -0.07331881 -0.058467355 -0.020552054
0.0049649253 0.10114165 0.111032344 -0.060233302 -0.004310632 -0.052817747 0.068004854 -0.021283718
0.09208237 -0.028691083 0.048564993 0.019892517 0.048622526 0.11071559 0.014698892 0.11626316
0.11940883 -0.0051280363 0.09468945 -0.051579263 -0.042956203 0.102180086 -0.061277777 -0.07277933
0.032451443 0.019731624 -0.026881553 0.047255818 -0.011314704 0.001726313 -0.011631944 -0.04510498
0.008310492 0.11176878 -0.047553416 -0.010674956 0.096120045 0.12772934 0.04364882 0.14697449
-0.018062882 -0.0064736344 0.04522642 -0.05708409 0.12330479 -0.075887896 -0.02210201 -0.07474718
0.082795 -0.00872675 -0.047775805 0.051188022 0.02612665 0.07132374 0.0061673103 -0.058307633
0.05091505 -0.06866187 -0.036559913 0.029983101 0.05577702 -0.055245195 0.039588146 0.037538607
0.030826196 -0.062475733 0.07548042 -0.08601616 -0.06833747 -0.039609756 -0.07039981 0.05376742

layer3.bias f4 [2]
00000000: 5ef1 053d d45a c73d
0.03270089 0.09734121
