CartPoleDQN/dqn_cartpole70.pth (torch, 72745 bytes, 6 tensors)

layer1.weight f4 [128, 4]
00000000: dba6 873e 5879 59be d054 c43c b432 04be
00000010: 91f8 2b3e a827 f2be f38e a73e d4d1 f43e
00000020: ccf2 383e 9784 4a3e 9221 093e 55ea ae3c
00000030: 6b9d 5bbe 6e2c 85be 65e1 fc3d 983c a23b
00000040: a495 8f3e 1100 dcbe 04e0 13be 1a23 a3be
00000050: b6ff 16bf ccad 2bbd b966 893e 6f74 a3be
00000060: a3cb a63d 6580 adbe 8bd0 f9be 8014 09bf
00000070: 9e8a 4a3f 6963 6b3e c350 21bf 82f7 5abe
00000080: 7a54 203f f9b1 6bbd e5cf 35bf 4df6 d83e
00000090: e2d7 04bf f7ab 8cbe 6b23 83be 95cc bb3d
000000a0: b226 833e ed00 8a3c a9c9 a43c 6b44 aebe
000000b0: b369 af3c 4782 053f e915 253f 6af8 113e
000000c0: 0d50 3a3e 1506 05bf a396 1cbf 314e 01bf
000000d0: 502a 25be 16f7 afbc c096 85be 2454 20be
000000e0: bf15 dbbe e048 b73e 9ed5 9b3e 60ce 143e
000000f0: 32b0 2e3d cc83 9fbe 5fc4 293f 7b07 ad3e
00000100: 2f52 0b3f 6951 f2bd be68 19bd aaa9 973e
00000110: 7836 91bd 0061 6fbe 9074 603d f860 eebd
00000120: 69bf e03d c51c 283e 6bba 063f 0419 253e
00000130: cee9 8abe ff78 5a3e 1725 abbe b7c5 e6be
00000140: 1665 98be 3604 c5be 2a8a f53e 88ae b73e
00000150: 19ee cabe 7d98 d53e 8e06 fb3e aed3 84be
00000160: 2abe a93e cd00 e1be 240c 9b3c 53eb 5b3e
00000170: b9de 993e b3e6 23be 4524 9dbe 3173 39bd
00000180: 58f6 e1be 129b 973e d838 e3be f8e1 873d
00000190: 0a45 d83e 2f27 6c3b 4744 f9be e3c4 d9bd
000001a0: ee56 6cbd 2e5b 683d 2558 25be 7723 053d
000001b0: af67 12be e76c 0a3f 7536 db3e 3323 a33e
000001c0: 1a48 d0be 97c5 043f eb79 1b3e 8944 dbbe
000001d0: cc21 f8be 954e fe3d 326d dc3d 09f0 dfbd
000001e0: 9253 ea3e 21ad 2fbd e6f0 2c3d 04dc d0be
000001f0: af55 babd 46cd 57ba 21b6 a6be 5f27 c2bd
00000200: e140 dcbe b2e1 c03d a51d 433f 99a4 ea3e
00000210: a4d5 e43d 4eb4 e53d ae4d 85be 4036 383e
00000220: acd2 cfbe d651 853e 4786 d3bd 089b 243e
00000230: 3520 88be 4a0c a6be fd51 423a 8ed9 ccbe
00000240: 72a0 143f fc91 d7be 7bbd c4be 9c41 87bd
00000250: c609 1a3f a270 a2be a67e a1be bdde b93d
00000260: 48fd bb3d e700 dc3e c71f 853c 6d99 c33d
00000270: 279e ce3c 18b4 003f 3c59 213e 2f69 10bc
00000280: 4d06 403e f278 15be bfaa 813e c1ed 9cbe
00000290: 4048 8f3d 2cf1 19be 10f7 d93d 30eb 0bbe
000002a0: 50e8 073f 4a87 83be 0efa e23d da39 4a3e
000002b0: 8007 a53d 40f8 853a c380 d9be 80bf e43d
000002c0: a442 f5bd 5311 3bbe a612 33bf bc4c af3e
000002d0: 78e1 843d fc28 8d3e 4abc ed3e 30b3 0b3e
000002e0: a7e4 9ebd 489a 21be 05cd dbbe 1732 233e
000002f0: 3af5 fcbe 28a3 8b3e dfe1 9a3d ac61 13be
00000300: 5d76 0bbe 1bb0 493d 7e5a d63e 071c 713d
00000310: e041 1d3e 2497 9dbe 777a 5d3e 9d39 d63e
00000320: 267c d63d 53fe 1ebe db6f 093f 206a 84bd
00000330: eed9 483e 35c3 c5be aa37 b03e 3bb3 c63e
00000340: 72e8 b9bd 6117 05be 7947 e83b cf46 85be
00000350: c038 b0be a80e 7fbe 50b0 053e 207e 54be
00000360: c66f e13e 91ff 3dbe a5c3 12bf ea49 e0be
00000370: 80eb 8bbc 46a5 ce3e c332 bf3e 4609 8e3e
00000380: 308b af3e 4c09 0ebd 046b fb3e d30c 6fbe
00000390: f4ef 023f 2d2a f8be 94e0 a5be d350 d4bd
000003a0: 9199 e8be f526 d6be ecf8 643e def8 20be
000003b0: 68a0 033f 0b0e 8dbe 5c8e e8be 38e0 e4bc
000003c0: 514d 2a3f 6d11 4fbe 0a6f 0bbe f73f c2be
000003d0: 2c87 823e e808 cdbe bfa2 67be 2a20 82bd
000003e0: fd64 733e ea63 883e 7fab 243d 5b59 55bc
000003f0: 1226 fb3e 6ef4 bb3e 0386 13bf c42f 8bbd
0.26494488 -0.21237695 0.023966223 -0.12909967 0.1679404 -0.4729588 0.3272625 0.47816336
0.1806137 0.19777142 0.13391712 0.021351973 -0.21446769 -0.2601046 0.12347678 0.004951071
0.28043854 -0.429688 -0.14440924 -0.31862718 -0.58983934 -0.041913792 0.26836184 -0.3192477
0.08144309 -0.3388702 -0.48791918 -0.53546906 0.79117763 0.2298714 -0.6301386 -0.21383479
0.626289 -0.057542775 -0.71020347 0.42375413 -0.5189191 -0.2747495 -0.2561296 0.0916988
0.2561546 0.016846145 0.02011569 -0.34036574 0.021412706 0.5215191 0.6448656 0.14254919
0.181946 -0.51962405 -0.61167353 -0.50509936 -0.16129422 -0.021480124 -0.26091576 -0.15657097
-0.42790028 0.35797787 0.30436414 0.14531851 0.0426485 -0.3115524 0.66315264 0.3379477
0.5442228 -0.11831934 -0.037453406 0.2962163 -0.07090467 -0.23376846 0.054798663 -0.11639589
0.109740086 0.16417225 0.526282 0.16122824 -0.27131504 0.21335219 -0.33426735 -0.4507272
-0.29764622 -0.38479775 0.47956973 0.35875344 -0.3963478 0.41717902 0.49028438 -0.2594275
0.33152896 -0.43945923 0.018926688 0.21476488 0.30052736 -0.16005974 -0.30691734 -0.04527587
-0.44133258 0.29610497 -0.44379306 0.06634897 0.42240173 0.0036034097 -0.48684904 -0.10633256
-0.05770009 0.05672758 -0.16146906 0.032504525 -0.14297365 0.5407242 0.42814985 0.31862792
-0.4068001 0.51864 0.15183227 -0.42825726 -0.48463285 0.12417332 0.10763015 -0.10934455
0.45766884 -0.042889718 0.042221926 -0.4079286 -0.09098374 -0.0008232187 -0.32560828 -0.09480166
-0.4301825 0.09418048 0.7621711 0.45828703 0.11173561 0.11216031 -0.26035827 0.17989445
-0.40590417 0.26038998 -0.10328346 0.16074765 -0.26587072 -0.3243125 0.000741273 -0.4000973
0.5805732 -0.42103565 -0.38425812 -0.06604311 0.60171163 -0.31726557 -0.31541938 0.09075687
0.09179169 0.42969438 0.016250504 0.09550748 0.025221897 0.502748 0.15756696 -0.00881414
0.18752404 -0.14596918 0.2532558 -0.30650142 0.069962025 -0.15033406 0.106428266 -0.13663936
0.53088856 -0.25689155 0.110828504 0.19748631 0.08058071 0.0010221079 -0.4248105 0.11169338
-0.11975601 -0.18268327 -0.6995033 0.3423823 0.06488317 0.2757033 0.46432716 0.13642573
-0.07758456 -0.1578151 -0.42929855 0.15937077 -0.49405843 0.27272916 0.07562613 -0.14392728
-0.13619371 0.049240213 0.41865915 0.05886462 0.1535716 -0.30779374 0.21628748 0.4184083
0.10472898 -0.15526704 0.536863 -0.06465554 0.19614384 -0.38625494 0.34417468 0.38808617
-0.090775385 -0.129972 0.0070885983 -0.26030585 -0.34418297 -0.24907935 0.13055539 -0.20751238
0.4403059 -0.18554522 -0.5732978 -0.43806392 -0.017080069 0.4036047 0.37343416 0.2774145
0.3428588 -0.034676835 0.49105084 -0.23344736 0.5114739 -0.48469678 -0.32397902 -0.103669785
-0.45429662 -0.41826597 0.22360581 -0.15719935 0.51416636 -0.27549776 -0.45421112 -0.027938947
0.66524225 -0.20221491 -0.13616577 -0.37939426 0.25493753 -0.40045857 -0.22620676 -0.06353791
0.23768993 0.26638728 0.040202614 -0.013021792 0.49052483 0.36709923 -0.5762636 -0.0679622

layer1.bias f4 [128]
00000000: 8a91 ecbe 7713 20be d809 de3e cad0 493e
00000010: d21c d93e 14ad 063f 8f90 a5be 7fc1 b8be
00000020: fc2b 063e 06d8 123f e3ab abbe 680f 363e
00000030: f260 48be 0bde 103f 5b9c 6c3e eff8 bfbe
00000040: e929 d83e 724a d6be 7b87 c83b d522 243e
00000050: fbb1 d1be 5908 5f3e 0ecc d83e c0c5 fd3e
00000060: b210 c9be 073a d0be a2df cc3e 2fca 8e3e
00000070: 789e 0a3f b6cf bb3e 4323 cebe d355 db3e
00000080: 7c14 05be ff69 113f 304a 9dbe 123c f43e
00000090: 82b0 69be 4154 a83e 023e 0a3e 3e0f 403e
000000a0: 8c6a 033f 2ea8 8fbe a6f5 133e 5c5b dabe
000000b0: a942 fe3d 069e a6be b715 6f3e 5f87 123e
000000c0: 4bb5 4d3e f181 a53d ae2e 033f 596c 723e
000000d0: 04b7 e93e 8f66 8cbe fcb3 90be 34c4 e9be
000000e0: fe50 0b3f 12c0 a2be cb00 ab3e 61a1 f4bd
000000f0: 65e3 28be 27f0 cc3d 4bf5 063f 4d0f f93c
00000100: 62fe cb3e 044d ce3c 054b a73e 4a3e 9e3e
00000110: 17af bdbe 26a5 2e3d 0c7c 1fbd 7057 b63e
00000120: 63d1 1f3d 7018 5d3e be54 15be 5444 7a3e
00000130: 3a01 a7be c891 9fbe f770 0e3f 1910 d63e
00000140: b444 c93e f199 2fbe 368c dc3e f785 013f
00000150: f0d3 9cbd d313 003f 2b08 c53d 0a27 203e
00000160: bc1e 013f 3c9f d3bd d9ec 0d3f d1f6 e43e
00000170: 8e91 b0bd 25f9 093f de98 acbe 01ce 673d
00000180: d71c 3fbe 2ae1 54bb bd4d 5c3e 2104 053f
00000190: f2c1 033f c4e2 f83e c262 3cbe 6921 9abe
000001a0: 7442 09be 10e8 92be 296c 94be 38ff a83d
000001b0: 4e96 383e e47c 083e 9314 3b3e 9a4e bebe
000001c0: c22a 193e 2f95 523e 1d6a fd3e 8c0a 2bbe
000001d0: ad67 acbe dcae af3b 7f6e e03e def5 70be
000001e0: fb4e b4be 9aa7 d2be c734 54be bbf0 a23e
000001f0: 49e8 f1bd 5f19 55be 6d34 e3be 59e0 6cbe
-0.46204787 -0.15632425 0.43366885 0.19708553 0.424048 0.52607846 -0.32336852 -0.36085126
0.13102716 0.57360876 -0.33529577 0.17779315 -0.19568232 0.5658881 0.2310652 -0.3749461
0.42219475 -0.41853672 0.006119666 0.16028912 -0.409561 0.21780528 0.4234318 0.49564934
-0.3927055 -0.4066927 0.40014368 0.2788863 0.54148054 0.36681908 -0.40261278 0.42838916
-0.12996095 0.5680236 -0.30720663 0.4770208 -0.22821239 0.3287678 0.13500217 0.18755814
0.5133445 -0.28057998 0.14449176 -0.42647827 0.12415058 -0.32542437 0.23348127 0.14309452
0.20088689 0.08081425 0.512431 0.23674144 0.45647442 -0.27421996 -0.28262317 -0.45657504
0.5442046 -0.31787163 0.33399042 -0.11944843 -0.16492994 0.10006743 0.5271804 0.030402804
0.39842516 0.025183208 0.32674423 0.30906898 -0.37047645 0.042637967 -0.03893666 0.35613585
0.039018046 0.21591353 -0.14583108 0.24440128 -0.32618123 -0.3116591 0.5564112 0.41809157
0.3931023 -0.17148568 0.43075722 0.5059504 -0.07657611 0.5003025 0.096206985 0.15639892
0.5043752 -0.10333106 0.55439526 0.44719556 -0.08621512 0.5389579 -0.33710378 0.056592945
-0.18663345 -0.003248284 0.2151403 0.51959425 0.5146781 0.48610508 -0.18397048 -0.30103615
-0.13404256 -0.28692675 -0.2898877 0.08251804 0.18026087 0.13328892 0.18269567 -0.37169343
0.14957717 0.20564722 0.4949502 -0.16703242 -0.33672848 0.005361421 0.43834302 -0.23531291
-0.35216507 -0.41143495 -0.20723258 0.31824288 -0.11811883 -0.2081046 -0.44375935 -0.23132457

layer2.weight f4 [128, 128]
00000000: 2069 123a cf72 8b3d 4a86 8fbd 234d ab3d
00000010: 6b9b 53bd 68b5 8fbd 0c44 96bd 2f88 8ebd
00000020: 8d37 4cbd 7e2a 02bd bf30 903d 9ce0 ab3c
00000030: 6df0 8f3d af20 96bd 9493 da3c 236a 9f3d
00000040: 2472 d5bc 9f7a 5abd 8852 a4bd dc3f 0dbd
00000050: f946 0cbd 50c3 00bc 537d 93bd 5123 8a3d
00000060: c891 06bc f44d a63d 4439 c7bc e954 b33d
00000070: 9df7 a53d 2024 98bd bc4c 58bd f278 84bd
00000080: 3c5b 903c c68c 4c3d e7ee ddbc fefd 7b3d
00000090: 8073 b23b fd06 983d 3399 5fbd ea4e 4dbd
000000a0: a44c c1bc 5011 243c bbe2 9fbd e4b5 a5ba
000000b0: 41f7 25bd c33c 803d 1cff df3c e013 96ba
000000c0: c066 b2bb e089 81bd e5af 99bd 15ee e8bc
000000d0: 4043 8b3b 8216 4ebd 00e2 2cbc 581d 223c
000000e0: 3064 55bc 770d 64bd 5315 9f3d 60c9 9dbc
000000f0: 0870 4d3c 6ec9 5a3d eab4 4d3d cb59 92bd
00000100: eedc 3c3d b6a3 4a3d 8000 e0bc b522 8c3d
00000110: 6944 adbd 63e2 a0bd 58f0 7fbd 5820 d13c
00000120: 6a6e 243d b2a5 073d f878 8abd 8056 42bb
00000130: 3a83 1dbd 1ac6 8c3d 688c 19bd 4422 ea3c
00000140: 61d0 5abd dc72 d7bc f981 94bd 74c6 48bd
00000150: d46a 843c 8781 723c ff23 933d 967c e5bc
00000160: 32a4 00bd 6e9b 713d acbd c0bc 6a29 8fbd
00000170: 9cf0 773d 8316 60bd 9ca0 cdbc ed47 aa3d
00000180: f6a8 a03c e8ab 6fbd 5698 343d bbb4 923d
00000190: fc01 aebc a429 85bd c24b 18bd 9303 a2bd
000001a0: 70fb 5ebd cc66 97bd 44be 18bd 662f 0cbd
000001b0: b67a 1dbd a531 a83d 738d 853d 108b ebbc
000001c0: 4efb 603d 6091 6e3b dfcf 6fbd 2095 dfbb
000001d0: b35f 833d be6e 13bd ce11 38bd 3e92 1f3d
000001e0: e022 883a a2f9 7abd 9090 aabd 6401 aabc
000001f0: 08fc 33bc 3e01 7f3d e8c6 57bd aa1b 333d
00000200: 7c65 8abc 18fd 17bd 7564 893c f2b1 67bd
00000210: 75cf 14bc 63e5 413d fa27 aabe 23c3 68bd
00000220: 4190 1dbd c335 ec3d 94b1 29bd 4920 943c
00000230: be83 a8be fdb5 c0bc eb7a 1b3e 5bf6 a1bd
00000240: bc4f d33d b063 c63b ec0a 82be 1e66 2a3c
00000250: ad74 1f3d b67b b23d 13c4 353c 78d0 633d
00000260: 3661 1e3d ea3d 03be f33e cd3d be22 913d
00000270: 8665 703d 2121 aabc 8b07 dfbd 8801 013d
00000280: f672 b5bc b5e0 de3d 9809 5abd 389c c33d
00000290: 256a 1a3e 57bf 023e d430 853c ce52 bc3d
000002a0: 0580 773d 40ec 363b 9587 c73d 81b0 b1bd
000002b0: fb59 9f3d d137 70bd 8be7 ed3d 98ee d6bc
000002c0: acc4 e83d cb47 24bd 8d99 f3bb beb0 593d
000002d0: cefe 253d e936 863d 3e42 4cbe 0e7f 7d3d
000002e0: c62e 1a3d b8d0 373d 5939 efbc 5b90 813e
000002f0: 3a9f febd cd43 343c 80b5 c53d c9b2 73bd
00000300: 19dc 1fbc c248 22bd 9979 d33d c515 723d
00000310: 91c2 8fbe 7d27 77bc 6da3 3ebd ab92 063d
00000320: 0e95 c63d 96ad 5b3d eaf1 863c 9d3a 353d
00000330: f795 84bd 00cd 833a 060b b83d 0f92 1d3d
00000340: 3c36 14bd 3800 a5bc 52a4 ce3d 2247 24bd
00000350: 4218 853e d7ae d13d 5ac1 313d c75a 093e
00000360: d3a8 ad3d 9961 16bd e0cf 08bd 550d 083d
00000370: 5d93 df3c a5b6 a73d 7b7f 91bb 6992 9abd
00000380: 5214 83bd 1652 593d 6539 05bd 7045 b83d
00000390: 4160 17bb 9fb8 adbc 6cb2 bebc bb27 1abe
000003a0: 64f2 bebc f966 ad3d 5201 503d 4de5 30bd
000003b0: 384b 153d e895 933d fbcb c93d 24ec 6ebd
000003c0: 71ad 0a3e 859c 9c3d 9506 883c 2942 133c
000003d0: 0f79 77be 2769 273d 2930 303d 211c 12bd
000003e0: 9fa1 b3bc 7178 01bd 87e9 02be 18bd 0aba
000003f0: 05ac 02be ad9d 0cbe d573 45be b35d 57be
0.0005585123 0.068090074 -0.070080355 0.08364322 -0.05166189 -0.07017022 -0.07337198 -0.06959569
-0.049857665 -0.031778805 0.070405476 0.020981126 0.070282795 -0.07330453 0.026681699 0.07783916
-0.026055403 -0.053339597 -0.08023554 -0.03448473 -0.034247372 -0.007859066 -0.07201638 0.06745017
-0.008213468 0.08120337 -0.024319299 0.0875643 0.08103869 -0.07428765 -0.052807555 -0.06468381
0.017621629 0.04993894 -0.027091457 0.061521523 0.0054458976 0.07423208 -0.05458946 -0.050124086
-0.023596115 0.010013893 -0.07806917 -0.0012642709 -0.040519003 0.062615894 0.027343325 -0.0011450015
-0.0054443777 -0.06325126 -0.07504252 -0.028433839 0.00424996 -0.050314434 -0.0105519295 0.009894691
-0.013024375 -0.055676904 0.07767739 -0.019261062 0.012538917 0.053414755 0.05022136 -0.07146033
0.046109132 0.049472533 -0.027343988 0.06842557 -0.08460314 -0.0785568 -0.06248507 0.025528118
0.04014436 0.033117004 -0.06761354 -0.0029653609 -0.038455226 0.068737224 -0.037487417 0.028580792
-0.05342138 -0.026299886 -0.07251353 -0.049017385 0.01616422 0.01480139 0.071846 -0.028013509
-0.03140659 0.05898612 -0.023527943 -0.06990321 0.060532197 -0.05470897 -0.025100999 0.083145
0.019611817 -0.058513552 0.04409059 0.07163378 -0.02124118 -0.06502083 -0.037181623 -0.07910838
-0.05443901 -0.07392654 -0.037290826 -0.03422489 -0.038447104 0.08212594 0.0652112 -0.028752834
0.054927163 0.0036402568 -0.05854785 -0.006823197 0.064147376 -0.035994284 -0.044938855 0.038957827
0.001038637 -0.061273225 -0.08328354 -0.020752616 -0.010985382 0.062257044 -0.052679926 0.043727554
-0.016894095 -0.037106603 0.016771534 -0.056566186 -0.009082665 0.0473379 -0.33233625 -0.056826722
-0.03846765 0.11533692 -0.041429117 0.018081801 -0.3291301 -0.023524279 0.15183608 -0.07908317
0.103179425 0.006054364 -0.25398958 0.010400323 0.03892963 0.08715002 0.011094111 0.055618733
0.038666926 -0.12816587 0.10021772 0.07086705 0.05869057 -0.02076775 -0.108901106 0.0314956
-0.022149544 0.10882703 -0.053231806 0.09551281 0.15079553 0.12768303 0.016258635 0.09195481
0.060424823 0.0027911812 0.09742657 -0.086762436 0.07780834 -0.05864698 0.11616429 -0.026236817
0.11365637 -0.04010753 -0.007434076 0.05314707 0.040526204 0.06553442 -0.19947144 0.061888747
0.037642263 0.044876784 -0.02920215 0.25305447 -0.12432714 0.011002493 0.09653759 -0.059496675
-0.009757065 -0.03962017 0.10325927 0.059102792 -0.2807813 -0.015085098 -0.046542574 0.032854717
0.09696399 0.05363234 0.016472775 0.04424535 -0.06473916 0.0010055602 0.089864776 0.03846937
-0.036184534 -0.020141706 0.10089935 -0.0401069 0.2599507 0.10238426 0.043397285 0.13413535
0.08479466 -0.03671417 -0.03340137 0.03321584 0.027291948 0.081891336 -0.0044402457 -0.07547457
-0.0640036 0.0530568 -0.03252544 0.08997619 -0.0023098143 -0.021206198 -0.023278438 -0.15054218
-0.02330894 0.08466906 0.05078251 -0.04318743 0.036448687 0.07206327 0.09853359 -0.05833067
0.13542725 0.07647041 0.016604701 0.008987942 -0.24167274 0.040871765 0.04301468 -0.035671357
-0.021927653 -0.031609003 -0.12784396 -0.00052924594 -0.12760933 -0.13732024 -0.19282468 -0.21031837

layer2.bias f4 [128]
00000000: d633 3d3d aa70 693d ecb3 893d c34e 3b3d
00000010: 5ce4 e33d 7cbb 62bd 7b5e 6e3c a892 913d
00000020: 6358 3ebd 8e55 ad3d 505b cb3a 6a72 8d3d
00000030: 5812 103c a5db a43d 7658 6fbd 7743 933c
00000040: 4528 123e e1c1 823d 3cbb d33c de09 c13d
00000050: ebf1 89bd 0637 043d 5b36 92bd 0dd8 a63c
00000060: c716 febc 444e 99bd 60f7 39bd 8290 f33d
00000070: 31ef 5a3d 9139 c1bd ce49 8b3c 12bb 4d3d
00000080: b4ff 963d b82a afbb 06fa 89bd 8b4e 743d
00000090: 3f25 fd3b c4a9 60bd 778f aabd f417 92bd
000000a0: 528f 7cbd 2afe 2a3d c6f2 7c3d 98a0 d2bc
000000b0: 2984 1ebd e4b4 ebbc e82b 0bbd 2f20 cebb
000000c0: ef57 fc3d ce43 a2bd 19e2 87bd 19ed ed3d
000000d0: 98f8 e33b 5987 f4bc 4a95 d93d c685 bebb
000000e0: 5819 a2bd 80af c03d 9a9e 513d a01f 17bd
000000f0: 6070 9b3c 03ec 60bd 0a29 bd3d 5913 70bd
00000100: 5cb2 013e 611d 5d3d 5f9d 4e3d d41c 073d
00000110: af20 6c3d 33c5 f9bc 35e4 a2bd 8c32 d63d
00000120: 0956 d93d 0180 be3d d759 b1bc 470a 10bd
00000130: 8946 aebc c952 9e3d 5c13 283d 2616 4a3d
00000140: fc6c 0e3d 345b 5dbd 2230 93bd 78bf 5c3d
00000150: 58eb 803c 2c2b 843d 335e 473d 9f89 543d
00000160: 56db babd 563e 1a3e 7843 bfbc 1a2a 023e
00000170: 7231 a93c 6314 df3d 598a 923b a436 a53d
00000180: 448e 353d 5ccf 1f3d f5b6 313d 7358 8cbd
00000190: a5dc f03d 8b09 10bd 8ecf 693d 0fe7 7c3c
000001a0: 48a8 9abc 3078 223c a298 62bd 1035 9dbd
000001b0: 5ed2 05bd 0011 d73d ac3e 723d b2fc 4ebd
000001c0: bf62 bb3d 46df 7cbd 3dd8 5ebc e5ce 87bd
000001d0: 1e06 1a3d 63dd b0bc 4f74 8ebd 217e 573c
000001e0: ee4c 4e3d bd89 7bbd 3d37 6d3d bc7f 82bc
000001f0: 3537 99bb c83a 583c eef2 10bd b7bd 033e
0.046192013 0.05699221 0.067237705 0.04572941 0.111275405 -0.05535458 0.014548893 0.071080506
-0.04647101 0.08463584 0.0015514884 0.069065884 0.008793436 0.08049706 -0.058433972 0.017976506
0.14273174 0.06384636 0.025846116 0.0942571 -0.06735595 0.032279037 -0.07139274 0.020366693
-0.03101672 -0.07485631 -0.04540193 0.11892797 0.053450767 -0.09434808 0.017002966 0.050227232
0.0737299 -0.0053456686 -0.06737141 0.059645217 0.0077253873 -0.0548494 -0.08328145 -0.07133475
-0.06166012 0.041746296 0.061754964 -0.025711343 -0.038700256 -0.028772779 -0.03397742 -0.0062904577
0.123214595 -0.07923089 -0.066349216 0.116174884 0.006957125 -0.029849695 0.10624178 -0.005814287
-0.0791499 0.09408474 0.051176645 -0.036895394 0.018974483 -0.05491258 0.09236343 -0.0586122
0.12665695 0.053983096 0.05044305 0.032986477 0.057648357 -0.03048954 -0.07953683 0.1045886
0.10612113 0.093017586 -0.021649284 -0.03516605 -0.021273868 0.07730634 0.041034088 0.04933753
0.034771904 -0.054042056 -0.07186915 0.053893536 0.01573722 0.06453547 0.04867382 0.05188906
-0.09123866 0.15062842 -0.023347601 0.12711373 0.02065346 0.1089256 0.0044720587 0.080670625
0.04432513 0.039016113 0.043387372 -0.06852808 0.117608346 -0.03516535 0.057082705 0.015435948
-0.01887907 0.00991635 -0.055321343 -0.076761365 -0.032671325 0.10501289 0.0591418 -0.050533958
0.09149694 -0.061736368 -0.01360136 -0.06631259 0.03760349 -0.02158994 -0.06955778 0.01315263
0.050366335 -0.061410654 0.057914007 -0.01593005 -0.0046757706 0.013197608 -0.035387926 0.12865339

layer3.weight f4 [2, 128]
00000000: 05ef 843d 5ba3 033e 8fad 063d da33 cf3d
00000010: c710 1c3e a300 be3d 756d 4abc 2737 0a3e
00000020: 0aa1 013d 240f 363e 19b0 8ebe 29e5 453e
00000030: 80d0 de39 b25c d03d 00b0 59bb 35bb 64bd
00000040: e805 0b3e 89f7 c43c da77 663d aed0 a73d
00000050: 6f70 63bd 546c 123c ebb7 ccbc 8934 4dbc
00000060: 65d3 67bd 21ce 0ebd c908 98bc 21cc d13d
00000070: 1a65 dcbb 5771 90bc 421f 74bd 80ac 11bd
00000080: aa92 0a3d d509 183e 2caa 37bd 2281 f83d
00000090: 5b36 7a3e 4f70 eebd cc69 95bd 6370 63bd
000000a0: dc67 38bd b935 b03d d84b a53d 214c b13d
000000b0: f0e5 72bd 4ad7 9abd ef3f 1dbd c702 24bb
000000c0: 8586 f53d 38d2 8e3c e259 b5be 22a1 1d3e
000000d0: dd7a 163e 095f f6ba e0f5 1e3e 3a79 e536
000000e0: bc71 d03c ff44 413d b754 113e 4cba 5b3e
000000f0: 761d ebbc c4f9 21bc 4acb f23d 9809 92bd
00000100: 4f8c 3d3d 89f7 cb3d 1115 e53d 1176 47be
00000110: 7d11 40bd c00e 6d3d 22cb 84be bae2 883d
00000120: ab1e 5b3e 1464 35be bd7a ee3d 92e2 4bbd
00000130: e619 07bd f78a 0e3e 030b 42be 5ecd 223d
00000140: 6896 203e c873 e1bd 3f51 0abd 6e6f 4ebd
00000150: fba3 06be 11d2 b2bd 808d 27bb 498c 02be
00000160: 1aac afbd 4057 793d 72b8 7fbe b832 2f3e
00000170: 6f8f 893d 5c31 c23d 0ec1 cb3d facf b43d
00000180: 6c51 90be 0e1e c8bd cb07 4f3e b0b1 923b
00000190: b23b 3e3e 245b 5dbd 9385 313e 5050 a63d
000001a0: b5ff 9a3d 48a7 623e 8da5 5bbd edfc 29be
000001b0: 9a9a 1b3e 4454 103e 1310 42bd 105e c3bc
000001c0: f11c 413e e24e 8b3b face 8ebd 0d18 92bc
000001d0: 8401 7dbc 0954 ebbc 88b8 793c e1ec 1e3e
000001e0: 203c 843b 60d7 f93a fe6c 483e 705c 883b
000001f0: db02 b2bc 589e 51bd d70c bdbc d781 063e
00000200: e0c1 0b3b c552 913d 8d71 17bd 61ec a73d
00000210: a4f4 e33d b290 103e d756 b7b9 4ce1 e23d
00000220: c88a 6fbc d1d4 1b3d b602 49be b2f2 0c3e
00000230: e24f 583d b856 063e e9ec a8bd a658 11bb
00000240: 87d4 0abd 75b3 9dbd ca46 4ebd a7c8 033e
00000250: 33c0 083d 011b adbc 4db5 86bd 423c a7bc
00000260: cccc b8bc 56a4 0dbd a567 72bd b674 483e
00000270: 735d de3c ef26 c0bd b2ff ea3b 4d79 a6bd
00000280: 7d1f 353e 567b 2d3e d03c d13c 0dbc 173e
00000290: 98a4 713e a701 84bd 46dc 4bbd 5408 05bd
000002a0: 4b99 71bd 309e 343e 4a7f 313e 0b4a 9a3d
000002b0: ce37 2f3d ebbf dcbd 561d 8e3c d07d 9bbd
000002c0: 7102 793d cc01 a3bc 3c87 b3bd 5d6d 2a3e
000002d0: 9c7d 013e 183a a2bd 2ca1 e2bc 9cc2 a7bc
000002e0: 501b a23b c3e7 1d3e a8e6 223e ce08 773d
000002f0: f0bd 8cbb 3493 57bd 82fe 1a3e 94d4 adbc
00000300: 908d 183e d8c5 933b c129 e13d 70ad 193e
00000310: 3672 463d b651 2c3e 4a92 d1bd 5f0b 1f3e
00000320: af94 4b3e 2f4a 943d 9909 203e e178 c4bd
00000330: 0054 2fbd d99f 043e 7ed1 09be d885 94bd
00000340: 0910 bc3d 92a9 933d d06d dbbc c9dd 403d
00000350: 24a9 84bd d7c4 cabc b60d a2bb 3466 38bd
00000360: 9fb6 cb3c 2cba 373e 182d 893d 6aa3 623d
00000370: bfac 1b3e 9eb0 4b3e fc38 853d 665b 6d3e
00000380: c157 0bbe e490 b9ba 2681 e33d 1afa 68bd
00000390: 145c 4b3e f5de 9abd 90be 873c e588 98bd
000003a0: 41f6 a83d 116c 3a3d 08ff 42bd ac7f c13b
000003b0: 6d07 9c3d 3eec e13d f260 c93b b915 bebd
000003c0: ff99 043e 7420 8cbd 5d38 15bd dfbe f43c
000003d0: 57a5 633d d931 42bd ae91 213d 8680 ce3d
000003e0: 4ca2 fb3c f6fc 7ebd f491 443e 668a afbd
000003f0: 6076 8bbd 57a8 21bd f7aa 8fbd 75d1 e23d
0.06490902 0.12855284 0.032880362 0.10117312 0.15240775 0.09277465 -0.012355198 0.13497601
0.03164772 0.17779213 -0.27868727 0.19325699 0.00042498484 0.1017393 -0.0033216476 -0.055842597
0.13576472 0.024043815 0.056266643 0.08194099 -0.055527147 0.00893696 -0.024990043 -0.012524732
-0.056598086 -0.03486455 -0.018558877 0.102440126 -0.0067259194 -0.01763217 -0.059600122 -0.0355649
0.033831276 0.148475 -0.044840023 0.12134005 0.24434797 -0.11642515 -0.0729557 -0.055527102
-0.045020923 0.08603997 0.08071107 0.086570986 -0.059301317 -0.075605944 -0.03839105 -0.002502607
0.11988548 0.017434224 -0.35420138 0.15393499 0.14695306 -0.0018796633 0.15523481 6.8388445e-06
0.025444858 0.04718494 0.14192472 0.21457785 -0.028700572 -0.009886209 0.118551806 -0.07130736
0.046276387 0.09959323 0.11185659 -0.19478633 -0.046891678 0.057875395 -0.25936228 0.0668387
0.21398418 -0.17713958 0.11644504 -0.04977662 -0.032983683 0.13920198 -0.18949513 0.039746635
0.15682375 -0.11008412 -0.03376889 -0.050399236 -0.13148491 -0.08731473 -0.0025566518 -0.12748827
-0.08577748 0.060874224 -0.24972704 0.17109191 0.06716811 0.09482071 0.09948932 0.08828731
-0.2818712 -0.097713575 0.20217817 0.0044767484 0.1857746 -0.054041997 0.17336111 0.08120787
0.075683035 0.22134125 -0.05362468 -0.1660039 0.15195695 0.14094645 -0.04737861 -0.023848563
0.18858697 0.004251347 -0.069730714 -0.017833734 -0.015442256 -0.028726595 0.01524175 0.1552005
0.004035488 0.0019061379 0.19572827 0.00416141 -0.021729877 -0.0511764 -0.023077412 0.13135467
0.0021325275 0.07095865 -0.036973525 0.081993826 0.11130646 0.14117697 -0.0003496918 0.11078128
-0.01462049 0.038044754 -0.1962994 0.13764456 0.052810557 0.13119018 -0.08248312 -0.0022178083
-0.033894088 -0.07700244 -0.05036048 0.12869512 0.03338642 -0.02113104 -0.06577549 -0.020414475
-0.022558592 -0.03458055 -0.059180874 0.19575772 0.02714417 -0.09382426 0.0071715945 -0.08128605
0.17687793 0.1694158 0.025541693 0.1481783 0.23597944 -0.06445628 -0.049770616 -0.032478645
-0.058984082 0.17638469 0.17333713 0.07533654 0.04277783 -0.10778793 0.017347973 -0.07592356
0.060793344 -0.019898318 -0.08766028 0.16643281 0.12645572 -0.07921237 -0.027664743 -0.02047854
0.0049471036 0.15420441 0.15908301 0.06031113 -0.0042951033 -0.05263062 0.1513615 -0.02121953
0.14897752 0.004509669 0.10994292 0.15007567 0.048448764 0.16828045 -0.102329805 0.15531681
0.19880937 0.07240712 0.15628661 -0.09593368 -0.042804718 0.12951602 -0.13458821 -0.07252091
0.09182746 0.07210077 -0.026785761 0.04708651 -0.064775735 -0.024752064 -0.004945482 -0.045019343
0.024867354 0.17942113 0.06698054 0.055331625 0.15202616 0.19891593 0.065050095 0.23179397
-0.13607694 -0.0014157561 0.111086175 -0.05687914 0.19859344 -0.07562057 0.01657036 -0.074479856
0.08250094 0.045513216 -0.047606498 0.0059051123 0.07618604 0.11031388 0.00614559 -0.09281487
0.1294937 -0.068421274 -0.036430705 0.02987617 0.055577602 -0.04741082 0.03944557 0.10083108
0.030717038 -0.06225296 0.19196302 -0.08571319 -0.068096876 -0.039467182 -0.07015031 0.11075107

layer3.bias f4 [2]
00000000: 1a9e 223d 74da cc3d
0.03970156 0.10002604
