CartPoleDQN/dqn_cartpole60.pth (torch, 72745 bytes, 6 tensors)

layer1.weight f4 [128, 4]
0	0x3e87d676	0.26530808
1	0xbe59c4d6	-0.21266493
2	0x3cc49834	0.023998357
3	0xbe0460d0	-0.12927556
4	0x3e684c23	0.22685294
5	0xbef243f9	-0.47317484
6	0x3e6c74ac	0.23091382
7	0x3eecc98b	0.46247515
8	0x3e33fa60	0.17575979
9	0x3e49551c	0.19661373
10	0x3dffb8d9	0.12486429
11	0x3c9d5376	0.019204836
12	0xbe72f3e4	-0.2372585
13	0xbe7cc0f8	-0.24682987
14	0x3e1c6776	0.15273842
15	0x3a9923b7	0.0011683617
16	0x3e72d01a	0.23712197
17	0xbedfbef1	-0.43700364
18	0xbdffc783	-0.12489226
19	0xbea050a2	-0.31311518
20	0xbf16ce80	-0.58908844
21	0xbd2bc2b4	-0.04193373
22	0x3e7c5fda	0.2464594
23	0xbea6e6ad	-0.32597867
24	0x3c088880	0.008333325
25	0xbea329dd	-0.31867877
26	0xbec2d797	-0.38055107
27	0xbf044d85	-0.51680785
28	0x3f413f88	0.75487566
29	0x3e8042ad	0.2505087
30	0xbf0b4e80	-0.54416656
31	0xbe4e0a88	-0.20121205
32	0x3f108bf1	0.56463534
33	0xbd6403b5	-0.055667598
34	0xbf2740a1	-0.6533299
35	0x3edd8161	0.4326277
36	0xbeff8566	-0.49906462
37	0xbe899b41	-0.26876262
38	0xbe90daa4	-0.2829181
39	0x3da28e24	0.079372674
40	0x3e71aa25	0.23600061
41	0x3d252ad5	0.04032405
42	0x3dd68051	0.10473693
43	0xbea80263	-0.3281432
44	0x3d523d35	0.051327903
45	0x3efe8416	0.4971015
46	0x3f1679e2	0.5877973
47	0x3e184f8a	0.14874092
48	0x3df9f870	0.12205589
49	0xbefe3991	-0.49653295
50	0xbf05f37d	-0.5232466
51	0xbefde493	-0.4958845
52	0xbe408579	-0.18800916
53	0xbcfe918d	-0.031075263
54	0xbe84cca5	-0.2593738
55	0xbe1bc3bb	-0.15211384
56	0xbed65c47	-0.41867277
57	0x3ead96c6	0.33904094
58	0x3e86a35b	0.26296505
59	0x3e16727a	0.14692107
60	0x3d80643d	0.06269119
61	0xbea907d5	-0.33013788
62	0x3f10d4ef	0.5657491
63	0x3eaa5018	0.33264232
64	0x3efc3d3d	0.4926547
65	0xbe02a4e9	-0.1275822
66	0x3c32f020	0.010921508
67	0x3ea0b7f8	0.31390357
68	0xbd916820	-0.070999384
69	0xbe6fb45a	-0.23408642
70	0x3d60c298	0.05487308
71	0xbdeeb452	-0.11655487
72	0x3e50443e	0.20338532
73	0x3e1b4435	0.15162738
74	0x3ed09f9d	0.40746775
75	0x3e1a5a2b	0.15073459
76	0xbea518e8	-0.32245564
77	0x3e6b7014	0.22991973
78	0xbe81ec9b	-0.25375828
79	0xbee3134a	-0.44350654
80	0xbe7fb4d5	-0.24971326
81	0xbecdfb2a	-0.40230685
82	0x3ec9732e	0.39345688
83	0x3eb81253	0.3595148
84	0xbec6cc14	-0.38827574
85	0x3ecc0a3b	0.39851555
86	0x3edcc6fe	0.4312057
87	0xbe86de52	-0.26341492
88	0x3e953c64	0.29147637
89	0xbedbdf22	-0.42943674
90	0x3dbd7d56	0.092524216
91	0x3e6637e3	0.22482257
92	0x3e8d30e7	0.27576372
93	0xbe2c1d35	-0.16808017
94	0xbe9c17b0	-0.30486822
95	0xbd2a1ca0	-0.041531205
96	0xbee24460	-0.4419279
97	0x3e97d046	0.29651088
98	0xbee386e0	-0.4443884
99	0x3d8811da	0.0664403
100	0x3ec635ad	0.38712826
101	0x39cf814a	0.00039578445
102	0xbeef4c9b	-0.46738133
103	0xbddf02f8	-0.10889238
104	0xbd9ae8ca	-0.07563932
105	0x3d43b149	0.047776494
106	0xbe2686ee	-0.16262409
107	0x3d162601	0.036657337
108	0xbdf45c00	-0.1193161
109	0x3f049752	0.51793396
110	0x3ec5c2c6	0.38625163
111	0x3ea78cad	0.32724515
112	0xbec80bef	-0.39071605
113	0x3f018922	0.50599873
114	0x3dd52285	0.10406975
115	0xbedcadac	-0.4310125
116	0xbef9ba2f	-0.4877486
117	0x3ded7459	0.11594457
118	0x3db2bd6a	0.08727534
119	0xbde03e31	-0.10949362
120	0x3eded140	0.4351902
121	0xbc860d2d	-0.016363705
122	0x3dfee14b	0.12445315
123	0xbecc9429	-0.39956787
124	0xbde34bdf	-0.11098456
125	0xbc223025	-0.009899174
126	0xbea8a84d	-0.32940903
127	0xbdbbcf1b	-0.091703616
128	0xbebba683	-0.36650476
129	0x3dbe408b	0.09289654
130	0x3f2c402f	0.67285436
131	0x3ee4160b	0.44548067
132	0x3de7539c	0.11295244
133	0x3dd2a842	0.10285999
134	0xbe92051a	-0.28519517
135	0x3e379286	0.17926988
136	0xbed01b62	-0.4064589
137	0x3e857ff2	0.26074177
138	0xbdd3cefd	-0.10342214
139	0x3e24d3c8	0.16096413
140	0xbe98ec25	-0.29867664
141	0xbea3e0f5	-0.32007566
142	0xbc7e2b57	-0.015513263
143	0xbed41a01	-0.4142609
144	0x3f056b36	0.52116716
145	0xbed3d0b5	-0.41370168
146	0xbe95e3dd	-0.29275408
147	0xbd819607	-0.063274436
148	0x3f0cde0e	0.5502633
149	0xbe99fbc0	-0.30074883
150	0xbe8afdfb	-0.27146897
151	0x3dab16a7	0.0835393
152	0x3de1144e	0.10990201
153	0x3ed3f86c	0.41400468
154	0xbd114365	-0.035464663
155	0x3dc2d579	0.09513373
156	0x3d38933e	0.045062296
157	0x3ef85c73	0.48508033
158	0x3dc3c235	0.095585264
159	0xbc5e67b9	-0.013574534
160	0x3e28bc26	0.16478023
161	0xbdf5cfcf	-0.12002527
162	0x3e814871	0.2525058
163	0xbea94077	-0.33056995
164	0x3d8f79e8	0.07005674
165	0xbe1a2660	-0.15053701
166	0x3dda4352	0.106573716
167	0xbe0c1b12	-0.13682202
168	0x3edab744	0.42717946
169	0xbe95375a	-0.29143792
170	0x3e1fc05f	0.15600727
171	0x3e64886e	0.22317669
172	0x3da54040	0.08068895
173	0x3a86265c	0.0010234821
174	0xbed9cc6e	-0.4253878
175	0x3de50f4e	0.1118456
176	0xbe35e69b	-0.1776375
177	0xbe37e1e1	-0.1795726
178	0xbf23d783	-0.6400072
179	0x3eb34fc3	0.3502179
180	0x3d850f94	0.06497112
181	0x3e8d5aa4	0.27608216
182	0x3eee0dde	0.46494955
183	0x3e0be312	0.13660839
184	0xbe0f594c	-0.13998908
185	0xbe17e2da	-0.14832631
186	0xbeb40a61	-0.35164168
187	0x3e2fc876	0.17166314
188	0xbefdc149	-0.49561527
189	0x3e81c072	0.25342137
190	0x3cb06361	0.021531763
191	0xbe140591	-0.14455248
192	0xbdfc1c08	-0.12310034
193	0x3d0cafc1	0.0343473
194	0x3ec00590	0.37504244
195	0x3d68acfc	0.056805596
196	0x3e19cbd4	0.1501916
197	0xbe9ca44d	-0.30594102
198	0x3e6b8d9c	0.23003238
199	0x3ed706c4	0.4199735
200	0x3dc2e516	0.09516351
201	0xbe295e48	-0.16539872
202	0x3f065021	0.52466017
203	0xbd80b54c	-0.0628458
204	0x3e0079be	0.12546441
205	0xbeddbfbe	-0.4331035
206	0x3ea602e4	0.3242408
207	0x3ece7669	0.40324715
208	0xbdebccf7	-0.11513703
209	0xbe0513d7	-0.1299585
210	0x3bde1056	0.0067768497
211	0xbe8706ab	-0.26372275
212	0xbeb0750c	-0.344643
213	0xbe7f6754	-0.2494176
214	0x3e05de6c	0.13073128
215	0xbe54c89c	-0.20779651
216	0x3ed3ae83	0.4134408
217	0xbe1feee5	-0.15618475
218	0xbef7ae44	-0.48375142
219	0xbedb0a72	-0.42781407
220	0xbc8c1b62	-0.0171029
221	0x3eceec36	0.4041459
222	0x3ebf7461	0.37393478
223	0x3e8e3aee	0.27779335
224	0x3eab855c	0.33500183
225	0xbcada058	-0.021194622
226	0x3ef9d19b	0.4879273
227	0xbe7bb8e7	-0.24582253
228	0x3eefa0ca	0.4680236
229	0xbeebe015	-0.460694
230	0xbe6a8137	-0.22900854
231	0xbdf19b40	-0.1179719
232	0xbee1668c	-0.4402355
233	0xbed2d34c	-0.41176832
234	0x3e51fd0c	0.20506686
235	0xbe2c8ecb	-0.16851346
236	0x3ee540ab	0.447759
237	0xbe8a377a	-0.2699545
238	0xbeb2376c	-0.3480791
239	0xbc8e2a0c	-0.017354034
240	0x3f228a1a	0.63491976
241	0xbe2daebe	-0.1696119
242	0xbd244af2	-0.040110536
243	0xbebe5bde	-0.37179464
244	0x3e7468e7	0.23868142
245	0xbec6ff4f	-0.3886666
246	0xbe3d19aa	-0.18466821
247	0xbd86fcd6	-0.065911934
248	0x3e815998	0.25263667
249	0x3e8b0ce7	0.2715828
250	0x3b9db434	0.0048127417
251	0xbcdc218c	-0.026871465
252	0x3edaa492	0.42703682
253	0x3ec7fbf6	0.39059418
254	0xbef365c8	-0.4753859
255	0xbd622a7b	-0.055216294

layer1.bias f4 [128]
0	0xbeece31e	-0.46267027
1	0xbe13df14	-0.14440566
2	0x3ed75da1	0.4206362
3	0x3e43cecf	0.1912186
4	0x3ed463f6	0.41482514
5	0x3f03cc19	0.51483303
6	0xbeb07806	-0.3446657
7	0xbebd73e9	-0.37002495
8	0x3e024876	0.12722954
9	0x3f1332b0	0.5749922
10	0xbead907a	-0.3389929
11	0x3e315c3f	0.17320345
12	0xbe377b6d	-0.17918177
13	0x3f0ea3c8	0.5571866
14	0x3e66e174	0.22546941
15	0xbeb098be	-0.34491533
16	0x3ecd5414	0.4010321
17	0xbed694ee	-0.419105
18	0xbc6418ee	-0.013921959
19	0x3e1fc830	0.15603709
20	0xbebd2bc3	-0.3694745
21	0x3e589441	0.21150304
22	0x3ed47db4	0.41502154
23	0x3ef8e1da	0.4860981
24	0xbec955dc	-0.39323318
25	0xbecdda4a	-0.40205604
26	0x3ec7b66d	0.39006367
27	0x3e866dbd	0.262556
28	0x3f09dd6f	0.53853506
29	0x3eb7a6c7	0.3586943
30	0xbecdb187	-0.40174505
31	0x3ed72bab	0.42025504
32	0xbdc63696	-0.0967838
33	0x3f0f461a	0.5596634
34	0xbe9d812a	-0.30762607
35	0x3eea9a26	0.4582073
36	0xbe855fd4	-0.26049674
37	0x3ea7e13b	0.32789025
38	0x3dfcfe61	0.123532064
39	0x3e375f8e	0.17907545
40	0x3ef90f68	0.48644567
41	0xbe8fd9d6	-0.28095883
42	0x3de0d06f	0.109772556
43	0xbedaa79e	-0.42706007
44	0x3def70e3	0.11691453
45	0xbea6d88c	-0.32587087
46	0x3e6407d2	0.22268608
47	0x3e143f70	0.14477324
48	0x3e4428c1	0.19156171
49	0x3da978c3	0.082749866
50	0x3f00efc2	0.5036584
51	0x3e62af79	0.2213725
52	0x3ee2b706	0.4428026
53	0xbe8c9671	-0.27458528
54	0xbe90eb41	-0.28304484
55	0xbeea15c8	-0.45719743
56	0x3f06b664	0.52622056
57	0xbeb9a78d	-0.36260644
58	0x3eab04c8	0.33402085
59	0xbe22836b	-0.15870444
60	0xbe173c07	-0.14768992
61	0x3dafc506	0.08582501
62	0x3f036f03	0.51341265
63	0x3cd11d44	0.02552665
64	0x3ec7fd8c	0.39060628
65	0x3c2901fb	0.010315414
66	0x3e990894	0.29889357
67	0x3e95e5b8	0.29276824
68	0xbebfcc38	-0.37460494
69	0x3d18fcea	0.037350573
70	0xbd4125be	-0.047155134
71	0x3eb02230	0.34401083
72	0x3cf8244b	0.030290743
73	0x3e56aae9	0.20963635
74	0xbdf5a356	-0.119940445
75	0x3e6ec9d3	0.23319177
76	0xbea73bc0	-0.32662773
77	0xbe9fc8c2	-0.31207854
78	0x3f0c78ee	0.54872024
79	0x3ed0b9dc	0.407668
80	0x3ec55c5e	0.38547033
81	0xbe112ecb	-0.14178006
82	0x3ed3e2bb	0.4138392
83	0x3f026063	0.50928324
84	0xbd9c900f	-0.076446645
85	0x3efbf153	0.49207553
86	0x3dc8b9af	0.09801041
87	0x3e0f7385	0.14008911
88	0x3efe1b76	0.49630326
89	0xbd8bdde8	-0.06829435
90	0x3f088617	0.53329605
91	0x3ee05727	0.43816492
92	0xbdb65c9c	-0.089043826
93	0x3f06d9e1	0.52676207
94	0xbeacd52a	-0.3375638
95	0x3d50c869	0.050972376
96	0xbe42df80	-0.19030571
97	0xbb84d673	-0.0040538847
98	0x3e4aec71	0.19816758
99	0x3f026550	0.5093584
100	0x3f023518	0.50862265
101	0x3ef493f7	0.47769138
102	0xbe3b3bc8	-0.18284523
103	0xbe8c1ce6	-0.27365798
104	0xbdffb263	-0.124851964
105	0xbe931b7e	-0.28731912
106	0xbe7d11c4	-0.24713808
107	0x3da8bc0c	0.08238992
108	0x3e2b5338	0.16730964
109	0x3df64710	0.12025273
110	0x3e25d816	0.16195711
111	0xbebe9038	-0.37219405
112	0x3e125047	0.14288436
113	0x3e2bbc89	0.16771139
114	0x3ef9f3d9	0.48818853
115	0xbe0950ca	-0.13409725
116	0xbe9b3264	-0.30311882
117	0xbc11327a	-0.008862132
118	0x3edc07df	0.42974755
119	0xbe7ca700	-0.2467308
120	0xbeb83c49	-0.35983494
121	0xbebefb09	-0.373009
122	0xbe39426c	-0.18091744
123	0x3e9d1678	0.30681205
124	0xbde839fb	-0.11339184
125	0xbe65690c	-0.22403353
126	0xbed73b5b	-0.42037472
127	0xbe48b228	-0.19599211

layer2.weight f4 [128, 128]
0	0x3a129c8e	0.00055927865
1	0x3d8ba2b1	0.0681814
2	0xbd8fb7f2	-0.07017507
3	0x3dab87bd	0.083754994
4	0xbd53e421	-0.051731233
5	0xbd8fe710	-0.070264935
6	0xbd96777a	-0.07347007
7	0xbd8eb9d7	-0.0696904
8	0xbd4c7e7d	-0.049925316
9	0xbd0256d4	-0.031821087
10	0x3d906267	0.07050019
11	0x3cac1ce8	0.021009877
12	0x3d902215	0.07037751
13	0xbd96541d	-0.07340262
14	0x3cdadfd6	0.026718061
15	0x3d9fa11d	0.07794402
16	0xbcd5bca0	-0.02609092
17	0xbd5ac6e1	-0.053412322
18	0xbda48b48	-0.08034378
19	0xbd0d7184	-0.034532085
20	0xbd0c76db	-0.034293037
21	0xbc00efa6	-0.007869637
22	0xbd93b0c1	-0.072114475
23	0x3d8a5333	0.0675415
24	0xbc06bfe4	-0.008224461
25	0x3da687b7	0.08131354
26	0xbcc77e6e	-0.024352279
27	0x3db392fb	0.08768269
28	0x3da6305d	0.08114693
29	0xbd985954	-0.07438913
30	0xbd589738	-0.05287859
31	0xbd84a70e	-0.06477176
32	0x3c908ce4	0.017645307
33	0x3d4cd3b6	0.05000659
34	0xbcde3b29	-0.02712782
35	0x3d7c54e4	0.061604396
36	0x3bb2b192	0.005453297
37	0x3d983c31	0.074333556
38	0xbd5fe73b	-0.054663878
39	0xbd4d95da	-0.050191738
40	0xbcc19008	-0.02362825
41	0x3c244a10	0.0100274235
42	0xbda019b5	-0.07817403
43	0xbaa5eea4	-0.0012659621
44	0xbd263001	-0.040573124
45	0x3d806919	0.06270046
46	0x3ce04d24	0.027380534
47	0xba96474e	-0.0011465342
48	0xbbb2a4d2	-0.005451777
49	0xbd81b636	-0.06333582
50	0xbd99e519	-0.075144
51	0xbce93f7e	-0.028472658
52	0x3b8b7322	0.0042556683
53	0xbd4e5d72	-0.050382085
54	0xbc2d1e4c	-0.010566305
55	0x3c225618	0.009908222
56	0xbc55aeac	-0.013042133
57	0xbd645d45	-0.05575301
58	0x3d9f4c4d	0.07778225
59	0xbc9e005a	-0.019287277
60	0x3c4db6f8	0.01255583
61	0x3d5b15b0	0.05348748
62	0x3d4dfbda	0.050289012
63	0xbd928d39	-0.07155842
64	0x3d3d1e8c	0.04617171
65	0x3d4aeaa6	0.049540184
66	0xbce04e88	-0.027381197
67	0x3d8c5297	0.0685169
68	0xbdad80b5	-0.084718145
69	0xbda1195d	-0.07866166
70	0xbd802482	-0.06256963
71	0x3cd1690e	0.02556279
72	0x3d24a72a	0.040198483
73	0x3d07d542	0.033162363
74	0xbd8aa8da	-0.06770487
75	0xbb4299e4	-0.0029693777
76	0xbd1dba34	-0.038507655
77	0x3d8cf783	0.068831466
78	0xbd19c19c	-0.037538156
79	0x3cea73d8	0.028619692
80	0xbd5b1ca3	-0.053494107
81	0xbcd7bd58	-0.026335403
82	0xbd94b567	-0.07261162
83	0xbd490b9e	-0.049083345
84	0x3c8498f0	0.016186208
85	0x3c72d4e1	0.014821262
86	0x3d93576d	0.071944095
87	0xbce5cc64	-0.028051563
88	0xbd00d088	-0.03144887
89	0x3d71eec8	0.05906561
90	0xbcc10110	-0.023560077
91	0xbd8f5b12	-0.06999792
92	0x3d7845bc	0.06061338
93	0xbd60648b	-0.054783385
94	0xbccde78c	-0.025134824
95	0x3daa8273	0.083256625
96	0x3ca0dff0	0.019638032
97	0xbd6fff42	-0.058593042
98	0x3d34d668	0.044149786
99	0x3d92e829	0.07173187
100	0xbcae3e48	-0.021269932
101	0xbd8557c0	-0.065108776
102	0xbd1880f6	-0.03723236
103	0xbda23c53	-0.07921662
104	0xbd5f4978	-0.054513425
105	0xbd979c00	-0.074028015
106	0xbd18f378	-0.037341565
107	0xbd0c5f48	-0.034270555
108	0xbd1db1b0	-0.038499534
109	0x3da86c2b	0.082237564
110	0x3d85bb8f	0.065299146
111	0xbcebdca4	-0.028791733
112	0x3d614956	0.05500158
113	0x3b6ee4ba	0.003645225
114	0xbd702339	-0.05862734
115	0xbbdfe328	-0.006832499
116	0x3d838dcf	0.06423532
117	0xbd13a22c	-0.03604333
118	0xbd3851a6	-0.04499974
119	0x3d1fc938	0.039010257
120	0x3a8852c2	0.001040064
121	0xbd7b5088	-0.061356097
122	0xbdaacb16	-0.08339517
123	0xbcaa3bea	-0.020780522
124	0xbc343a1a	-0.011000181
125	0x3d7f59ea	0.062341608
126	0xbd581164	-0.05275096
127	0x3d3359bc	0.04378675
128	0xbc8a955e	-0.016916927
129	0xbc96abf7	-0.018392546
130	0x3bb962e5	0.005657541
131	0xbd6e9ea2	-0.058256753
132	0xbc9ebcf7	-0.019377215
133	0x3d1f1235	0.038835723
134	0xbe90a6f3	-0.28252372
135	0xbd2637be	-0.040580504
136	0xbd385f75	-0.04501291
137	0x3de5877f	0.112074845
138	0xbd07fdef	-0.033201154
139	0xba94d78e	-0.0011355744
140	0xbe8b04ee	-0.271522
141	0xbd059729	-0.03261486
142	0x3e0ffd4c	0.14061469
143	0xbd3f7b5e	-0.04674851
144	0x3dc8e05e	0.0980842
145	0x3bc6a8da	0.006062609
146	0xbe4acef3	-0.19805507
147	0x3c1b68a1	0.009485395
148	0x3d8a667f	0.06757831
149	0x3da00858	0.078140914
150	0x3be62a51	0.0070240875
151	0x3d41a58c	0.04727702
152	0x3d1e9830	0.038719356
153	0xbd537e75	-0.05163427
154	0x3dbc88f2	0.09205808
155	0x3d80a341	0.06281138
156	0x3d536110	0.051606238
157	0xbcfa7aaa	-0.030576069
158	0xbdbb2b1d	-0.091390826
159	0x3cb4eea1	0.022086443
160	0x3c6b75b2	0.0143713225
161	0x3dcf7c4c	0.101311296
162	0xbd5a55da	-0.05330453
163	0x3db0f359	0.08640165
164	0x3dec99b1	0.11552752
165	0x3df17bd9	0.117912
166	0x3aba2559	0.0014201804
167	0x3da3d2b6	0.07999174
168	0x3d49e646	0.04929187
169	0x3b372c18	0.0027949866
170	0x3dc75e24	0.09734753
171	0xbdb1ee93	-0.086880825
172	0x3da0f705	0.07859615
173	0xbd708b2b	-0.05872647
174	0x3ddf5f3e	0.10906838
175	0xbd07d1e9	-0.03315917
176	0x3ddc47fc	0.107559174
177	0xbcf59ba9	-0.029981451
178	0xbc62bfc9	-0.01383967
179	0x3d6ad3a6	0.05733075
180	0x3cf36c32	0.029714677
181	0x3d866505	0.06562237
182	0xbe2d918c	-0.16950053
183	0x3d7dd7ba	0.06197331
184	0x3cdc7ded	0.026915515
185	0x3d18ad51	0.037274662
186	0xbd050cca	-0.0324829
187	0x3e3c9bec	0.18418854
188	0xbde21adf	-0.110402815
189	0xbc147562	-0.009061189
190	0x3daf3b8c	0.085562795
191	0xbd79d997	-0.060998525
192	0xbc79ccac	-0.0152465515
193	0xbcab6808	-0.02092363
194	0x3dce1fac	0.10064635
195	0x3d586b94	0.05283697
196	0xbe7c506a	-0.2464005
197	0xbd0ae0f4	-0.03390594
198	0xbd1d9dd8	-0.03848061
199	0x3cd918a6	0.026501011
200	0x3dc25805	0.09489445
201	0x3d3c2a8e	0.04593902
202	0x3c3ba045	0.011451785
203	0x3d0a03b6	0.033694945
204	0xbd84c413	-0.06482711
205	0x3a83fb1c	0.0010069343
206	0x3daba92d	0.08381877
207	0x3cee7756	0.029109638
208	0xbd3075c2	-0.043081053
209	0x3c16460b	0.009171973
210	0x3dc309c4	0.09523347
211	0xbd3a3b02	-0.04546643
212	0x3e5b40c5	0.21411426
213	0x3dc652bc	0.09683749
214	0x3d6ba05c	0.057525977
215	0x3e007e4a	0.12548175
216	0x3da2fbb0	0.07958162
217	0xbd0bae4a	-0.034101762
218	0xbd233df1	-0.039853994
219	0x3ce96e35	0.028494934
220	0x3d1ba4d1	0.037998978
221	0x3d97730a	0.07394989
222	0xbb91b123	-0.004446165
223	0xbd8d4d22	-0.068994775
224	0xbd72a017	-0.059234705
225	0x3d866127	0.06561499
226	0xbd20c8cb	-0.03925399
227	0x3db0e541	0.08637477
228	0xbbf163f4	-0.0073666517
229	0xbce9a068	-0.02851887
230	0xbc435e01	-0.011924268
231	0xbdc7ef89	-0.097624846
232	0xbb58d00a	-0.0033082985
233	0x3dada345	0.08478407
234	0x3d8e8bde	0.06960271
235	0xbd0f2841	-0.0349505
236	0x3ce25e77	0.027632935
237	0x3d816180	0.06317425
238	0x3dc7504d	0.09732113
239	0xbd6f3f7e	-0.05841016
240	0x3e057625	0.1303335
241	0x3d862b4d	0.06551228
242	0x3c121ce2	0.008918019
243	0x3c47f0c9	0.012203404
244	0xbe3a5b67	-0.1819893
245	0x3d09cc06	0.033641838
246	0x3d1907b5	0.037360866
247	0x3db69ba8	0.08916408
248	0xbcb2f1ab	-0.021843752
249	0xbc315f7c	-0.010825988
250	0xbdb170b5	-0.08664075
251	0xbb9649f2	-0.0045864517
252	0xbdb7fd2d	-0.08983836
253	0xbe0a7cfb	-0.13524239
254	0xbe0c329e	-0.13691184
255	0xbe20c391	-0.15699603

layer2.bias f4 [128]
0	0x3d3d7574	0.04625459
1	0x3d4eac97	0.050457563
2	0x3d89e3ce	0.067329034
3	0x3d2c6897	0.042091932
4	0x3ddd50f9	0.1080646
5	0xbd6a28ff	-0.057168003
6	0x3c7f3bb4	0.015578199
7	0x3d8b3175	0.067965426
8	0xbd3e9a01	-0.04653359
9	0x3d97211a	0.073793605
10	0xbba0acd9	-0.0049034175
11	0x3d6beb55	0.057597477
12	0x3c104400	0.008805275
13	0x3da146a1	0.078747995
14	0xbd6fabd0	-0.058513463
15	0x3c9d9820	0.019237578
16	0x3e0382cb	0.12842862
17	0x3d82effd	0.063934304
18	0x3cd403f2	0.025880788
19	0x3dbb3b42	0.09142162
20	0xbd8a21cd	-0.06744728
21	0x3d046522	0.03232301
22	0xbd9269c9	-0.07149083
23	0x3ca71293	0.020394599
24	0xbcfe6f73	-0.031059003
25	0xbd998378	-0.07495779
26	0xbd3a362e	-0.045461826
27	0x3dec908a	0.11551006
28	0x3d60ec3e	0.054912798
29	0xbdc302a8	-0.09521991
30	0x3c929310	0.01789239
31	0x3d4e0202	0.050294884
32	0x3d9739eb	0.07384094
33	0xbc1e0576	-0.009644857
34	0xbd8a29e8	-0.06746274
35	0x3d68f791	0.056876723
36	0x3a103706	0.0005501363
37	0xbd5c9967	-0.053857233
38	0xbdaac9fd	-0.083393075
39	0xbd924b62	-0.071432844
40	0xbd7ce638	-0.06174299
41	0x3d203f06	0.039122604
42	0x3d6b0da6	0.057386063
43	0xbcd2e94e	-0.025746014
44	0xbd1ebb23	-0.038752686
45	0xbcec6d5e	-0.028860744
46	0xbd0b5bca	-0.034023084
47	0xbbce671f	-0.006298914
48	0x3de0ea1f	0.10982155
49	0xbda27c8e	-0.07933913
50	0xbd8a82e7	-0.06763249
51	0x3de91504	0.113809615
52	0x3b4de539	0.0031417145
53	0xbd04bf1a	-0.03240881
54	0x3db7e278	0.08978742
55	0xbbbec764	-0.005822109
56	0xbda25218	-0.079258144
57	0x3dc37df0	0.09545505
58	0x3d47825d	0.04870831
59	0xbcec17a7	-0.028819872
60	0x3c9ba594	0.018999852
61	0xbd613a0b	-0.054986995
62	0x3daf2657	0.085522346
63	0xbd71437e	-0.058902256
64	0x3e0323b1	0.12806584
65	0x3d18bd40	0.037289858
66	0x3d2592cc	0.0404232
67	0x3cc25202	0.023720745
68	0x3d6c7243	0.057726156
69	0xbcfc4380	-0.030793905
70	0xbdab25f8	-0.08356851
71	0x3dd57db5	0.10424367
72	0x3dcc98e5	0.099901
73	0x3db1bb0a	0.08678253
74	0xbcd3d114	-0.025856532
75	0xbd0d3c55	-0.034481365
76	0xbcae82d5	-0.02130262
77	0x3d9a1715	0.07523934
78	0x3d216562	0.039403327
79	0x3d4a5c15	0.049404223
80	0x3cb65bbd	0.022260541
81	0xbd668d09	-0.056286845
82	0xbd936390	-0.071967244
83	0x3d5d0bba	0.05396626
84	0x3c47c3e2	0.012192698
85	0x3d859ccd	0.06524048
86	0x3d53fbb3	0.05175371
87	0x3d52917f	0.051408287
88	0xbdbad5b6	-0.091227934
89	0x3e191156	0.1494802
90	0xbd090a7c	-0.033457264
91	0x3de49ea9	0.111630745
92	0x3c90c0a3	0.017669981
93	0x3dd5e725	0.10444478
94	0x3a39830a	0.0007076716
95	0x3da53713	0.08067145
96	0x3d197c7d	0.037472237
97	0x3d1cf4ef	0.038319524
98	0x3cf89f8d	0.030349517
99	0xbd8c8855	-0.06861941
100	0x3de83d44	0.113398105
101	0xbd103b33	-0.035212707
102	0x3d28d209	0.04121593
103	0x3c7d3df5	0.015456666
104	0xbc9add7c	-0.01890444
105	0xbbb96f44	-0.005659016
106	0xbd62e6aa	-0.05539576
107	0xbd95042d	-0.07276187
108	0xbd1e9371	-0.03871483
109	0x3dcd409f	0.10022091
110	0x3d729206	0.05922129
111	0xbd554aeb	-0.0520734
112	0x3db0517b	0.08609291
113	0xbd7d362c	-0.06181924
114	0xbc5f2645	-0.013619964
115	0xbd87fec7	-0.06640392
116	0x3d1a3b52	0.03765423
117	0xbca91e94	-0.020644464
118	0xbd8ea5f7	-0.06965249
119	0x3a7da125	0.00096751965
120	0x3d4e93de	0.050433986
121	0xbd7be0a3	-0.061493527
122	0x3d4996a1	0.049215917
123	0xbc82ad38	-0.015951738
124	0xbb996c69	-0.004682113
125	0x3c588544	0.013215367
126	0xbd112496	-0.03543528
127	0x3df703a8	0.12061244

layer3.weight f4 [2, 128]
0	0x3d851d21	0.064996965
1	0x3ddef8e6	0.10887317
2	0x3d06dbab	0.032924335
3	0x3db2a9b4	0.087237746
4	0x3e0c4a05	0.13700111
5	0x3da80671	0.082043536
6	0xbbd66664	-0.0065429676
7	0x3df6835a	0.12036772
8	0x3d01cd60	0.03169
9	0x3e21084c	0.15725821
10	0xbe5d2d24	-0.21599251
11	0x3e23c70d	0.159939
12	0x39df1e88	0.00042556622
13	0x3db75a63	0.08952787
14	0xbb59fc42	-0.003326193
15	0xbce553e2	-0.0279941
16	0x3e002aee	0.12516376
17	0x3cc53bac	0.024076305
18	0x3d66c7a8	0.05634275
19	0x3d83fb8b	0.064444624
20	0xbd63be77	-0.055601563
21	0x3c129fc2	0.008949222
22	0xbcccfedb	-0.025023868
23	0xbc4d7b79	-0.012541645
24	0xbd682333	-0.056674194
25	0xbd0effc9	-0.034911904
26	0xbc983dfd	-0.018584246
27	0x3d9c3dcb	0.076289736
28	0xbbd4ff67	-0.006500173
29	0xbc8846a6	-0.01663525
30	0xbd72ea17	-0.059305277
31	0xbd11de28	-0.035612255
32	0x3c35242e	0.011055989
33	0x3df5fe1b	0.120113574
34	0xbd37ea04	-0.04490091
35	0x3dca4728	0.09876853
36	0x3e605263	0.21906428
37	0xbdbea132	-0.09308089
38	0xbd959d3a	-0.07305379
39	0xbd63be6b	-0.05560152
40	0xbd38a7b4	-0.04508181
41	0x3d8cd69f	0.06876873
42	0x3d73b879	0.0595021
43	0x3db18a33	0.086689375
44	0xbd73396c	-0.059380934
45	0xbd8f7d6f	-0.070063464
46	0xbd1d76e9	-0.03844348
47	0xbb243b87	-0.0025059895
48	0x3dca08ad	0.09864936
49	0x3c8f03e0	0.017457902
50	0xbe8bebcf	-0.27328345
51	0x3e0bf59c	0.13667911
52	0x3e017bca	0.12644878
53	0xbb92825c	-0.0044711065
54	0x3e1046e9	0.1408955
55	0x36e5c908	6.848135e-06
56	0x3cd0ba72	0.025479529
57	0x3cc74a3e	0.024327394
58	0x3e02624a	0.12732807
59	0x3e0d0e73	0.13775043
60	0xbceb6f0a	-0.028739471
61	0xbc223284	-0.009899739
62	0x3dc0da6b	0.0941666
63	0xbd922b26	-0.07137136
64	0x3cc7276a	0.024310786
65	0x3da3d023	0.07998683
66	0x3db5a340	0.08869028
67	0xbdf5c79c	-0.12000963
68	0xbd4054e1	-0.046955947
69	0x3d0919b4	0.033471778
70	0xbe37aaac	-0.179362
71	0x3d575345	0.052569646
72	0x3e3a2a9f	0.18180321
73	0xbdab357a	-0.08359809
74	0x3db9e66e	0.09077154
75	0xbd2d7fc9	-0.042358194
76	0xbd074802	-0.033027656
77	0x3e033dac	0.12816495
78	0xbe14128f	-0.14460205
79	0x3d23061e	0.039800756
80	0x3e052293	0.1300147
81	0xbd4e736d	-0.050403047
82	0xbd0a8121	-0.033814553
83	0xbd4eb65e	-0.050466888
84	0xbd9df75c	-0.07713196
85	0xbd8b4b3f	-0.068014614
86	0xbc18ae52	-0.009318905
87	0xbdb7fd04	-0.08983806
88	0xbd8a5f3f	-0.06756448
89	0x3d13fa95	0.036127646
90	0xbe0ecf49	-0.1394626
91	0x3e163096	0.14666972
92	0x3d589935	0.052880485
93	0x3d949cbc	0.07256457
94	0x3db1c115	0.086794056
95	0x3d711ad2	0.05886347
96	0xbe55fdf7	-0.20897661
97	0xbd96a7ff	-0.073562615
98	0x3e32b644	0.17452341
99	0x3b92e51e	0.0044828793
100	0x3e1fd88a	0.15609947
101	0xbd5da766	-0.05411472
102	0x3e1dc047	0.15405379
103	0x3da68a26	0.081318185
104	0x3d9b34e9	0.07578451
105	0x3e4f412a	0.20239702
106	0xbd5bf1cf	-0.053697404
107	0xbdfe9a6d	-0.12431798
108	0x3e06a67c	0.13149446
109	0x3dee6208	0.11639792
110	0xbd425377	-0.04744288
111	0xbd6b41b4	-0.057435706
112	0x3e2731fc	0.16327661
113	0x3b8b7ec4	0.004257055
114	0xbd8f00a2	-0.069825426
115	0xbc924b7b	-0.017858258
116	0xbc7d586a	-0.015462974
117	0xbcd5a34c	-0.026078843
118	0x3c7a0f6e	0.015262468
119	0x3e00b3af	0.12568544
120	0x3b846a3c	0.0040409844
121	0x3afa2e46	0.0019087277
122	0x3e24c092	0.16089085
123	0x3b888c52	0.004167118
124	0xbcb240ed	-0.021759475
125	0xbd51e70e	-0.05124574
126	0xbcbd4e75	-0.0231087
127	0x3dd3708f	0.10324203
128	0x3b0bf1c2	0.0021353816
129	0x3d4894ff	0.04897022
130	0xbd17a6c1	-0.037024263
131	0x3d8d5b0d	0.06902132
132	0x3db90a52	0.090351716
133	0x3e03b368	0.12861407
134	0x3bb598a3	0.0055418774
135	0x3dbcc90d	0.09218035
136	0xbc6fde22	-0.014640363
137	0x3cbae832	0.022815797
138	0xbe1994e9	-0.14998211
139	0x3def6af6	0.11690323
140	0x3d589a5e	0.05288159
141	0x3deff6ee	0.1171702
142	0xbda9276f	-0.082594745
143	0x3b10cecb	0.0022095914
144	0xbd1f74c7	-0.038929727
145	0xbd9dea6f	-0.0771073
146	0xbd4e8dba	-0.05042813
147	0x3de68999	0.112567134
148	0x3d08f015	0.033432085
149	0xbcad574d	-0.021159792
150	0xbd86e369	-0.06586344
151	0xbca776c8	-0.020442382
152	0xbcb90ca4	-0.022589035
153	0xbd0dd5fe	-0.034627907
154	0xbd72bad1	-0.059260193
155	0x3e2786b4	0.16359979
156	0x3cdf67d4	0.027271189
157	0xbd8f7b76	-0.0700597
158	0x3bfbe9ac	0.007687768
159	0xbda6b3d3	-0.081397675
160	0x3e26456f	0.16237424
161	0x3e11ba53	0.14231233
162	0x3cd18586	0.025576364
163	0x3e002b55	0.1251653
164	0x3e529848	0.20565903
165	0xbd66eb81	-0.056376938
166	0xbd4c2336	-0.049838267
167	0xbd053670	-0.03252262
168	0xbd71eca5	-0.059063572
169	0x3e1985e0	0.14992476
170	0x3e215259	0.1575407
171	0x3d9a7f3f	0.075438015
172	0x3d2f741a	0.042835332
173	0xbdb9b60a	-0.09067924
174	0x3c8e4efe	0.01737165
175	0xbd9bb304	-0.07602504
176	0x3d338c81	0.043835167
177	0xbca33a8c	-0.019925378
178	0xbcd84499	-0.026399897
179	0x3e11f241	0.14252569
180	0x3dd2445e	0.10266946
181	0xbd97583c	-0.07389876
182	0xbd1c59c4	-0.038171545
183	0xbca7fd22	-0.020506445
184	0x3ba25410	0.0049538687
185	0x3e0ad590	0.1355803
186	0x3e0d211c	0.13782161
187	0xbc028544	-0.007966343
188	0xbb8cef0c	-0.0043009575
189	0xbd57ddb0	-0.052701652
190	0x3df49955	0.11943308
191	0xbcadf8a5	-0.021236727
192	0x3e067799	0.1313156
193	0xbc169ea3	-0.009193095
194	0x3db7ea79	0.08980269
195	0x3dbdae34	0.09261742
196	0x3d46b760	0.048514724
197	0x3e139f99	0.1441635
198	0xbd5e07ea	-0.054206766
199	0x3e0f581e	0.13998458
200	0x3e3030fc	0.17206186
201	0x3c95b677	0.018275483
202	0x3e083b0d	0.13303776
203	0xbd93ae16	-0.07210939
204	0xbd2f904c	-0.04286222
205	0x3deb6f53	0.11495843
206	0xbdca0b85	-0.098654784
207	0xbd94b946	-0.072619006
208	0x3d98e22e	0.07465015
209	0x3d129161	0.035783175
210	0xbcdbba12	-0.026822124
211	0x3d41212d	0.04715078
212	0xbd1eafd4	-0.0387419
213	0xbc572a5a	-0.013132656
214	0xbc3e28ab	-0.011606376
215	0xbd305aaf	-0.043055233
216	0x3c447bd6	0.011992415
217	0x3e2263b1	0.15858342
218	0x3c441923	0.011968884
219	0x3d1b820f	0.03796583
220	0x3e025dc0	0.12731075
221	0x3e3a5d12	0.18199566
222	0x3d602724	0.054724827
223	0x3e5774c4	0.21040636
224	0xbdc447f3	-0.09584036
225	0xbbc25ca7	-0.005931455
226	0x3dc45d7c	0.09588143
227	0xbd694bae	-0.05695694
228	0x3e2e18d3	0.17001657
229	0xbd9b1429	-0.075722046
230	0x3bbc866c	0.005753329
231	0xbd98be19	-0.07458133
232	0x3da930c7	0.08261257
233	0x3cdb44a6	0.026766133
234	0xbd43426c	-0.047670767
235	0x3cbb37ff	0.02285385
236	0x3d634a08	0.055490524
237	0x3dc20b67	0.09474831
238	0x3bc9a61c	0.006153835
239	0xbd6af5d9	-0.057363365
240	0x3dca70ce	0.09884797
241	0xbd8c5056	-0.0685126
242	0xbd156bcb	-0.036479753
243	0x3cf513ff	0.029916761
244	0x3d63f404	0.055652633
245	0xbd61c941	-0.05512357
246	0x3d21ca6e	0.039499693
247	0x3daaecdf	0.08345961
248	0x3cfbf932	0.030758474
249	0xbd7f55a2	-0.062337525
250	0x3e2081e4	0.1567455
251	0xbdafc6b2	-0.0858282
252	0xbd8ba642	-0.068188205
253	0xbd21e117	-0.039521303
254	0xbd8fdc9f	-0.07024502
255	0x3db99b28	0.09062797

layer3.bias f4 [2]
0	0x3d16b75d	0.036795963
1	0x3dcdee13	0.10055175
