CartPoleDQN/dqn_cartpole80.pth (torch, 72745 bytes, 6 tensors)

layer1.weight f4 [128, 4]
0	0x3e87096f	0.26374385
1	0xbe587b0c	-0.21140689
2	0x3cc36ebc	0.023856513
3	0xbe039548	-0.12849915
4	0x3e61c4ac	0.2204768
5	0xbef4f212	-0.47840935
6	0x3ed16e54	0.40904486
7	0x3efd27ff	0.49444577
8	0x3e73ecb1	0.2382076
9	0x3e523077	0.205263
10	0x3dee350f	0.11631214
11	0x3c6a38ef	0.014295801
12	0xbe8195a4	-0.2530948
13	0xbe90bab2	-0.28267437
14	0x3dc9d461	0.09854961
15	0x3c76836e	0.015045984
16	0x3eb4b0b6	0.3529107
17	0xbed660e0	-0.41870785
18	0xbe7c6f91	-0.24651934
19	0xbeaa81f1	-0.33302262
20	0xbf123be1	-0.5712262
21	0xbd504b9f	-0.050853368
22	0x3e88b366	0.2669937
23	0xbe9d3bde	-0.30709738
24	0x3e93bb8c	0.28854024
25	0xbec24fa7	-0.37951395
26	0xbf305270	-0.6887579
27	0xbf0b862e	-0.54501617
28	0x3f5957f4	0.8489983
29	0x3e365f91	0.17809893
30	0xbf51eaba	-0.8199879
31	0xbe6fcf90	-0.23419023
32	0x3f1dc611	0.6163035
33	0xbd2dedca	-0.0424631
34	0xbf5780e0	-0.8418102
35	0x3ec345cc	0.38139188
36	0xbf045f20	-0.5170765
37	0xbe9045ff	-0.28178403
38	0xbe77c93a	-0.24197856
39	0x3de0e2d3	0.10980763
40	0x3e859a13	0.26094112
41	0xbcf353f5	-0.02970312
42	0xbe140a6b	-0.14457099
43	0xbeb8314e	-0.35975116
44	0x3cc4dcf0	0.024031132
45	0x3f0a3a80	0.53995514
46	0x3f424d47	0.75899166
47	0x3e1eafbb	0.15496723
48	0x3eafa7a7	0.34307596
49	0xbf0234c6	-0.50861776
50	0xbf3feb0b	-0.7496802
51	0xbf078927	-0.5294365
52	0xbde92f5d	-0.11385987
53	0xbc2f009d	-0.010681299
54	0xbe9c27d8	-0.30499148
55	0xbe2a6413	-0.16639738
56	0xbeed67e8	-0.46368337
57	0x3eb662fe	0.356224
58	0x3eba2522	0.36356455
59	0x3e1dedeb	0.1542279
60	0x3dd80974	0.10548678
61	0xbe9bb769	-0.30413368
62	0x3f4c2b39	0.7975345
63	0x3eb54afb	0.35408768
64	0x3f03932f	0.5139646
65	0xbdfa8eb1	-0.122342475
66	0xbd9a62f9	-0.07538409
67	0x3e966204	0.29371655
68	0xbe27c29e	-0.16382834
69	0xbe840a2f	-0.2578902
70	0xbdb32541	-0.0874734
71	0xbe735243	-0.23761849
72	0x3ddc3c9a	0.10753746
73	0x3e1e9586	0.15486726
74	0x3f0efe75	0.5585702
75	0x3e243b8b	0.16038339
76	0x3d3ca7a3	0.04605831
77	0x3e5fc89c	0.2185387
78	0xbf2e8e5b	-0.6818597
79	0xbf0d7e4c	-0.5527084
80	0xbe899d13	-0.2687765
81	0xbec7ad16	-0.38999242
82	0x3f16765e	0.58774364
83	0x3ec10a9d	0.3770341
84	0xbeb78b93	-0.35848674
85	0x3edd8863	0.43268117
86	0x3f107b29	0.5643793
87	0xbe82ac18	-0.25521922
88	0x3eb72c09	0.35775784
89	0xbed621c7	-0.41822645
90	0xbdad9865	-0.084763326
91	0x3e3d768b	0.18502252
92	0x3eb5b9b1	0.35493234
93	0xbe18b06a	-0.14911047
94	0xbebf88bd	-0.3740901
95	0xbd6f0148	-0.05835083
96	0xbeebd8e5	-0.46063915
97	0x3e9aaa01	0.30207828
98	0xbef30621	-0.47465613
99	0xbcad76b2	-0.021174762
100	0x3efbb913	0.49164638
101	0x3bbfd51e	0.005854263
102	0xbf048493	-0.5176479
103	0xbdbb26e6	-0.09138279
104	0xbccd909e	-0.025093373
105	0x3d881cb9	0.066461034
106	0xbe4694ca	-0.19392696
107	0x3cc4ea12	0.024037395
108	0xbe08d181	-0.1336117
109	0x3f0fbe4f	0.5614976
110	0x3f05936b	0.52178067
111	0x3ea4f4a2	0.3221789
112	0xbeb32ffc	-0.34997547
113	0x3efff26c	0.4998964
114	0x3e3ab4b3	0.18232994
115	0xbed08a30	-0.4073043
116	0xbef4ccb7	-0.47812435
117	0x3e07fc48	0.13279831
118	0x3dfbb627	0.12290602
119	0xbde6d1d4	-0.1127049
120	0x3ef70363	0.4824477
121	0xbdb3a84c	-0.087723345
122	0xbe0a2b11	-0.13492991
123	0xbedca090	-0.4309125
124	0xbd61165e	-0.05495297
125	0x3c162315	0.009163638
126	0xbeb818c7	-0.35956404
127	0xbdd30031	-0.10302771
128	0xbed16485	-0.40897003
129	0x3db7cf3d	0.089750744
130	0x3f4f6e6f	0.81027883
131	0x3eea3fe4	0.4575187
132	0x3df5c7fa	0.12001033
133	0x3df7618f	0.12079155
134	0xbe82f838	-0.2558
135	0x3e340c35	0.17582782
136	0xbedd2e87	-0.4319956
137	0x3e719901	0.23593523
138	0xbdf35ec8	-0.118833125
139	0x3e2e047f	0.16993903
140	0xbe53922e	-0.20661232
141	0xbea62e93	-0.32457408
142	0xbd384c0d	-0.044994403
143	0xbec8d718	-0.39226604
144	0x3f02a8a5	0.5103858
145	0xbeda28ff	-0.42609403
146	0xbf0fe809	-0.5621343
147	0xbdb164f7	-0.08661836
148	0x3f217683	0.6307146
149	0xbe99617f	-0.29957196
150	0xbef31ec8	-0.47484422
151	0x3d5890d2	0.052872486
152	0x3e1ac464	0.1511398
153	0x3edde590	0.43339205
154	0x3dac5b5c	0.08415863
155	0x3df37b07	0.118887
156	0x3d7fc400	0.06244278
157	0x3f074d84	0.52852654
158	0x3e8175bb	0.25285134
159	0x3b5262fe	0.003210246
160	0x3e9d2389	0.30691174
161	0xbe0c0e76	-0.13677391
162	0x3e44cdb1	0.1921909
163	0xbe9e9393	-0.30971965
164	0x3d8e9eb8	0.06963867
165	0xbe193b88	-0.14964116
166	0x3dd8f697	0.10593908
167	0xbe0b47b6	-0.13601574
168	0x3f06ed36	0.52705705
169	0xbe674e64	-0.22588497
170	0x3dc65c40	0.09685564
171	0x3e36b0ed	0.1784093
172	0x3da445c0	0.08021116
173	0x3a855ad4	0.0010174164
174	0xbed88277	-0.42287037
175	0x3de3afed	0.111175396
176	0xbdbfb4db	-0.09360667
177	0xbe382dd0	-0.17986226
178	0xbf521cad	-0.82075006
179	0x3ea016d4	0.31267416
180	0x3d84440c	0.064582914
181	0x3e8c8237	0.27443096
182	0x3eeca5c6	0.46220225
183	0x3e0b0fb6	0.13580212
184	0xbdd47fe5	-0.103759564
185	0xbe251f0c	-0.16125125
186	0xbeee1036	-0.46496743
187	0x3e23ea8b	0.1600744
188	0xbecab4e4	-0.39591134
189	0x3e94262f	0.28935382
190	0x3e021988	0.12705052
191	0xbe0f4efb	-0.13994972
192	0xbe355dfb	-0.17711632
193	0x3d84533d	0.06461189
194	0x3efe234f	0.49636313
195	0x3d817550	0.06321204
196	0x3e115223	0.14191489
197	0xbea8577f	-0.32879254
198	0x3e521ab6	0.20518002
199	0x3eda62cb	0.42653498
200	0x3df3221f	0.118717425
201	0xbe140353	-0.14454393
202	0x3f0805df	0.5313396
203	0xbd8be7a6	-0.06831293
204	0x3dc5e31e	0.0966246
205	0xbed1835f	-0.4092054
206	0x3ecc8011	0.39941457
207	0x3ec8ed0f	0.3924336
208	0xbd365553	-0.044514965
209	0xbe00b270	-0.12568069
210	0xbd40c158	-0.047059387
211	0xbe87a279	-0.26491144
212	0xbecab391	-0.39590123
213	0xbea24340	-0.31691933
214	0xbd8e0445	-0.06934408
215	0xbe5f08f6	-0.21780762
216	0x3efdd8cb	0.49579462
217	0xbe8dfeda	-0.277335
218	0xbf46c637	-0.776462
219	0xbedf9364	-0.43667138
220	0xbc8b4806	-0.017002117
221	0x3ecdb316	0.40175694
222	0x3ebe52bd	0.371725
223	0x3e8d5fbe	0.27612108
224	0x3edefad8	0.43550754
225	0xbcfbe587	-0.030749096
226	0x3eea2430	0.45730734
227	0xbe70673d	-0.23476882
228	0x3ef90781	0.48638538
229	0xbf020277	-0.5078501
230	0xbf03e8ab	-0.515269
231	0xbdd1aa99	-0.10237617
232	0xbee21fb8	-0.44164824
233	0xbedaa91b	-0.42707142
234	0x3e5f1b47	0.21787749
235	0xbe0f38c9	-0.13986506
236	0x3f15a6e5	0.58457786
237	0xbe885ba9	-0.2663243
238	0xbf13a3cd	-0.57671815
239	0xbd39ba9d	-0.045343984
240	0x3f2b8cd8	0.67011786
241	0xbe9a2ebf	-0.3011379
242	0xbeb7031d	-0.35744563
243	0xbec5ea81	-0.38655475
244	0x3e831599	0.25602415
245	0xbecd0e8c	-0.4005016
246	0xbe9ebefc	-0.31005085
247	0xbd9b5e17	-0.075863056
248	0x3e893c9f	0.26804063
249	0x3e8c3dd9	0.27390936
250	0x3d6e895d	0.05823647
251	0xbc4f1cc5	-0.012641137
252	0x3f34f221	0.7068196
253	0x3ea2e260	0.31813335
254	0xbf5beafb	-0.85905427
255	0xbdf4d4a2	-0.11954619

layer1.bias f4 [128]
0	0xbeeb7b06	-0.45992297
1	0xbe5e6902	-0.21719745
2	0x3eedeb35	0.4646851
3	0x3e625002	0.22100833
4	0x3ee717d6	0.45135373
5	0x3f10117c	0.5627668
6	0xbeab44a7	-0.33450815
7	0xbeae0f18	-0.3399589
8	0x3e54ab5b	0.20768492
9	0x3f1601eb	0.58596677
10	0xbeabd320	-0.33559513
11	0x3e5718c9	0.21005549
12	0xbe8b775e	-0.27239507
13	0x3f17cd31	0.5929747
14	0x3e863207	0.26210043
15	0xbedd6d9b	-0.43247685
16	0x3eea665f	0.45781228
17	0xbeb3256d	-0.3498949
18	0xbda7cbc3	-0.08193161
19	0x3e0973da	0.134231
20	0xbee812a5	-0.45326725
21	0x3e5d1a3a	0.21592036
22	0x3ef02042	0.4689961
23	0x3f0698bf	0.5257682
24	0xbeafb581	-0.34318164
25	0xbed0a028	-0.4074719
26	0x3edbfcb3	0.42966232
27	0x3e9d95ae	0.3077826
28	0x3f136603	0.5757753
29	0x3ec94afc	0.3931502
30	0xbec8d27d	-0.3922309
31	0x3ee8c12c	0.45459878
32	0xbe7d5a96	-0.24741587
33	0x3f18396b	0.5946261
34	0xbe954c2a	-0.2915967
35	0x3f048797	0.51769394
36	0xbe30248e	-0.17201445
37	0x3ec1524f	0.3775811
38	0x3e2caa76	0.168619
39	0x3e3c1905	0.18368919
40	0x3f0d2ec9	0.55149513
41	0xbe8efea6	-0.27928656
42	0x3e364843	0.17801003
43	0xbed9588e	-0.42450374
44	0x3e30d847	0.17270003
45	0xbea5da96	-0.3239333
46	0x3e8174de	0.25284475
47	0x3e1a7b91	0.150862
48	0x3e668dcb	0.22515027
49	0x3ddb97e3	0.107223295
50	0x3f09a90e	0.5377358
51	0x3e84b31a	0.25917894
52	0x3efa60e4	0.48902047
53	0xbe520417	-0.20509373
54	0xbe9c2c4c	-0.30502546
55	0xbee8af41	-0.45446208
56	0x3f138d69	0.5763765
57	0xbe8309d6	-0.25593442
58	0x3eb1b535	0.34708562
59	0xbd6e3cad	-0.058163334
60	0xbe5318e5	-0.20614965
61	0x3de45d89	0.11150653
62	0x3f0e85bb	0.55672807
63	0x3d4c6f83	0.049911033
64	0x3ed7a84e	0.42120594
65	0x3d4ae0b4	0.0495307
66	0x3ecfb240	0.4056568
67	0x3ebd41c3	0.36964235
68	0xbebb3f9a	-0.36571962
69	0x3d8002e2	0.0625055
70	0x3c2e2866	0.010629749
71	0x3ec1550e	0.37760204
72	0x3db99559	0.09061689
73	0x3e6ce6ad	0.23134871
74	0xbdf5dadf	-0.12004637
75	0x3e8dd586	0.27701968
76	0xbe6dbe4b	-0.23217122
77	0xbe9ed616	-0.3102271
78	0x3f14d329	0.58134705
79	0x3ee45c0b	0.44601473
80	0x3ec9d612	0.39421135
81	0xbe6ebce2	-0.2331424
82	0x3efe4001	0.49658206
83	0x3f068de5	0.52560264
84	0xbd2f99f6	-0.042871438
85	0x3f04fe42	0.51950467
86	0x3de43c42	0.11144306
87	0x3e433134	0.19061738
88	0x3f074c51	0.52850825
89	0xbe2ac33e	-0.16676041
90	0x3f224def	0.6340017
91	0x3ef263f2	0.47341877
92	0xbd99df60	-0.075133085
93	0x3f14a3f8	0.58062696
94	0xbeabcb02	-0.3355332
95	0x3dc3d7f6	0.09562676
96	0xbe1d6bce	-0.15373155
97	0x3c5c3851	0.013441161
98	0x3e7d2cf6	0.24724182
99	0x3f0b75f1	0.5447684
100	0x3f0d0c91	0.550973
101	0x3f033103	0.5124666
102	0xbe604530	-0.21901393
103	0xbebebc2e	-0.37252945
104	0xbe390688	-0.18068898
105	0xbe92387a	-0.28558713
106	0xbeb24a7c	-0.34822452
107	0x3e1826c7	0.14858542
108	0x3e50f617	0.20406376
109	0x3e1f8bbe	0.15580651
110	0x3e69ba14	0.2282489
111	0xbebd6e94	-0.36998427
112	0x3e324b69	0.17411579
113	0x3e6e35c0	0.23262691
114	0x3f0868b7	0.5328478
115	0xbe6379be	-0.2221441
116	0xbedaeabf	-0.42757222
117	0x3c0864b0	0.008324787
118	0x3ee9cd64	0.45664513
119	0xbe83465c	-0.25639617
120	0xbeb3473f	-0.35015294
121	0xbee5b721	-0.4486628
122	0xbe77baa8	-0.24192297
123	0x3eaf58bc	0.34247386
124	0xbe36a6fd	-0.17837138
125	0xbe3ba3f1	-0.18324257
126	0xbefa1cfa	-0.48850232
127	0xbea59985	-0.3234369

layer2.weight f4 [128, 128]
0	0x3a11bb43	0.0005559215
1	0x3d8acf55	0.06777827
2	0xbd8edcc2	-0.069757
3	0x3daa8555	0.08326212
4	0xbd52a32d	-0.051425148
5	0xbd8f0be0	-0.06984687
6	0xbd959476	-0.07303707
7	0xbd8ddea7	-0.06927233
8	0xbd4b455d	-0.049626697
9	0xbd019320	-0.03163445
10	0x3d8f8737	0.07008212
11	0x3cab161d	0.020884568
12	0x3d8f46e5	0.06995944
13	0xbd957119	-0.07296962
14	0x3cd98f77	0.026557667
15	0x3d9eae71	0.07748116
16	0xbcd47402	-0.025934223
17	0xbd597717	-0.05309209
18	0xbda390c8	-0.07986599
19	0xbd0c9846	-0.034324907
20	0xbd0ba37f	-0.03409147
21	0xbc002bf2	-0.007822977
22	0xbd92cdbd	-0.07168148
23	0x3d897fd7	0.06713837
24	0xbc05f45c	-0.008175936
25	0x3da58c34	0.08083382
26	0xbcc64d22	-0.024206702
27	0x3db280ff	0.0871601
28	0x3da535dd	0.08066914
29	0xbd976e7c	-0.0739412
30	0xbd574e70	-0.05256504
31	0xbd83db86	-0.06438355
32	0x3c8fb1b4	0.01754079
33	0x3d4b9a96	0.04970797
34	0xbcdcea8d	-0.026967311
35	0x3d7ad550	0.061238587
36	0x3bb19f96	0.0054206355
37	0x3d975159	0.07388563
38	0xbd5e8fbc	-0.054336295
39	0xbd4c5cba	-0.04989312
40	0xbcc06690	-0.023486406
41	0x3c234f90	0.0099677
42	0xbd9f2709	-0.07771117
43	0xbaa4f424	-0.0012584967
44	0xbd253581	-0.04033423
45	0x3d7f4aca	0.062327184
46	0x3cdef4b4	0.027216293
47	0xba95644a	-0.0011397686
48	0xbbb192d6	-0.0054191155
49	0xbd80f282	-0.06296255
50	0xbd98fa41	-0.07469607
51	0xbce7dd9f	-0.02830392
52	0x3b8a9fc6	0.0042304723
53	0xbd4d2452	-0.050083466
54	0xbc2c1424	-0.010502849
55	0x3c215b98	0.009848498
56	0xbc546663	-0.012963864
57	0xbd6301d9	-0.055421684
58	0x3d9e59a1	0.07731939
59	0xbc9d0dae	-0.019171562
60	0x3c4c7dd8	0.012481175
61	0x3d59c514	0.053166464
62	0x3d4cc2ba	0.049990393
63	0xbd91ac75	-0.07112972
64	0x3d3bfce8	0.045895487
65	0x3d49b505	0.0492449
66	0xbcdef618	-0.027216956
67	0x3d8b7f3b	0.06811377
68	0xbdac768d	-0.08421049
69	0xbda026b1	-0.0781988
70	0xbd7ec19c	-0.06219636
71	0x3cd0281a	0.025409747
72	0x3d23acaa	0.039959587
73	0x3d070846	0.032966875
74	0xbd89d57e	-0.067301735
75	0xbb41706c	-0.0029516472
76	0xbd1cc788	-0.038276225
77	0x3d8c22a0	0.06842542
78	0xbd18d6c4	-0.03731419
79	0x3ce90bc0	0.028447986
80	0xbd59cc07	-0.05317309
81	0xbcd67490	-0.026178628
82	0xbd93d263	-0.072178625
83	0xbd47da52	-0.04879219
84	0x3c83cd68	0.016089156
85	0x3c7164f5	0.014733543
86	0x3d927469	0.0715111
87	0xbce46c20	-0.02788359
88	0xbd000cd4	-0.031262234
89	0x3d707edc	0.058714733
90	0xbcbfd8a8	-0.02341874
91	0xbd8e7fe2	-0.069579855
92	0x3d76cdfc	0.060255036
93	0xbd5f0c1b	-0.054454904
94	0xbcccae6c	-0.024985515
95	0x3da9801f	0.0827639
96	0x3c9fed44	0.019522317
97	0xbd6e8f56	-0.058242165
98	0x3d33c46c	0.043888494
99	0x3d920525	0.071298875
100	0xbcad3420	-0.02114302
101	0xbd848c38	-0.06472057
102	0xbd17961e	-0.037008397
103	0xbda14201	-0.07873917
104	0xbd5df58f	-0.05418926
105	0xbd96b420	-0.07358575
106	0xbd1808a0	-0.0371176
107	0xbd0b8bec	-0.034068987
108	0xbd1cbf04	-0.038268104
109	0x3da769d7	0.08174484
110	0x3d84f007	0.06491094
111	0xbcea748c	-0.028620027
112	0x3d5ff0e6	0.054673098
113	0x3b6d7833	0.0036234974
114	0xbd6eb34d	-0.058276463
115	0xbbde8bc1	-0.0067915623
116	0x3d82c247	0.06384712
117	0xbd12bf28	-0.035826832
118	0xbd3737d6	-0.044730984
119	0x3d1ed68c	0.038778827
120	0x3a878120	0.0010338165
121	0xbd79d0f4	-0.06099029
122	0xbda9c8c2	-0.08290245
123	0xbca93996	-0.020657342
124	0xbc33281e	-0.010934858
125	0x3d7dd282	0.061968334
126	0xbd56c89c	-0.05243741
127	0x3d3247c0	0.043525457
128	0xbc89c202	-0.016816143
129	0xbd80de72	-0.06292428
130	0x3d58bf82	0.05291701
131	0xbd37f3f8	-0.0449104
132	0x3cd6a9c4	0.026203997
133	0x3d998f67	0.07498055
134	0xbedb01aa	-0.42774707
135	0xbdb6ef66	-0.089323804
136	0xbd358e9f	-0.044325467
137	0x3e0ae185	0.13562591
138	0xbda8b4e1	-0.08237625
139	0x3d549093	0.05189569
140	0xbeda50df	-0.42639825
141	0x3c1944fe	0.009354828
142	0x3e31a0e9	0.17346539
143	0xbe09b7ce	-0.13449022
144	0x3df70510	0.120615125
145	0xbd5565b1	-0.052098934
146	0xbe872695	-0.26396623
147	0x3c8652ad	0.016396845
148	0xbbaa73cf	-0.0052017937
149	0x3dbdf8e2	0.09275986
150	0x3cc74032	0.024322603
151	0x3db6d3b7	0.089271
152	0xbd0d36a2	-0.03447593
153	0xbe7899cd	-0.2427742
154	0x3e077c95	0.13231118
155	0x3dcd04ab	0.10010656
156	0x3d8bfa40	0.06834841
157	0x3c05f51f	0.008176117
158	0xbe247f17	-0.16064106
159	0x3d857318	0.06516093
160	0xbd57ccaf	-0.052685436
161	0x3e0e8feb	0.13922088
162	0xbdd69bad	-0.104789115
163	0x3e013469	0.12617649
164	0x3e008974	0.12552434
165	0x3e1ba42d	0.15199347
166	0x3d23ccf6	0.039990388
167	0x3ddb78a9	0.107163735
168	0x3dbfbce9	0.09362204
169	0x3b361248	0.0027781893
170	0x3db19d7e	0.086726174
171	0xbdb0dc97	-0.08635824
172	0x3d914679	0.0709352
173	0xbd6f1b3f	-0.058375593
174	0x3e0c7ccb	0.1371948
175	0xbceff655	-0.029292265
176	0x3e07fed7	0.13280807
177	0xbd79310a	-0.060837783
178	0x3ca0e0b0	0.01963839
179	0x3d170470	0.036869466
180	0x3d95e745	0.07319502
181	0x3e1eee4c	0.1552059
182	0xbe8b772c	-0.27239358
183	0x3d7c5616	0.061605535
184	0x3d95587f	0.0729227
185	0x3c856e10	0.016287833
186	0xbc46a98f	-0.012125387
187	0x3e917d3e	0.28415865
188	0xbe21860d	-0.15773793
189	0x3ce9db98	0.028547093
190	0x3e05eb2c	0.13077992
191	0xbd2c0edc	-0.04200636
192	0x3c6a89cb	0.014315079
193	0xbd144a0f	-0.03620344
194	0x3ddd4381	0.10803891
195	0x3d92f61d	0.07175849
196	0xbeb9e35d	-0.36306277
197	0x3c155772	0.009115087
198	0xbd78e5fc	-0.060766205
199	0x3d713583	0.058888923
200	0x3dcbc2c8	0.09949261
201	0x3d7707ce	0.060310178
202	0x3b3d3279	0.0028869195
203	0x3d9e61b4	0.07733479
204	0x3c24dba4	0.010062132
205	0x3a832f94	0.0010008686
206	0x3dee11d4	0.11624494
207	0x3d8f75d1	0.070048936
208	0xbc7195c6	-0.014745181
209	0xbdab9f4e	-0.08379994
210	0x3dec5d99	0.1154129
211	0xbc4a8f40	-0.012363255
212	0x3e987f26	0.29784507
213	0x3dfa18a3	0.1221173
214	0x3cbbd184	0.022927053
215	0x3e23d972	0.16000918
216	0x3ddfed59	0.10933942
217	0xbd1f8619	-0.038946245
218	0xbc8dff86	-0.017333757
219	0x3d693f18	0.056944937
220	0x3c19d9fd	0.009390351
221	0x3dd306f8	0.103040636
222	0xbb90d5f3	-0.004420036
223	0xbdb4356c	-0.08799252
224	0xbe9e0107	-0.3086016
225	0x3d15b471	0.036549035
226	0xbb41af56	-0.0029553971
227	0x3de133cd	0.10996208
228	0x3c99c71c	0.0187717
229	0x3ba8b498	0.0051484816
230	0xbd15f997	-0.03661498
231	0xbe6adaef	-0.22935079
232	0xbd3bd2aa	-0.0458552
233	0x3dac991d	0.084276415
234	0x3c9b897a	0.018986452
235	0xbd2e4a43	-0.04255129
236	0x3d7bcd9d	0.061475385
237	0x3db2a3dd	0.08722661
238	0x3de25136	0.11050646
239	0xbd6dd109	-0.05806068
240	0x3e1863f4	0.14881879
241	0x3dc23cc3	0.09484246
242	0x3d18baa9	0.037287388
243	0xbbdf7e59	-0.0068204817
244	0xbeaae952	-0.33381134
245	0x3d4bed6a	0.049786963
246	0x3d82b685	0.06382469
247	0xbe48be15	-0.1960376
248	0xbd2c5e2b	-0.042081993
249	0xbd900481	-0.07032109
250	0xbe644053	-0.22290163
251	0x3cb1a575	0.021685341
252	0xbe32615d	-0.17419954
253	0xbe1e23ad	-0.15443297
254	0xbe8f4da3	-0.2798892
255	0xbe9c160e	-0.30485576

layer2.bias f4 [128]
0	0x3d3c53d0	0.045978367
1	0x3dacaeb5	0.0843176
2	0x3d891072	0.0669259
3	0x3d78b515	0.06071957
4	0x3dfd2f3e	0.12362526
5	0xbd44f7d4	-0.04808791
6	0x3c345c6e	0.011008365
7	0x3daa0abf	0.08302831
8	0xbd3d785d	-0.046257365
9	0x3dffa69a	0.124829486
10	0x3c6fa1a8	0.014625944
11	0x3dcbd5b6	0.099528715
12	0x3c0f68d0	0.008753017
13	0x3db4f2ab	0.08835348
14	0xbd88e43b	-0.066841565
15	0x3c384425	0.011246716
16	0x3e458f56	0.1929296
17	0x3d822891	0.06355394
18	0x3cd2c2fe	0.025727745
19	0x3dd94dc6	0.10610537
20	0xbd91c82c	-0.07118258
21	0x3d03999a	0.032128908
22	0xbd918a3e	-0.07106446
23	0xbb54b514	-0.0032456564
24	0xbcfceac6	-0.030873667
25	0xbd9898a0	-0.07450986
26	0xbd293d79	-0.04131839
27	0x3e0ab4e7	0.13545571
28	0x3d3f6bdc	0.046733722
29	0xbdb41e75	-0.08794872
30	0x3c7f8677	0.015596024
31	0x3d4b4732	0.049628444
32	0x3d95b6a6	0.07310228
33	0x3c3e5610	0.011617199
34	0xbd89568c	-0.06705961
35	0x3d931a1b	0.071827136
36	0x3ceb932f	0.028756706
37	0xbd5ce7fd	-0.05393218
38	0xbda9c7a9	-0.08290035
39	0xbd916ce3	-0.071008466
40	0xbd7b66a4	-0.061377183
41	0x3d5d92af	0.054094967
42	0x3d956d8b	0.07296284
43	0xbd067c42	-0.032833345
44	0xbd1dc877	-0.038521256
45	0xbcd6ced0	-0.026221663
46	0xbcf9f826	-0.030513834
47	0xbbcd2dff	-0.0062615867
48	0x3e22a433	0.1588295
49	0xbdb42805	-0.087966956
50	0xbd916cc8	-0.071008265
51	0x3dff76ce	0.12473832
52	0x3cc29495	0.02375249
53	0xbcdc8f0e	-0.026923683
54	0x3e21708f	0.15765594
55	0xbbcb16d6	-0.0061977906
56	0xbdb405cb	-0.087901674
57	0x3ddfecae	0.10933815
58	0x3d7276b0	0.05919522
59	0xbd1c8cf9	-0.03822038
60	0x3c9ababc	0.01888787
61	0xbd5fe19b	-0.054658514
62	0x3de5397a	0.111926034
63	0xbd61385b	-0.054985385
64	0x3e0e9aed	0.13926287
65	0x3dd4cd8c	0.103907675
66	0x3d9bcba8	0.07607204
67	0x3d680f39	0.056655142
68	0x3d6b0a2b	0.057382744
69	0xbc5cb725	-0.013471399
70	0xbd89028c	-0.06689939
71	0x3de6daf5	0.112722315
72	0x3e03b6b6	0.12862667
73	0x3dd9b90a	0.106309965
74	0xbbf295ba	-0.0074031027
75	0xbd0fe967	-0.0351347
76	0xbcad78ad	-0.021175707
77	0x3dad4f34	0.084623724
78	0x3d3e7ea2	0.046507485
79	0x3d492a04	0.049112335
80	0x3d8c4331	0.06848753
81	0xbd10597f	-0.0352416
82	0xbda3f2d9	-0.08005304
83	0x3d284614	0.041082457
84	0x3cca709a	0.024711896
85	0x3d763fb4	0.060119346
86	0x3d467211	0.048448626
87	0x3d66c406	0.056339286
88	0xbdaa1ef3	-0.08306684
89	0x3e2a474e	0.16628763
90	0xbc329d09	-0.010901698
91	0x3e2b1c84	0.16710097
92	0x3d0cec4d	0.03440504
93	0x3df5d74e	0.12003957
94	0x3ca44413	0.020051992
95	0x3dc37e95	0.09545628
96	0x3d602ad7	0.054728355
97	0x3d298908	0.04139045
98	0x3d9e3df7	0.077266626
99	0xbd9a25a8	-0.075267136
100	0x3e090eab	0.13384502
101	0xbd1c3fe5	-0.038146872
102	0x3dd2599c	0.10270998
103	0x3c7bbe61	0.015365214
104	0xbcd6b9f4	-0.026211716
105	0x3d53b2f0	0.05168432
106	0xbd73d602	-0.059530266
107	0xbdb63cd8	-0.08898324
108	0xbbe87739	-0.0070942906
109	0x3e010194	0.12598258
110	0x3d70d305	0.058794994
111	0xbd48092d	-0.048836876
112	0x3de71377	0.112830095
113	0xbdbda7b6	-0.09260504
114	0xbc776c87	-0.0151015585
115	0xbd873041	-0.066010006
116	0x3d19507a	0.037430264
117	0xbcb00de2	-0.021490995
118	0xbd8dcac7	-0.06923442
119	0x3d3c3e75	0.045958
120	0x3df67311	0.12033666
121	0xbd84edcd	-0.064906694
122	0x3da7f9a6	0.082019135
123	0xbc81e85e	-0.015857872
124	0xbb988191	-0.0046541174
125	0x3c573c7c	0.013136979
126	0xbd104966	-0.03522625
127	0x3e201f54	0.1563695

layer3.weight f4 [2, 128]
0	0x3d845199	0.06460876
1	0x3e3a2acb	0.18180387
2	0x3d061023	0.032730233
3	0x3e17cf6d	0.1482522
4	0x3e515629	0.20443024
5	0x3dfb5689	0.12272365
6	0xbc8b36b9	-0.016993867
7	0x3e3b85ea	0.18312803
8	0x3d0109ac	0.031503364
9	0x3e6fb130	0.23407435
10	0xbecc7bfa	-0.39938337
11	0x3e8421e3	0.25807104
12	0x39ddcb99	0.00042304097
13	0x3e0e92cd	0.13923188
14	0xbb58b12e	-0.0033064592
15	0xbde74bf7	-0.11293786
16	0x3e35bd0d	0.17747898
17	0x3cc41175	0.023934105
18	0x3d656764	0.056006804
19	0x3e08355e	0.13301608
20	0xbe49e4e3	-0.1971622
21	0x3c11be5a	0.008895481
22	0xbccbc5bb	-0.024874559
23	0xbd01e08f	-0.031708296
24	0xbd66c2ef	-0.056338247
25	0xbd0e2499	-0.03470287
26	0xbc98361e	-0.018580493
27	0x3e19d434	0.15022355
28	0xbc9af592	-0.018915925
29	0x3b40ebdd	0.002943746
30	0xbd750b9c	-0.059825525
31	0xbd119a16	-0.03554734
32	0x3da63f54	0.08117548
33	0x3e54b5e6	0.20772514
34	0xbd36d034	-0.04463215
35	0x3e385685	0.18001755
36	0x3e9a600e	0.3015141
37	0xbe538ddf	-0.20659588
38	0xbd94ba36	-0.072620794
39	0xbd6265fb	-0.055273037
40	0xbd378de4	-0.04481305
41	0x3e0799f7	0.13242327
42	0x3e05d6bc	0.13070196
43	0x3e73c3b4	0.23805124
44	0xbd71c95e	-0.05902993
45	0xbdcf32fc	-0.101171464
46	0xbd1ee9e0	-0.03879726
47	0xbb234107	-0.0024910585
48	0x3e320714	0.17385513
49	0x3c08ef69	0.008357861
50	0xbf0d4906	-0.5518955
51	0x3e52bf2d	0.2058074
52	0x3e548ec2	0.20757583
53	0x3d5182a1	0.051149968
54	0x3e534036	0.20629963
55	0xb9bb5a46	-0.00035734678
56	0x3c84ff7d	0.016235108
57	0x3dc1ea3f	0.09468507
58	0x3e418938	0.18900001
59	0x3de6003c	0.112305135
60	0xbcea06f2	-0.028567765
61	0xbc213881	-0.009840132
62	0x3e2c20b1	0.16809346
63	0xbe04c326	-0.12965068
64	0x3db9a774	0.09065142
65	0x3e215fad	0.15759154
66	0x3e2bab85	0.16764648
67	0xbe991577	-0.2989919
68	0xbd3f3101	-0.046677593
69	0x3dd64bf0	0.10463703
70	0xbee219cf	-0.44160315
71	0x3dcfc33f	0.10144662
72	0x3e8f69a3	0.28010282
73	0xbe9bae38	-0.30406356
74	0x3e3b0370	0.1826303
75	0xbd831f7e	-0.06402491
76	0xbd067c7a	-0.032833554
77	0x3e3347f2	0.17507914
78	0xbe9ce853	-0.30646
79	0x3d220b9e	0.03956186
80	0x3e5f054b	0.21779363
81	0xbe928d37	-0.28623363
82	0xbd22ff39	-0.03979418
83	0xbd80d83c	-0.062912434
84	0xbe96dc5f	-0.29465005
85	0xbe1c351d	-0.15254636
86	0xbb26c5b2	-0.0025447425
87	0xbe84de65	-0.25950924
88	0xbe781a36	-0.24228749
89	0x3de4958e	0.11161338
90	0xbeb7c61d	-0.35893336
91	0x3e69d076	0.22833428
92	0x3dd1ac0a	0.10237892
93	0x3e17b66e	0.14815685
94	0x3e113114	0.14178878
95	0x3e14deff	0.14538191
96	0xbee3baad	-0.4447836
97	0xbe48fdbc	-0.19628042
98	0x3e854158	0.26026416
99	0x3bb79e44	0.0056035835
100	0x3e7d2f97	0.24725185
101	0xbd814a79	-0.06313033
102	0x3e6658a5	0.22494753
103	0x3da58e90	0.08083832
104	0x3d9943c1	0.07483626
105	0x3e89a86a	0.26886302
106	0xbd82f788	-0.06394869
107	0xbea57155	-0.32313028
108	0x3e56821c	0.2094807
109	0x3e4e13ac	0.20124692
110	0xbd411d67	-0.04714718
111	0x3e6aeae9	0.22941174
112	0x3e7c4a12	0.2463763
113	0xbcfb6769	-0.030688958
114	0xbdc0bde1	-0.094112165
115	0xbc916cfb	-0.017752161
116	0xbc7bd8d6	-0.015371522
117	0xbcea3d85	-0.028593788
118	0x3c788fda	0.015171016
119	0x3e5e97a8	0.2173754
120	0xbd32f6df	-0.043692466
121	0x3c820714	0.015872516
122	0x3e867273	0.26259193
123	0x3b87b8f6	0.004141922
124	0xbcb12ef1	-0.021628829
125	0xbd50a61a	-0.050939657
126	0xbcbc2cd1	-0.022970589
127	0x3e4857be	0.19564721
128	0x3b0b1e66	0.0021227836
129	0x3de56026	0.111999795
130	0xbd16be85	-0.036802787
131	0x3df44812	0.11927809
132	0x3e236f43	0.15960412
133	0x3e41fe21	0.18944599
134	0x3b93d819	0.004511845
135	0x3e230749	0.15920748
136	0xbc6e6e36	-0.0145526435
137	0x3d5f255c	0.054478988
138	0xbec37408	-0.38174462
139	0x3e33e5bd	0.17568107
140	0x3d575196	0.05256804
141	0x3e3c8fa7	0.18414174
142	0xbd966c84	-0.073449165
143	0xbd33839b	-0.04382668
144	0xbd2c1714	-0.042014197
145	0xbd9cf7c3	-0.07664444
146	0xbd4d549a	-0.05012951
147	0x3e34399c	0.17600101
148	0x3e7a55e5	0.24446829
149	0xbcac4d25	-0.02103288
150	0xbd8617e1	-0.06547523
151	0xbe358456	-0.17726263
152	0xbcb7f2d4	-0.022454657
153	0xbd0cface	-0.034418873
154	0xbde765eb	-0.11298736
155	0x3e8f88df	0.28034112
156	0x3c341e7d	0.010993597
157	0xbe4c1645	-0.1993037
158	0x3bdf3e87	0.0068128738
159	0xbda4b860	-0.08042979
160	0x3e6a2b17	0.22868
161	0x3e6e062d	0.23244543
162	0x3cd04492	0.025423322
163	0x3e5bd03a	0.21466151
164	0x3e96fe45	0.29490867
165	0xbdd26785	-0.10273651
166	0xbd4aea16	-0.049539648
167	0xbd046ae8	-0.032328516
168	0xbd707cb9	-0.058712695
169	0x3e82b63e	0.25529665
170	0x3e50700e	0.20355245
171	0x3d717275	0.058947045
172	0x3d2e69f2	0.042581506
173	0xbe39fa11	-0.18161799
174	0x3c852563	0.016253179
175	0xbd9ac82c	-0.07557711
176	0x3dac6802	0.084182754
177	0xbca2400c	-0.01980593
178	0xbe4a57a4	-0.19759995
179	0x3e6bde03	0.2303391
180	0x3e3f5646	0.18685254
181	0xbe24618d	-0.16052838
182	0xbcffcb3c	-0.03122484
183	0xbca7dda1	-0.020491423
184	0x3ba15990	0.0049240068
185	0x3e67d975	0.22641547
186	0x3e5cbec5	0.21557148
187	0x3e929463	0.28628835
188	0xbb8c1a76	-0.0042756153
189	0xbd5694e8	-0.0523881
190	0x3e65400b	0.22387712
191	0xbbf902e5	-0.007599222
192	0x3e55ad23	0.20866828
193	0x3c2e4415	0.010636349
194	0x3e124694	0.14284736
195	0x3e71d6d5	0.23617108
196	0x3d458614	0.04822357
197	0x3e81d38e	0.25356716
198	0xbe5d4db2	-0.2161167
199	0x3e60eda3	0.21965651
200	0x3e819d8d	0.25315514
201	0x3e0673d9	0.1313013
202	0x3e640465	0.22267301
203	0xbe505ac6	-0.20347127
204	0xbd2e8624	-0.042608395
205	0x3e2d8de3	0.16948657
206	0xbe9a30b1	-0.30115274
207	0xbd93d642	-0.07218601
208	0x3deddfd0	0.116149545
209	0x3e3112b5	0.17292292
210	0xbc86ce58	-0.016455814
211	0x3d76b93b	0.060235243
212	0xbe51959a	-0.20467225
213	0xbd73d88b	-0.059532683
214	0xbba14bf6	-0.0049223853
215	0xbd4b836c	-0.04968588
216	0x3e228749	0.1587192
217	0x3e7b10e0	0.24518156
218	0x3ddaf243	0.10690739
219	0x3d9b50e5	0.07583789
220	0x3e68c84b	0.22732656
221	0x3e6bb8b1	0.23019673
222	0x3dbae61f	0.09125923
223	0x3e98a8b1	0.298162
224	0xbe8672d7	-0.2625949
225	0x3c417789	0.011808285
226	0x3e093b60	0.13401556
227	0xbd304c62	-0.043041594
228	0x3e860d28	0.26181912
229	0xbd885760	-0.066572905
230	0x3cc0d485	0.023538837
231	0xbd97d341	-0.0741334
232	0x3d891660	0.06693721
233	0x3d84a134	0.064760596
234	0xbd0ef520	-0.03490174
235	0xba394ba5	-0.0007068462
236	0x3de3058c	0.11085042
237	0x3e17ba56	0.14817175
238	0x3bc87c73	0.006118351
239	0xbeb93351	-0.36171964
240	0x3e4054b5	0.18782313
241	0xbe6dd2d9	-0.23224963
242	0xbcfad4f1	-0.030619117
243	0x3cf39c3f	0.02973759
244	0x3d629aef	0.055323537
245	0xbd414bc5	-0.0471914
246	0x3d20d3ac	0.039264366
247	0x3e06d42c	0.13166875
248	0x3dfb9b49	0.12285478
249	0xbd5bc02b	-0.053650063
250	0x3e8532b4	0.26015246
251	0xbdaebc8a	-0.08532055
252	0xbd8ad2e6	-0.06778507
253	0xbd20e99f	-0.0392853
254	0xbd8f016f	-0.06982695
255	0x3e1b75fc	0.15181726

layer3.bias f4 [2]
0	0x3d4d8552	0.050175972
1	0x3dc569af	0.09639298
