CartPoleDQN/dqn_cartpole100.pth (torch, 72757 bytes, 6 tensors)

layer1.weight f4 [128, 4]
0	0x3e8556a5	0.26042667
1	0xbe55bcb2	-0.20872763
2	0x3cc0f346	0.023553502
3	0xbe01e924	-0.12686592
4	0x3ea279fc	0.31733692
5	0xbee42512	-0.44559532
6	0x3ec89b98	0.3918121
7	0x3eeec010	0.46630907
8	0x3e6988f8	0.22806156
9	0x3e44fc0f	0.19236778
10	0x3de1a304	0.11017421
11	0x39022eba	0.00012415173
12	0xbe827688	-0.25481057
13	0xbe997e80	-0.29979324
14	0x3dd7c58f	0.10535728
15	0x3d07a431	0.03311557
16	0x3eba4d3f	0.3638706
17	0xbed61edf	-0.41820428
18	0xbec45277	-0.38344166
19	0xbeb1ba7d	-0.34712592
20	0xbf09f71c	-0.53892684
21	0xbd5950ea	-0.05305568
22	0x3e89d232	0.2691818
23	0xbe9835b9	-0.29728487
24	0x3ee4f080	0.44714737
25	0xbec85cb1	-0.39133218
26	0xbf7368d4	-0.9508183
27	0xbf0cac75	-0.5495065
28	0x3f712fa1	0.942133
29	0x3d99c6bb	0.07508608
30	0xbf85670e	-1.0422075
31	0xbe5a2a32	-0.21305159
32	0x3f0df7f0	0.5545645
33	0xbd40258e	-0.046910815
34	0xbf6e17a6	-0.93004835
35	0x3eb35b37	0.3503053
36	0xbefc9d91	-0.49338964
37	0xbe905507	-0.2818987
38	0xbe452ac8	-0.19254601
39	0x3e0e8b0a	0.13920227
40	0x3e7b72b5	0.24555476
41	0xbdb741cb	-0.08948096
42	0xbec637e5	-0.3871452
43	0xbec1387e	-0.37738413
44	0x3c1e92bd	0.00967854
45	0x3f07039a	0.5273987
46	0x3f678400	0.9043579
47	0x3e3bff7c	0.18359178
48	0x3ec12511	0.37723592
49	0xbeeea3e2	-0.46609408
50	0xbf6db5d1	-0.92855555
51	0xbf0f7956	-0.5604452
52	0xbdcba456	-0.09943454
53	0xbc6441eb	-0.013931732
54	0xbebb9924	-0.36640275
55	0xbe337b86	-0.17527589
56	0xbeef7b04	-0.4677354
57	0x3eb51dce	0.35374302
58	0x3eeeed49	0.4666541
59	0x3e2851dc	0.16437477
60	0x3dcfb914	0.10142723
61	0xbe8a8e93	-0.270619
62	0x3f805f5e	1.0029104
63	0x3ea948af	0.33063266
64	0x3f153a09	0.5829168
65	0xbd8868c1	-0.06660605
66	0xbd094929	-0.033517037
67	0x3e8903ba	0.26760656
68	0xbe31c1ea	-0.17359129
69	0xbe87d99b	-0.26533207
70	0xbd84dc84	-0.064873725
71	0xbe8944a0	-0.2681017
72	0xba65ac65	-0.00087613455
73	0x3e19d258	0.15021646
74	0x3f4a519d	0.7903078
75	0x3e2d7694	0.16939765
76	0x3e8eda09	0.27900723
77	0x3dedd8fb	0.11613651
78	0xbfbaf493	-1.4605888
79	0xbf424969	-0.75893265
80	0xbe8d8bf3	-0.27645835
81	0xbec6a0aa	-0.38794452
82	0x3f2ec4a8	0.68268824
83	0x3eb1b493	0.3470808
84	0xbe95518c	-0.29163778
85	0x3ee70bcd	0.4512619
86	0x3f260d76	0.6486429
87	0xbe819ccc	-0.2531494
88	0x3eacb127	0.33728907
89	0xbecb1dbe	-0.3967113
90	0xbdc59cbb	-0.096490346
91	0x3e253c74	0.16136342
92	0x3ebba38c	0.36648214
93	0xbe1b7117	-0.15179859
94	0xbeed6d20	-0.46372318
95	0xbd933e78	-0.07189649
96	0xbef10479	-0.47073725
97	0x3ea092d0	0.3136201
98	0xbf1f1857	-0.62146515
99	0xbdaae999	-0.083453365
100	0x3f1debe5	0.6168807
101	0x3d442b95	0.047893126
102	0xbef5cbfd	-0.48007193
103	0xbd5ff401	-0.05467606
104	0xbc82e0d3	-0.015976345
105	0x3d8333ad	0.06406341
106	0xbe6a9e55	-0.22911961
107	0x3c8b3953	0.016995108
108	0xbdcc8248	-0.09985787
109	0x3f147f0c	0.5800636
110	0x3f2e2a82	0.6803361
111	0x3eacc058	0.33740497
112	0xbe90d05b	-0.28283963
113	0x3ef38bfe	0.47567743
114	0x3e560425	0.20900019
115	0xbebe790d	-0.3720173
116	0xbeee74c7	-0.4657347
117	0x3e18f6e2	0.14937928
118	0x3e30830b	0.17237489
119	0xbdfe16d6	-0.12406699
120	0x3ee85c74	0.45383036
121	0xbe2416e7	-0.16024362
122	0xbeca0bb0	-0.39462042
123	0xbee41d0e	-0.44553417
124	0xbd3a310c	-0.04545693
125	0x3bbe959d	0.005816175
126	0xbed23de2	-0.41062838
127	0xbde4c3c4	-0.11170152
128	0xbee39780	-0.44451523
129	0x3e0e3bbf	0.13889979
130	0x3f8c9cc6	1.0985343
131	0x3ed74838	0.42047286
132	0x3dfd0e77	0.123562746
133	0x3de8cf0d	0.11367617
134	0xbe82fe1e	-0.255845
135	0x3e30c180	0.17261314
136	0xbee4ca08	-0.44685388
137	0x3e5dd8fd	0.21664806
138	0xbb9ab650	-0.0047214404
139	0x3e2c95a0	0.16853952
140	0xbe2bf3b3	-0.16792183
141	0xbea07a40	-0.3134327
142	0xbdfa1fba	-0.122130826
143	0xbecb500a	-0.39709502
144	0x3ee51bc0	0.44747734
145	0xbede59e4	-0.43427956
146	0xbf45383b	-0.77038926
147	0xbe026718	-0.1273464
148	0x3f30168d	0.6878441
149	0xbe84d9ee	-0.25947517
150	0xbf3a67a9	-0.7281442
151	0xbcef0020	-0.029174864
152	0x3e2b5721	0.16732456
153	0x3ed062ee	0.40700477
154	0x3e698085	0.22802933
155	0x3e2c835d	0.16846986
156	0x3db2675b	0.0871112
157	0x3f06e871	0.5269843
158	0x3ec92a3b	0.39290032
159	0x3d24ef3f	0.040267225
160	0x3eadba57	0.3393123
161	0xbe0e76da	-0.13912526
162	0x3dea37c2	0.11436416
163	0xbe9d914c	-0.30774915
164	0x3d8cca91	0.06874574
165	0xbe1745da	-0.1477274
166	0x3dd6383d	0.10459945
167	0xbe098433	-0.13429336
168	0x3f0ce350	0.5503435
169	0xbe6a5381	-0.22883417
170	0x3d8d3f12	0.06896795
171	0x3e4f6029	0.20251526
172	0x3da22ea0	0.07919049
173	0x3a83a80a	0.0010044586
174	0xbed5c41d	-0.41751185
175	0x3de0d021	0.109771974
176	0xbdb6bcda	-0.08922739
177	0xbe396985	-0.18106659
178	0xbf5d1cbd	-0.86371976
179	0x3e92e887	0.2869303
180	0x3da0ffa1	0.07861257
181	0x3ec7c8b4	0.39020312
182	0x3f3fc39c	0.7490785
183	0x3dcf3491	0.10117448
184	0xbdc2c393	-0.09509959
185	0xbe0aa3f6	-0.13539109
186	0xbee22376	-0.4416768
187	0x3e1e574c	0.15462989
188	0xbebd017b	-0.36915192
189	0x3e805c9e	0.2507066
190	0x3e272a7e	0.16324803
191	0xbdf265f7	-0.118358545
192	0xbe4b8f37	-0.19878851
193	0x3d8f1c24	0.06987789
194	0x3f1f74e9	0.62287766
195	0x3d9d594e	0.07683049
196	0x3e05bf2c	0.13061208
197	0xbeb1b49a	-0.347081
198	0x3de8d6a9	0.11369068
199	0x3ed73450	0.420321
200	0x3df4dbd1	0.11955989
201	0xbe156741	-0.1459017
202	0x3f0991d0	0.5373812
203	0xbd89482e	-0.0670322
204	0x3c943ee0	0.018096387
205	0xbef08733	-0.4697815
206	0x3e91d912	0.28485924
207	0x3eb8b5d2	0.36076218
208	0xbcf441b7	-0.029816492
209	0xbe03f0f0	-0.12884879
210	0xbe099546	-0.1343585
211	0xbe8c6221	-0.27418616
212	0xbeca4ac5	-0.3951017
213	0xbea9e520	-0.3318262
214	0xbe55fa3f	-0.20896243
215	0xbe865b19	-0.26241377
216	0x3f18073e	0.5938605
217	0xbea8c423	-0.3296214
218	0xbf874353	-1.0567421
219	0xbeebf565	-0.4608566
220	0x3d9c90c6	0.07644801
221	0x3f16e829	0.58948
222	0x3f0778d4	0.52918744
223	0x3e420fc2	0.18951324
224	0x3ecede80	0.4040413
225	0xbd263205	-0.040575046
226	0x3ed22f82	0.4105187
227	0xbe7f7116	-0.24945483
228	0x3efaf93e	0.49018282
229	0xbf042389	-0.5161672
230	0xbf3ce974	-0.7379372
231	0xbe0010d3	-0.12506418
232	0xbedb8188	-0.42872262
233	0xbee689fe	-0.45027155
234	0x3e71d6bc	0.23617071
235	0xbdca2545	-0.0987039
236	0x3ec6da01	0.388382
237	0xbe53c864	-0.20681912
238	0xbf83b1a0	-1.0288582
239	0xbe8fd887	-0.28094885
240	0x3f278d9c	0.65450454
241	0xbebc4020	-0.36767673
242	0xbf303ad1	-0.68839747
243	0xbedfe7cb	-0.43731532
244	0x3e7ed09e	0.24884269
245	0xbed16a9e	-0.40901655
246	0xbec76d84	-0.3895074
247	0xbdb29d3e	-0.08721398
248	0x3e4855a1	0.19563915
249	0x3e677e6f	0.22606824
250	0x3d85a720	0.06526017
251	0xbc008582	-0.007844331
252	0x3f6edddf	0.933073
253	0x3e03c205	0.12866981
254	0xbfdd83f7	-1.7305897
255	0xbe62aae3	-0.221355

layer1.bias f4 [128]
0	0xbee87c79	-0.45407465
1	0xbea8e742	-0.32988936
2	0x3f00e18f	0.50344175
3	0x3e8ffe9c	0.2812394
4	0x3efa94f8	0.4894178
5	0x3f1dcbf9	0.6163936
6	0xbec89942	-0.39179426
7	0xbeb9be86	-0.3627817
8	0x3e8d5225	0.27601734
9	0x3f1fb3d4	0.6238377
10	0xbeb996a5	-0.36247745
11	0x3e88f980	0.26752853
12	0xbebbb706	-0.36663073
13	0x3f221ea4	0.63328004
14	0x3e9e37ed	0.30902043
15	0xbf08178c	-0.5316093
16	0x3f004f55	0.5012105
17	0xbecba164	-0.3977157
18	0xbe2bc178	-0.16773021
19	0x3e0c84ba	0.13722506
20	0xbf09a8b3	-0.5377304
21	0x3e89d985	0.26923767
22	0x3f068dc5	0.52560073
23	0x3f119cbc	0.5687978
24	0xbec10ea1	-0.37706473
25	0xbec39501	-0.38199618
26	0x3ef2e8b0	0.4744315
27	0x3eab3e06	0.33445758
28	0x3f24b0cf	0.6433229
29	0x3edcbd7c	0.43113315
30	0xbed3f1de	-0.41395468
31	0x3efd9b2b	0.49532446
32	0xbeaeb001	-0.34118655
33	0x3f234bfe	0.6378783
34	0xbead11ea	-0.3380273
35	0x3f121d33	0.57075804
36	0xbd912a1a	-0.07088108
37	0x3ed9b19e	0.42518324
38	0x3e5e3873	0.21701221
39	0x3e53f5bf	0.20699213
40	0x3f19f80f	0.6014413
41	0xbe8d2a6a	-0.27571422
42	0x3e50e420	0.20399523
43	0xbed69a34	-0.41914523
44	0x3e6b12d5	0.22956403
45	0xbe6dd127	-0.23224317
46	0x3ea062b7	0.31325313
47	0x3e6f7640	0.23384953
48	0x3e8a4db0	0.27012396
49	0x3da25d83	0.07927992
50	0x3f146510	0.5796671
51	0x3ea72102	0.3264237
52	0x3f087f84	0.53319573
53	0xbe2a2f32	-0.16619566
54	0xbeb5b16a	-0.3548692
55	0xbeb81e16	-0.35960454
56	0x3f1e7383	0.61895007
57	0xbe496fb9	-0.19671525
58	0x3ebe62cb	0.37184748
59	0xbd87e4cc	-0.066354364
60	0xbe8b52b2	-0.2721153
61	0x3dea6eed	0.11446939
62	0x3f1bf562	0.609213
63	0x3c94a4a7	0.018144919
64	0x3eece3cc	0.46267545
65	0x3d740e4e	0.059583955
66	0x3edd3d8f	0.43211028
67	0x3ee3a01d	0.44458094
68	0xbeadcd13	-0.33945522
69	0x3dd7ef41	0.10543681
70	0xbd720185	-0.05908348
71	0x3ecde944	0.4021703
72	0x3e235a6b	0.1595246
73	0x3e9c2272	0.3049503
74	0xbdcbe82b	-0.09956392
75	0x3ea6abbb	0.32552895
76	0xbe311ba1	-0.17295696
77	0xbe9ccfaf	-0.306272
78	0x3f202d5b	0.62569207
79	0x3efd217e	0.49439615
80	0x3eca8689	0.39555767
81	0xbea66028	-0.32495236
82	0x3f110da3	0.56661433
83	0x3f12650d	0.5718544
84	0x3ca4635a	0.020066906
85	0x3f0b87fe	0.5450438
86	0x3dccce33	0.10000267
87	0x3e7e5dfd	0.24840541
88	0x3f120d70	0.57051754
89	0xbe9c50a3	-0.3053027
90	0x3f2d9827	0.6781029
91	0x3f047dc5	0.5175441
92	0xbdfbd21f	-0.12295937
93	0x3f19b368	0.6003938
94	0xbea9a11a	-0.33130723
95	0x3e296abb	0.1654462
96	0xbdf1d871	-0.11808861
97	0xbb70cd12	-0.0036743325
98	0x3e8e7a38	0.2782762
99	0x3f1611a7	0.58620685
100	0x3f19ca4d	0.6007431
101	0x3f0c70ab	0.5485942
102	0xbe8aca69	-0.27107552
103	0xbed52183	-0.4162713
104	0xbe703671	-0.23458268
105	0xbe906196	-0.28199452
106	0xbeecfde5	-0.46287456
107	0x3e32d0ba	0.17462435
108	0x3e7d374f	0.2472813
109	0x3e2d1a06	0.16904458
110	0x3e8990b2	0.26868206
111	0xbebb03d7	-0.36526367
112	0x3e651d04	0.2237435
113	0x3e9071df	0.28211877
114	0x3f0f6bd0	0.56023884
115	0xbea26a04	-0.31721509
116	0xbef33033	-0.4749771
117	0x3d26d3b7	0.04072925
118	0x3f0230bd	0.5085562
119	0xbea23e09	-0.31687954
120	0xbec5f561	-0.38663772
121	0xbeff63bc	-0.4988078
122	0xbe95d4a3	-0.2926379
123	0x3ec5c643	0.38627824
124	0xbe8a7554	-0.2704264
125	0xbe7bb203	-0.24579625
126	0xbf0b2f02	-0.54368603
127	0xbebb553d	-0.3658847

layer2.weight f4 [128, 128]
0	0x3a0fe707	0.0005489443
1	0x3d890bd2	0.06691708
2	0xbd8d0886	-0.06886391
3	0x3da85d7c	0.08220956
4	0xbd4ff58c	-0.05077128
5	0xbd8d37a4	-0.06895378
6	0xbd93af81	-0.07211209
7	0xbd8c115c	-0.068392485
8	0xbd48b294	-0.04899843
9	0xbcffe21e	-0.03123575
10	0x3d8db2fb	0.069189034
11	0x3ca8ee44	0.020621426
12	0x3d8d72a9	0.06906635
13	0xbd938c24	-0.07204464
14	0x3cd6d11d	0.02622276
15	0x3d9ca80a	0.076492384
16	0xbcd1c661	-0.02560729
17	0xbd56b8bd	-0.052422274
18	0xbda179a8	-0.07884532
19	0xbd0ad4c3	-0.03389431
20	0xbd09dffc	-0.033660874
21	0xbbfd159d	-0.007723524
22	0xbd90f1b4	-0.07077351
23	0x3d87bc54	0.066277176
24	0xbc044192	-0.008072274
25	0x3da37514	0.07981315
26	0xbcc3c9ea	-0.023899991
27	0x3db03aca	0.08604963
28	0x3da31ebd	0.07964847
29	0xbd95862f	-0.07300984
30	0xbd549016	-0.051895224
31	0xbd822cae	-0.06356178
32	0x3c8ddd78	0.017317519
33	0x3d4905ac	0.049077675
34	0xbcda1b7a	-0.02662443
35	0x3d77a57e	0.06046056
36	0x3baf5fd2	0.005351999
37	0x3d956a05	0.07295612
38	0xbd5bc0a9	-0.053650532
39	0xbd49c2f5	-0.04925819
40	0xbcbdf920	-0.023190081
41	0x3c2138e9	0.009840229
42	0xbd9d20a2	-0.0767224
43	0xbaa2dd04	-0.0012425487
44	0xbd231e61	-0.039823893
45	0x3d7c0de5	0.06153669
46	0x3cdc2441	0.026872756
47	0xba937f55	-0.0011253158
48	0xbbaf536f	-0.005350522
49	0xbd7ea0e2	-0.06216515
50	0xbd9704c3	-0.07373955
51	0xbce4ed1a	-0.02794509
52	0x3b88dc43	0.004176648
53	0xbd4a876a	-0.049445547
54	0xbc29e816	-0.010370275
55	0x3c1f5491	0.009724752
56	0xbc51b8c2	-0.012800397
57	0xbd60220d	-0.054719973
58	0x3d9c533a	0.07633062
59	0xbc9b109f	-0.018928824
60	0x3c49e340	0.012322247
61	0x3d5705b7	0.052495684
62	0x3d4a2669	0.049353037
63	0xbd8fd839	-0.07023663
64	0x3d399b39	0.045314047
65	0x3d4728d6	0.04862293
66	0xbcdc259d	-0.026873404
67	0x3d89bbb8	0.06725258
68	0xbdaa479a	-0.08314438
69	0xbd9e204a	-0.077210024
70	0xbd7b8775	-0.06140848
71	0x3ccd8638	0.025088415
72	0x3d21958a	0.039449252
73	0x3d05557c	0.032552227
74	0xbd8811fb	-0.066440545
75	0xbb3efbfc	-0.0029141894
76	0xbd1accbc	-0.037792906
77	0x3d8a5f1d	0.06756423
78	0xbd16e275	-0.03683706
79	0x3ce61ac0	0.028088927
80	0xbd570c80	-0.052502155
81	0xbcd3bae4	-0.025845952
82	0xbd91ed6e	-0.07125364
83	0xbd454e23	-0.04817022
84	0x3c821f1b	0.015883973
85	0x3c6e52fe	0.014546154
86	0x3d909b74	0.070609
87	0xbce18903	-0.027531153
88	0xbcfcd8a0	-0.030865014
89	0x3d6d7075	0.057968576
90	0xbcbd6deb	-0.023123702
91	0xbd8cacd5	-0.068689026
92	0x3d73ab4c	0.059489533
93	0xbd5c3b20	-0.053767323
94	0xbcca129d	-0.024667079
95	0x3da75846	0.08171134
96	0x3c9de6dd	0.019275123
97	0xbd6b8b7a	-0.057506062
98	0x3d317b21	0.043330316
99	0x3d903006	0.0704041
100	0xbcaaff99	-0.020873832
101	0xbd82d96e	-0.06389128
102	0xbd15ac7f	-0.03654146
103	0xbd9f3b9a	-0.0777504
104	0xbd5b267c	-0.0535035
105	0xbd94cf2b	-0.07266077
106	0xbd161b30	-0.03664702
107	0xbd09c869	-0.03363839
108	0xbd1ac47e	-0.037785046
109	0x3da54ada	0.080709174
110	0x3d833d3d	0.06408165
111	0xbce77bb4	-0.028257228
112	0x3d5d1ab8	0.05398056
113	0x3b6a76f5	0.003577647
114	0xbd6baead	-0.05753963
115	0xbbdbbcae	-0.006705842
116	0x3d811e40	0.06304598
117	0xbd10e39f	-0.035373326
118	0xbd34e42c	-0.044162914
119	0x3d1cd025	0.03828444
120	0x3a85ce56	0.0010208588
121	0xbd76a672	-0.06021733
122	0xbda7a0e9	-0.08184988
123	0xbca711bd	-0.0203942
124	0xbc30ded3	-0.010795313
125	0x3d7a9d23	0.061185014
126	0xbd540cf0	-0.05177015
127	0x3d30032e	0.042971782
128	0xbc87fe7f	-0.016600845
129	0xbd9063fb	-0.0705032
130	0x3dc11a64	0.09428862
131	0xbca7a78e	-0.020465638
132	0x3d9bc8fa	0.076066926
133	0x3de6af7a	0.11263938
134	0xbf087e2d	-0.5331753
135	0xbde98293	-0.11401858
136	0xbd4658f9	-0.048424695
137	0x3e2abf3c	0.16674513
138	0xbe1b02a6	-0.15137729
139	0x3db9581e	0.0905001
140	0xbf04f09a	-0.5192963
141	0x3d63b032	0.055587955
142	0x3e5448db	0.20730917
143	0xbe437272	-0.19086626
144	0x3e18ea35	0.14933093
145	0xbdfad2a3	-0.12247207
146	0xbef61dbd	-0.48069564
147	0x3d668af7	0.05628487
148	0xbd26fda8	-0.04076925
149	0x3dd4666c	0.10371098
150	0x3d665b9b	0.056239706
151	0x3e0ee4dd	0.13954492
152	0xbe56cab5	-0.20975764
153	0xbee938c8	-0.45551133
154	0x3e36cf96	0.17852625
155	0x3e1456e7	0.14486276
156	0x3dc0a196	0.0940582
157	0x3d423691	0.04741532
158	0xbe714aaf	-0.23563646
159	0x3de45bb7	0.11150306
160	0xbde27f78	-0.11059469
161	0x3e3df3ab	0.18549983
162	0xbe33cfa6	-0.1755968
163	0x3e299b47	0.1656314
164	0x3e2f8eab	0.17144267
165	0x3e3fda1b	0.18735544
166	0x3d81f3d1	0.063453324
167	0x3de82fd1	0.11337245
168	0x3e10d337	0.14143072
169	0x3b33c6c6	0.002743171
170	0x3d942266	0.072331235
171	0xbdaea265	-0.08527068
172	0x3d879b37	0.06621402
173	0xbe9583be	-0.29202074
174	0x3e30aa06	0.17252359
175	0xbc96192a	-0.018322546
176	0x3e2b5a82	0.16733745
177	0xbd6cd383	-0.0578189
178	0x3d857cdc	0.06517956
179	0x3d095b75	0.033534486
180	0x3df1af71	0.11801041
181	0x3e2bc8e0	0.16775846
182	0xbec8c00f	-0.3920903
183	0xbe2c13ff	-0.16804503
184	0x3df511d6	0.119662926
185	0x3cef59cd	0.029217625
186	0x3c42e037	0.011894277
187	0x3ed71d0f	0.42014357
188	0xbe614adf	-0.22001217
189	0x3d5df024	0.054184094
190	0x3e2ea4a5	0.17054994
191	0xb959d260	-0.00020773103
192	0x3d5e6e7a	0.054304577
193	0xbb8e5d92	-0.0043446505
194	0x3e06f59e	0.13179633
195	0x3dd1ccaf	0.102441184
196	0xbefb7e83	-0.49119958
197	0x3c6f11be	0.014591632
198	0xbda6653f	-0.0812478
199	0x3dcaa170	0.09894073
200	0x3df782a6	0.12085466
201	0x3daba9d5	0.08382002
202	0x39d297e1	0.0004016748
203	0x3df79258	0.1208846
204	0x3cac8f44	0.021064408
205	0x3a818759	0.0009882256
206	0x3e233c64	0.15941006
207	0x3deeb60d	0.11655817
208	0x3cc9a4c1	0.024614694
209	0xbe3283d6	-0.17433104
210	0x3e18219e	0.14856574
211	0x3d1441a0	0.036195397
212	0x3e9fc4d5	0.31204858
213	0x3e18e68d	0.14931698
214	0x3cfadc02	0.030622486
215	0x3e49e7c0	0.19717312
216	0x3e1a3594	0.15059501
217	0xbc52f59a	-0.012875939
218	0x3c12f0e1	0.008968563
219	0x3dc869fd	0.09785841
220	0xbbe19578	-0.006884273
221	0x3e087d63	0.13329081
222	0xbb8f01b7	-0.004364218
223	0xbdb4bbd6	-0.08824889
224	0xbf044f68	-0.51683664
225	0x3cabae61	0.020957174
226	0x3d30874d	0.043097783
227	0x3e1548ba	0.14578524
228	0x3d546e27	0.051862862
229	0x3d1560b6	0.036469184
230	0xbd8e5f51	-0.06951774
231	0xbebd8520	-0.3701563
232	0xbd77cd01	-0.06049824
233	0x3daa6925	0.08320836
234	0xbd23daa1	-0.040003423
235	0xbd2ecb05	-0.042674083
236	0x3dc687d2	0.096938744
237	0x3de3d492	0.11124529
238	0x3e0a680c	0.13516253
239	0xbd6acfcb	-0.057327073
240	0x3e25109f	0.16119622
241	0x3dea5c6f	0.114434116
242	0x3d8ed939	0.06975026
243	0x3b3dbd1d	0.0028951832
244	0xbf0195f1	-0.5061942
245	0x3d625d9b	0.05526505
246	0x3dc031ff	0.09384536
247	0xbeb7289b	-0.35773167
248	0xbd450ca0	-0.048107743
249	0xbde11d3c	-0.10991904
250	0xbe9e6f75	-0.3094441
251	0x3d722608	0.0591183
252	0xbe5fa539	-0.21840371
253	0xbe093923	-0.13400702
254	0xbec831c4	-0.39100468
255	0xbeee445c	-0.4653653

layer2.bias f4 [128]
0	0x3d39efc8	0.04539469
1	0x3e0521a5	0.13001116
2	0x3d875088	0.06607157
3	0x3dd21016	0.102569744
4	0x3e201ecc	0.15636748
5	0xbcb4f6f7	-0.022090418
6	0x3c321323	0.01086882
7	0x3deea073	0.11651697
8	0xbd3b0da0	-0.04566729
9	0x3e341d0b	0.17589204
10	0x3c8dd275	0.017312268
11	0x3e125cb6	0.14293179
12	0x3c0d9494	0.008641381
13	0x3df142fa	0.11780353
14	0xbd8725f4	-0.06599036
15	0x3bcaefa3	0.0061931177
16	0x3e7e27cd	0.2481987
17	0x3d819798	0.06327742
18	0x3cd0155d	0.025400812
19	0x3e118cda	0.14213887
20	0xbcd8846f	-0.026430337
21	0x3d01ed4b	0.03172044
22	0xbd8fb602	-0.07017137
23	0xbd4bc510	-0.04974848
24	0xbcf9b75d	-0.030482942
25	0xbd94b6b2	-0.07261409
26	0xbd0a1d55	-0.03371938
27	0x3e2c6d64	0.16838604
28	0x3d3d011f	0.046143647
29	0xbda6d073	-0.08145227
30	0x3c7af57d	0.015317318
31	0x3d48b45e	0.049000137
32	0x3dda3cbf	0.10656118
33	0x3d4cb0e5	0.049973387
34	0xbd879409	-0.06620032
35	0x3ddcaf8a	0.10775669
36	0x3d847f52	0.06469597
37	0xbd8394ed	-0.0642489
38	0xbda4707b	-0.080292664
39	0xbd8f98a7	-0.07011538
40	0xbd7833db	-0.06059633
41	0x3db467c2	0.08808853
42	0x3dd97bc0	0.106193066
43	0xbc83f2a0	-0.016106904
44	0xbd1bc561	-0.038030032
45	0xbce6e32c	-0.028184496
46	0xbc998e83	-0.018744713
47	0xbbca9117	-0.006181847
48	0x3e5313ba	0.20612994
49	0xbdb1deba	-0.0868506
50	0xbdb44dca	-0.088038996
51	0x3e1aa485	0.15101822
52	0x3d7a80e3	0.061158072
53	0xbc7cea4f	-0.015436723
54	0x3e5a699c	0.2132935
55	0xbc6fe6b3	-0.014642405
56	0xbdb1bc80	-0.08678532
57	0x3e1213eb	0.1426541
58	0x3dabab4f	0.08382284
59	0xbd364e61	-0.04450834
60	0x3c8943b4	0.016755916
61	0xbd5d0bc6	-0.053966306
62	0x3e186265	0.14881285
63	0xbd3726bb	-0.04471467
64	0x3e313ac7	0.17307578
65	0x3e238cd5	0.15971692
66	0x3df1e4b5	0.118112005
67	0x3dc4e1c8	0.09613377
68	0x3d680e13	0.056654047
69	0x3cb04002	0.021514896
70	0xbd9ec112	-0.07751669
71	0x3e13d74b	0.14437596
72	0x3e2bea13	0.16788511
73	0x3e07085e	0.13186786
74	0x3d050007	0.03247073
75	0xbd0e0bbd	-0.034679163
76	0xbcab4222	-0.020905558
77	0x3dd77d5c	0.10521957
78	0x3d580740	0.05274129
79	0x3d469dd5	0.048490364
80	0x3dec7a18	0.11546725
81	0xbb2216d0	-0.0024732836
82	0xbda1dbb9	-0.07903237
83	0x3ce17493	0.027521407
84	0x3cb1d57c	0.021708243
85	0x3d3ef1be	0.046617262
86	0x3d43ede7	0.047834303
87	0x3d902ae0	0.07039428
88	0xbd887514	-0.06662956
89	0x3e4bd6db	0.1990618
90	0x3c763f13	0.0150296865
91	0x3e5d516e	0.21613094
92	0x3d8cd46f	0.06876456
93	0x3e1c3631	0.15255047
94	0x3d7c5f27	0.06161418
95	0x3e03dddd	0.12877603
96	0x3d2cde71	0.042204324
97	0x3d624cf6	0.055249177
98	0x3dfd657e	0.12372874
99	0xbd9a8860	-0.07545543
100	0x3e2ef752	0.17086533
101	0xbd1a4979	-0.037667725
102	0x3e1fcaa8	0.15604651
103	0x3c788af8	0.0151698515
104	0xbcd3fea1	-0.025878252
105	0x3dd2b611	0.10288633
106	0xbd70c0a6	-0.058777474
107	0xbde40c40	-0.11135149
108	0x3d27344b	0.040821355
109	0x3e2ce056	0.16882452
110	0x3d6dc2d4	0.05804713
111	0xbd0754cb	-0.03303985
112	0x3e1e4a57	0.15458046
113	0xbdf07745	-0.11741499
114	0xbc8d0dd7	-0.017218513
115	0xbd857d77	-0.06518071
116	0x3d175acc	0.036951825
117	0xbcadd550	-0.02121988
118	0xbd8bfe31	-0.068355925
119	0x3dbc3dda	0.09191485
120	0x3e3e0cd7	0.18559586
121	0xbd833b03	-0.0640774
122	0x3df295f9	0.11845011
123	0xbc80464d	-0.015658522
124	0xbb969019	-0.0045948145
125	0x3b73d2be	0.003720447
126	0xbd0e752a	-0.034779705
127	0x3e4b4931	0.19852139

layer3.weight f4 [2, 128]
0	0x3d829ecf	0.063779466
1	0x3e82932c	0.25502908
2	0x3d045d59	0.032315586
3	0x3e69b787	0.22823916
4	0x3e937147	0.2879736
5	0x3e450312	0.19239452
6	0xbc897336	-0.01677857
7	0x3e87c111	0.26514485
8	0x3cfecf36	0.031104665
9	0x3e9b10bd	0.30286208
10	0xbf09c466	-0.53815305
11	0x3ea94108	0.33057427
12	0x39dafc86	0.00041768345
13	0x3e61c301	0.22047044
14	0xbb55f2d4	-0.0032645958
15	0xbe4527fe	-0.19253537
16	0x3e724da4	0.2366243
17	0x3c6d49ce	0.014482928
18	0x3d627eb2	0.055296607
19	0x3e59584e	0.21225092
20	0xbe6b1881	-0.22958566
21	0x3c0fea1e	0.008783845
22	0xbcc92fbd	-0.024558896
23	0xbe0958be	-0.13412759
24	0xbd63d284	-0.055620685
25	0xbe4c0740	-0.1992464
26	0x377df605	1.5137256e-05
27	0x3e5f1472	0.21785143
28	0xbc98ffe4	-0.018676706
29	0x3d8dac94	0.06917682
30	0xbd752def	-0.05985826
31	0xbd0fc5da	-0.035100795
32	0x3e09a2e1	0.1344104
33	0x3e9342c1	0.28761867
34	0xbd347f6b	-0.044066828
35	0x3e86afa5	0.2630588
36	0x3ec01391	0.37514928
37	0xbef92885	-0.48663726
38	0xbd94859f	-0.07252049
39	0xbd5f862f	-0.054571327
40	0xbd3537d6	-0.044242702
41	0x3e4bf1e3	0.19916491
42	0x3e48d6d7	0.19613205
43	0x3eb99454	0.36245978
44	0xbd6eb767	-0.058280375
45	0xbe133b8d	-0.14378186
46	0xbda735ac	-0.08164534
47	0xbb212ad5	-0.002459218
48	0x3e77d8bd	0.24203773
49	0x3c0730b8	0.008251362
50	0xbf697a92	-0.9120265
51	0x3e9333dc	0.28750503
52	0x3e9421b2	0.28931957
53	0x3e755ce9	0.23961224
54	0x3e8b58c8	0.27216172
55	0xbc2c376f	-0.010511263
56	0x3c834cb3	0.016027784
57	0x3e1c965c	0.15291733
58	0x3e8b7439	0.27237108
59	0xbd2ae067	-0.041717913
60	0xbd435d43	-0.047696363
61	0xbc1f321a	-0.009716535
62	0x3e729b18	0.23691976
63	0xbec2e14f	-0.38062522
64	0x3e1a9d28	0.15099013
65	0x3e696a6f	0.22794507
66	0x3e734703	0.23757558
67	0xbec9ccca	-0.39414054
68	0xbd3cc644	-0.04608752
69	0x3e2c136a	0.16804281
70	0xbf4195af	-0.75619024
71	0x3e2beb97	0.16789089
72	0x3eb7d0b9	0.3590143
73	0xbedff221	-0.43739417
74	0x3e88aa51	0.2669244
75	0xbd7edb28	-0.062220722
76	0xbd04c9b0	-0.032418907
77	0x3e81cb99	0.25350645
78	0xbedf7980	-0.43647385
79	0x3d1fff17	0.039061632
80	0x3e942c09	0.28939846
81	0xbeed441c	-0.46341026
82	0xbd20eb15	-0.03928669
83	0xbdf63f67	-0.12023812
84	0xbf0b6ee0	-0.54466057
85	0xbeaf225f	-0.3420591
86	0xbb24abae	-0.0025126743
87	0xbee0e7eb	-0.4392694
88	0xbf0b7cae	-0.5448712
89	0x3e3392d2	0.17536476
90	0xbef2bc89	-0.47409466
91	0x3e976377	0.29568073
92	0x3e236209	0.15955366
93	0x3e5e5f26	0.21715984
94	0x3e5e9661	0.21737053
95	0x3e56e131	0.20984341
96	0xbf3b1cdd	-0.73090917
97	0xbebbe2a7	-0.3669636
98	0x3ea8a2bc	0.32936656
99	0x3c70e8c4	0.014703933
100	0x3ea60c50	0.3243127
101	0xbd7f50d0	-0.06233293
102	0x3e94610f	0.289803
103	0x3da37770	0.07981765
104	0x3d974e13	0.07387938
105	0x3eaa32e3	0.33241948
106	0xbd815175	-0.06314365
107	0xbf33641a	-0.7007462
108	0x3e915f97	0.28393242
109	0x3e8ec0bf	0.2788143
110	0xbd3eab27	-0.046549942
111	0x3f0f8bd0	0.5607271
112	0x3ea3c4aa	0.3198598
113	0xbe169636	-0.14705738
114	0xbdebf3bd	-0.11521099
115	0xbc8f98bf	-0.01752889
116	0xbc78a56d	-0.015176159
117	0xbce745df	-0.02823156
118	0x3c756be6	0.014979338
119	0x3e9479ba	0.2899912
120	0xbd8f4239	-0.06995053
121	0x3c806503	0.015673166
122	0x3eaf8028	0.34277463
123	0x3b8605c4	0.004090043
124	0xbcaef265	-0.021355817
125	0xbd4e0125	-0.05029406
126	0xbcb9c9d7	-0.022679253
127	0x3e8b7994	0.27241194
128	0x3b095ae3	0.0020958714
129	0x3e19d16b	0.15021293
130	0xbd14d990	-0.036340296
131	0x3e2b4ce3	0.16728549
132	0x3e58d25b	0.21173994
133	0x3e8e2ffb	0.2777098
134	0x3b91f324	0.0044540334
135	0x3e5ade9e	0.21373984
136	0xbc6b6b0f	-0.0143687865
137	0x3d9a8a28	0.075458825
138	0xbf298bc5	-0.66228896
139	0x3e5ad8cd	0.21371765
140	0x3d54933c	0.051898226
141	0x3e903770	0.28167295
142	0xbd94878f	-0.07252418
143	0xbe005aba	-0.1253461
144	0xbd3387c9	-0.043830667
145	0xbdc8c514	-0.09803215
146	0xbd4ab7b2	-0.04949159
147	0x3e6e3ccf	0.23265384
148	0x3ea3d6e5	0.3199989
149	0xbcaa1f69	-0.02076693
150	0xbd846517	-0.06464594
151	0xbed90239	-0.42384508
152	0xbcb599f8	-0.022168145
153	0xbd8e1ee4	-0.06939486
154	0xbecb86ec	-0.39751375
155	0x3ec3b720	0.3822565
156	0x3c31d532	0.010854052
157	0xbef6faba	-0.48238164
158	0x3bcf1c70	0.0063205287
159	0xbda2a140	-0.07940912
160	0x3ea9ba88	0.33150125
161	0x3e966e17	0.29380867
162	0x3ccda1fe	0.025101658
163	0x3e8fafa4	0.2806369
164	0x3ebb64d8	0.36600375
165	0xbe43504b	-0.19073598
166	0xbd4ec86a	-0.0504841
167	0xbd02b81e	-0.03191387
168	0xbd6d6e5e	-0.057966582
169	0x3eb968bb	0.36212716
170	0x3e7d88db	0.24759237
171	0x3ad5d5a0	0.0016314276
172	0x3d2c3160	0.042039275
173	0xbed0a0ab	-0.4074758
174	0x3e61267d	0.21987338
175	0xbd98d27e	-0.07462023
176	0x3ddff7a1	0.10935903
177	0xbca031e2	-0.019555036
178	0xbe84b7ec	-0.2592157
179	0x3e98b366	0.2982437
180	0x3e8777d2	0.26458603
181	0xbf21aafd	-0.6315153
182	0xbcd63a29	-0.02615078
183	0xbdc59f33	-0.096495055
184	0x3b9f5299	0.0048621413
185	0x3ea9de7b	0.33177552
186	0x3e909066	0.28235167
187	0x3eeebd3a	0.46628743
188	0x3c8fc9c9	0.017552273
189	0xbd53da77	-0.051722016
190	0x3e9e2ccf	0.3089356
191	0x3cc61925	0.024181912
192	0x3e96c21b	0.29444966
193	0x3c951113	0.018196618
194	0x3e38ef01	0.18059923
195	0x3eb5c5f1	0.3550258
196	0x3d4307f7	0.047615018
197	0x3ebe824a	0.37208778
198	0xbeb3bbc1	-0.35104182
199	0x3eac17cc	0.33611906
200	0x3e9a7f6e	0.30175346
201	0x3e5f7059	0.21820201
202	0x3ea129fb	0.3147734
203	0xbefe21a9	-0.49635056
204	0xbd2c4d92	-0.042066164
205	0x3e67bec6	0.22631368
206	0xbf19949c	-0.59992385
207	0xbd91f14d	-0.071261026
208	0x3e127d65	0.14305647
209	0x3eabe57d	0.33573523
210	0xbc851b8e	-0.01624849
211	0x3dd96b85	0.10616211
212	0xbed6b211	-0.4193273
213	0xbded1874	-0.1157693
214	0xbb9f456c	-0.0048605707
215	0xbb1b9f52	-0.0023746085
216	0x3ef6147a	0.48062497
217	0x3eac10bf	0.33606526
218	0x3e330245	0.17481335
219	0x3dc6bd2d	0.09704051
220	0x3eaaaaad	0.3333334
221	0x3e8bf39b	0.27334294
222	0x3e081c25	0.13291986
223	0x3ec8425a	0.39113122
224	0xbece4a6c	-0.40291154
225	0x3d93fdf9	0.07226176
226	0x3e22ddc0	0.15904903
227	0xbd29c386	-0.04144623
228	0x3ea330ac	0.3187307
229	0xbd869e50	-0.065731645
230	0x3d12b957	0.035821285
231	0xbd95e798	-0.073195636
232	0x3d87563d	0.066082455
233	0x3dacf062	0.08444287
234	0xbd0d20e4	-0.034455195
235	0x3dcfbc9e	0.10143398
236	0x3e148968	0.14505541
237	0x3e442c87	0.19157611
238	0x3bc5f044	0.006040605
239	0xbf38a11c	-0.72120833
240	0x3e727bef	0.2368009
241	0xbef17f40	-0.47167397
242	0xbdb4451d	-0.08802245
243	0x3cf08817	0.029361768
244	0x3d5fbb23	0.054621827
245	0xbd3ed84c	-0.046592996
246	0x3d1ecd45	0.03876998
247	0x3e287e6e	0.16454479
248	0x3e7cb614	0.24678832
249	0xbd58f503	-0.052968036
250	0x3ead3110	0.33826494
251	0xbdac83f8	-0.084236085
252	0xbd890f63	-0.06692388
253	0xbcf54749	-0.029941218
254	0xbd8d2d33	-0.06893387
255	0x3e442386	0.19154176

layer3.bias f4 [2]
0	0x3d8407f8	0.064468324
1	0x3dc6c821	0.0970614
