CartPoleDQN/dqn_cartpole10.pth (torch, 72745 bytes, 6 tensors)

layer1.weight f4 [128, 4]
0.27661586 -0.4614118 -0.3206221 0.301796 -0.18385904 0.3486038 0.09663705 0.17598273
-0.14547595 0.1546576 0.37756836 -0.35630068 0.10858268 -0.37639475 -0.29790533 -0.1394512
-0.25543165 -0.060342193 -0.37932384 -0.021845149 0.09266899 0.12145516 -0.04814757 -0.094449006
0.09211208 -0.085889205 0.19050984 0.47154617 0.18195835 0.08351327 0.17696278 -0.31136507
-0.26834595 0.33405006 -0.05017119 -0.481912 -0.142067 -0.003286009 0.08212358 0.15519279
0.058116384 0.15378404 0.41720644 0.3783403 -0.36738026 0.22312865 -0.05711143 -0.23693986
0.3784004 -0.3170187 0.034859646 -0.28721088 0.45193532 0.066548035 0.21686956 -0.15290727
-0.051517867 -0.28226447 0.07504765 -0.3452262 0.058470648 0.40666434 -0.15622598 -0.4710295
0.105229564 -0.09213769 0.26787594 -0.48762184 -0.05863967 0.17705868 0.048049007 0.2589341
-0.08458859 0.08598608 0.12237897 0.36480168 -0.23969236 -0.4785123 -0.043215998 0.36155307
0.30019933 -0.42913368 -0.03928583 -0.3381436 0.4070436 -0.4801067 -0.005115797 -0.3900839
0.3212427 0.2391625 -0.06061119 0.16490375 -0.18890037 0.49165106 -0.46316367 -0.47213134
-0.4775217 0.20703354 0.24379916 0.08626407 -0.4871179 -0.02177061 0.16694133 0.14165203
0.41801372 0.14651287 0.08705028 -0.0047087944 0.24164319 0.2943167 0.33781356 0.42925736
0.36491776 -0.5029944 -0.061754137 -0.30551893 -0.03651723 -0.24240005 0.48157984 -0.2048711
0.18977736 -0.02111399 -0.047648754 0.1180919 0.42868313 -0.07282701 0.16746075 -0.13768104
0.41418067 -0.19439009 0.3309996 0.024113007 -0.34039274 0.40760002 -0.19137843 0.27349326
-0.095624425 -0.25629163 0.50175315 0.06344207 0.023188874 0.1244969 0.50211847 -0.29082334
-0.3572421 -0.47427708 0.40545177 -0.30065125 0.34642076 -0.35023963 -0.3811714 0.16146216
-0.10812564 0.20759171 0.30779633 -0.15539123 0.1563125 0.11154551 -0.058031414 0.12346713
-0.16074923 0.2189334 0.25758415 -0.04332063 -0.44709432 0.3654762 0.4009425 0.40851334
0.032627072 0.20913814 0.16251199 0.34387362 -0.47932777 0.4872788 -0.23160021 0.20714964
0.37795883 -0.43200672 -0.28003672 0.5011701 0.0558455 -0.45596817 0.43460068 -0.04342883
0.107424274 0.15272245 -0.3908209 -0.0052712345 0.15191826 -0.468682 0.31631878 0.02258719
0.39123055 0.32097256 0.4870552 0.35205996 0.16597456 -0.17884135 0.45518702 -0.2187574
0.09502225 0.42704532 0.1418686 -0.36872545 0.3517669 -0.4099212 0.2675687 -0.36020023
-0.090301104 0.101944245 0.0376037 -0.29865086 0.16175838 -0.099321924 0.051942497 0.43502823
-0.40637514 -0.054124653 -0.43909144 0.09967652 -0.090861164 -0.3817287 -0.14566278 0.24930644
-0.18853438 0.25192803 -0.0460147 -0.09301765 -0.121843 0.50560576 -0.11315789 -0.04952083
-0.4022266 -0.39634305 0.45453006 0.46379143 -0.20086275 -0.10794734 0.04199977 -0.4385446
0.39666113 0.09340276 -0.21626398 0.10013721 -0.22722125 0.124829434 0.42206967 0.22581817
-0.43800238 -0.055580206 -0.117182106 -0.05084133 -0.15109369 -0.2260827 -0.050664384 0.29271123
00000000: 98a0 8d3e 2b3e ecbe 9428 a4be 0185 9a3e
00000010: 8b45 3cbe 337c b23e a5e9 c53d d134 343e
00000020: a6f7 14be 905e 1e3e a450 c13e 0b6d b6be
00000030: 9960 de3d d0b6 c0be 0c87 98be 4ccc 0ebe
00000040: f0c7 82be 6029 77bd bc36 c2be 99f4 b2bc
00000050: 3dc9 bd3d 7cbd f83d 6336 45bd 7b6e c1bd
00000060: 42a5 bc3d aee6 afbd 0315 433e 806e f13e
00000070: 4a53 3a3e 0109 ab3d bb35 353e 3e6b 9fbe
00000080: a464 89be 9c08 ab3e 4e80 4dbd 2bbd f6be
00000090: 037a 11be 155a 57bb 6830 a83d dcea 1e3e
000000a0: 720b 6e3d 9079 1d3e 159c d53e d2b5 c13e
000000b0: 4419 bcbe d67b 643e aded 69bd 5da0 72be
000000c0: b2bd c13e 4650 a2be fdc8 0e3d 4e0d 93be
000000d0: 1164 e73e 564a 883d 0e13 5e3e b993 1cbe
000000e0: 6604 53bd f884 90be 95b2 993d 7dc1 b0be
000000f0: eb7e 6f3d 4f36 d03e b4f9 1fbe c72a f1be
00000100: 9982 d73d afb2 bcbd 0927 893e 92a9 f9be
00000110: 2730 70bd df4e 353e 09cf 443d 0393 843e
00000120: c83c adbd 7819 b03d d3a1 fa3d 49c7 ba3e
00000130: ea71 75be 90ff f4be 4203 31bd 7c1d b93e
00000140: bab3 993e 69b7 dbbe 2eea 20bd 2821 adbe
00000150: 0568 d03e 8cd0 f5be 6aa2 a7bb 14b9 c7be
00000160: ec79 a43e 04e7 743e 7043 78bd 87dc 283e
00000170: 196f 41be b0b9 fb3e ca23 edbe 33bb f1be
00000180: b97d f4be 9a00 543e 7da6 793e 37ab b03d
00000190: 8467 f9be 4758 b2bc abf2 2a3e 3b0d 113e
000001a0: e505 d63e 7807 163e 6b47 b23d 3b4c 9abb
000001b0: 5071 773e aeb0 963e e6f5 ac3e 9fc7 db3e
000001c0: 80d6 ba3e 3ec4 00bf e8f1 7cbd fa6c 9cbe
000001d0: 1793 15bd b837 78be a291 f63e bbc9 51be
000001e0: ff54 423e 3ff7 acbc 572b 43bd 2bda f13d
000001f0: 5b7c db3e 5426 95bd d57a 2b3e 42fc 0cbe
00000200: 7d0f d43e 320e 47be c878 a93e a488 c53c
00000210: f547 aebe f3b0 d03e b5f8 43be 4f07 8c3e
00000220: bdd6 c3bd a838 83be e572 003f eaed 813d
00000230: 98f6 bd3c 3bf8 fe3d d68a 003f cce6 94be
00000240: 70e8 b6be 72d4 f2be 6097 cf3e f6ee 99be
00000250: 105e b13e 9c52 b3be e628 c3be 5656 253e
00000260: fa70 ddbd ec92 543e 7b97 9d3e e11e 1fbe
00000270: 6210 203e f971 e43d 59b2 6dbd 56dc fc3d
00000280: 729b 24be 1430 603e 12e2 833e f970 31bd
00000290: 8ce9 e4be b21f bb3e 5648 cd3e a928 d13e
000002a0: f7a3 053d 4f28 563e 8b69 263e 3410 b03e
000002b0: 736a f5be 9b7c f93e 9b28 6dbe 091f 543e
000002c0: d283 c13e fc2f ddbe f960 8fbe af4c 003f
000002d0: 40be 643d a974 e9be fb83 de3e 6ee2 31bd
000002e0: 4201 dc3d 4663 1c3e ad19 c8be 52ba acbb
000002f0: 7690 1b3e 16f7 efbe 89f4 a13e c508 b93c
00000300: 5f4f c83e 8456 a43e 4d5f f93e 3441 b43e
00000310: 3cf5 293e 3022 37be 460e e93e f101 60be
00000320: 079b c23d afa5 da3e 0146 113e 95c9 bcbe
00000330: cb1a b43e 31e1 d1be c4fe 883e 2a6c b8be
00000340: c9ef b8bd 25c8 d03d 5606 1a3d c4e8 98be
00000350: fda3 253e 4b69 cbbd a8c1 543d 05bc de3e
00000360: 6710 d0be d0b1 5dbd 98d0 e0be 3423 cc3d
00000370: 6b15 babd f271 c3be a028 15be 304a 7f3e
00000380: 280f 41be b6fc 803e e979 3cbd 0a80 bebd
00000390: d388 f9bd 616f 013f 53bf e7bd 5bd6 4abd
000003a0: a5f0 cdbe 7aed cabe 2ab8 e83e 1276 ed3e
000003b0: f7ae 4dbe 7f13 ddbd f307 2c3d eb88 e0be
000003c0: 2b17 cb3e f249 bf3d 4e74 5dbe bd14 cd3d
000003d0: b0ac 68be 93a6 ff3d 8419 d83e e13c 673e
000003e0: d941 e0be 12a8 63bd 2cfd efbd 003f 50bd
000003f0: 4eb8 1abe 3982 67be 7585 4fbd 3fde 953e

layer1.bias f4 [128]
-0.15889607 -0.14339535 -0.37066153 -0.19061294 -0.046101626 0.21454449 -0.118756674 0.49492967
0.50720716 0.38306788 0.039527487 -0.41529572 0.24597889 -0.43766478 0.507241 -0.43020102
-0.3338841 -0.19197202 0.3503255 0.13613164 0.27583164 0.2628088 -0.3453603 0.26624495
0.08547316 0.51797736 -0.18562523 -0.13055469 0.0841576 -0.16002733 -0.17806716 0.017176066
0.18903983 0.2741114 -0.33543265 0.1721696 0.32653677 -0.060266465 -0.42668164 -0.07665879
0.07552988 -0.42936376 0.064566314 -0.20936063 -0.0236432 0.0064727645 -0.09908987 0.5178748
0.4141572 0.15934598 -0.28860688 0.3859794 0.07105349 0.2050449 0.27067828 -0.31557974
-0.2909298 -0.23622018 -0.035958942 0.16328776 0.12834825 -0.44297674 0.457976 0.5099197
0.27408743 -0.032408673 -0.23538674 0.10203748 -0.32269472 -0.26958486 -0.22694784 -0.17873062
-0.38163662 0.012406675 -0.46220094 0.2974716 0.23081043 -0.41961384 -0.4024684 0.37833256
0.4384929 -0.31807414 0.5217316 0.028837169 -0.37931013 0.43601516 -0.12414332 0.11479591
-0.06134685 -0.46062684 0.5250236 0.42503807 0.122138806 -0.2620448 -0.106941074 -0.042200662
0.34738192 0.18421084 0.12244706 0.3712425 0.4455664 0.32649434 0.11888996 -0.4557516
-0.38417596 0.11002018 0.23767878 0.34731942 -0.28318465 0.36897224 0.04645028 0.20397893
0.33620635 -0.25494608 0.10592304 -0.047544822 -0.1991196 -0.046356183 0.34734145 -0.35482514
0.0065621245 -0.17790776 0.053678486 -0.031021208 -0.09089857 -0.46953854 0.023437405 0.39859578
00000000: a7b5 22be 3bd6 12be 59c7 bdbe 0a30 43be
00000010: 0fd5 3cbd 8db1 5b3e b336 f3bd 6c67 fd3e
00000020: 54d8 013f 7921 c43e 93e7 213d a4a1 d4be
00000030: e4e1 7b3e 9915 e0be 8cda 013f 4f43 dcbe
00000040: dbf2 aabe 5094 44be dd5d b33e 1866 0b3e
00000050: ce39 8d3e e08e 863e 11d3 b0be 4251 883e
00000060: 8d0c af3d 2a9a 043f 8a14 3ebe 21b0 05be
00000070: d25a ac3d 34de 23be 3d57 36be d2b4 8c3c
00000080: a893 413e 5458 8c3e d4bd abbe 3a4d 303e
00000090: d42f a73e f8d9 76bd 0476 dabe 49ff 9cbd
000000a0: 69af 9a3d 91d5 dbbe 583b 843d a262 56be
000000b0: 62af c1bc 7c19 d43b a1ef cabd 7193 043f
000000c0: 6a0c d43e 982b 233e 48c4 93be 189f c53e
000000d0: 7e84 913d 4af7 513e 5896 8a3e ab93 a1be
000000e0: c0f4 94be b4e3 71be af49 13bd e834 273e
000000f0: b96d 033e d9cd e2be d57b ea3e 198a 023f
00000100: 3055 8c3e f5be 04bd 3909 71be 07f9 d03d
00000110: 3e38 a5be 0707 8abe 0465 68be 2905 37be
00000120: e065 c3be 5e45 4b3c 9aa5 ecbe 334e 983e
00000130: 9259 6c3e a0d7 d6be 5710 cebe ceb4 c13e
00000140: 2482 e03e 9dda a2be 3490 053f ed3b ec3c
00000150: f034 c2be 613d df3e da3e febd 1e1a eb3d
00000160: d646 7bbd 48d7 ebbe f267 063f 979e d93e
00000170: e923 fa3d bc2a 86be ec03 dbbd 9ada 2cbd
00000180: 0bdc b13e c4a1 3c3e 86c5 fa3d 7f13 be3e
00000190: 4721 e43e 442a a73e 947c f33d 4658 e9be
000001a0: b6b2 c4be 4352 e13d 1162 733e dad3 b13e
000001b0: 94fd 90be eee9 bc3e a642 3e3d dadf 503e
000001c0: 3d23 ac3e 4b88 82be 2eee d83d 5cbe 42bd
000001d0: 02e6 4bbe fbdf 3dbd bdd6 b13e a4ab b5be
000001e0: 1707 d73b 742d 36be f9dd 5b3d 3020 febc
000001f0: 0829 babd 5b67 f0be cdff bf3c bf14 cc3e

layer2.weight f4 [128, 128]
0.051750887 0.07998975 -0.08205464 -0.01852693 0.014447676 0.074071296 0.062387362 0.03131799
0.04302138 -0.034069978 -0.07230812 -0.04271278 -0.025505288 -0.02758051 0.036729623 0.0021525966
-0.069228746 0.013682935 0.0771388 -0.026168868 -0.069944575 0.032102615 0.026049953 -0.05525706
0.076738745 -0.018851828 0.012756015 0.020149961 -0.06115448 -0.061209347 -0.07350913 -0.0218469
-0.04007806 0.075559236 0.002707882 0.015035443 0.07022763 0.07464182 -0.075211756 -0.044224646
-0.058833722 0.009699424 -0.0041200435 -0.068627365 -0.009788861 0.054779433 0.0819636 0.07722446
0.045156576 -0.07218562 -0.030504843 -0.07688499 0.056719724 0.004573609 -0.008146672 -0.05469145
-0.022992572 -0.052923623 -0.04772542 0.04325972 -0.03806544 -0.06601389 -0.004818699 -0.073435925
-0.073596634 0.05544702 -0.05209238 0.062078968 0.06521382 0.041138504 -0.012394428 -0.04225766
-0.03719927 0.020201735 -0.028310394 0.022276372 0.07218425 -0.008207342 -0.03545826 0.0127221225
0.028960045 0.0011737638 0.073341474 -0.08228807 0.021261025 -0.080256 -0.018396055 -0.04767084
0.046637867 0.07043212 -0.03582101 -0.08152039 0.004291088 0.024575548 0.019340837 -0.030622495
-0.06900456 -0.016469654 -0.068514906 -0.001642186 0.032568917 0.030174285 -0.07436788 -0.0822558
-0.040641967 -0.023109948 -0.038150117 -0.0156719 -0.03014509 -0.084664196 -0.0051660626 -0.04457384
0.025910733 0.067251846 0.019019935 -0.08611924 -0.013418385 0.08000649 -0.032953694 -0.015846452
-0.087984264 0.041061763 -0.031178072 0.032630593 0.0076812743 -0.08061609 0.010487145 -0.06128553
-0.02509923 -0.030427093 0.052140683 -0.0867582 -0.06225293 -0.020991292 0.08689188 -0.021816785
-0.022019628 0.099232465 0.09679528 0.0642624 0.08756678 -0.07094808 -0.061864458 0.07089796
0.046581067 0.021998348 0.07335718 0.080767356 0.076172106 -0.0044006794 0.014978118 0.06996144
0.030526387 0.047515318 0.029656524 -0.07070355 -0.054343022 -0.015736876 0.059742138 -0.044334397
0.075446784 0.040600505 0.0047990126 0.07380135 0.026349936 0.037046287 0.04002128 0.056845076
-0.06862177 -0.086242124 0.017651709 0.04721145 -0.039921816 0.08426227 0.06928254 0.033530228
-0.0016385311 -0.054244354 -0.06847428 0.0005171771 -0.0018670732 0.08312552 -0.014765788 -0.065175064
0.07212687 -0.06825944 -0.010942552 0.09462832 0.06963517 -0.06398809 -0.033542614 0.09353702
0.048249673 0.041656725 0.084581435 0.045094755 -0.042105097 -0.017622996 -0.048901267 -0.075602196
0.073883474 -0.009702082 0.044988014 0.0694766 0.08714455 0.033262827 0.050010357 0.083335154
0.075837545 -0.046079334 -0.04817471 -0.058770448 0.012355598 0.04231063 -0.024268711 0.09649114
-0.05695396 0.013939983 -0.021469349 -0.0019020521 -0.035601985 -0.069042854 -0.028337939 0.09204154
0.036416106 0.017527966 -0.010978526 -0.016704874 -0.014567785 0.04957627 -0.06849537 -0.016733842
-0.047285743 -0.028554829 0.011563441 -0.004506487 -0.030653328 0.017934773 0.014693905 0.045218013
0.062202055 -0.0039261314 0.0897397 -0.07341186 -0.004792 0.07063956 0.048209284 0.003838383
0.06125994 0.022854133 0.050922792 -0.07195873 -0.0381083 -0.09243976 -0.028600587 0.020878522
00000000: bdf8 533d abd1 a33d 430c a8bd cac5 97bc
00000010: f2b5 6c3c b1b2 973d e489 7f3d 4b47 003d
00000020: 3037 303d f68c 0bbd 4816 94bd 99f3 2ebd
00000030: 77f0 d0bc 86f0 e1bc cd71 163d 9412 0d3b
00000040: cdc7 8dbd 642e 603c f2fa 9d3d 1860 d6bc
00000050: 1a3f 8fbd 087e 033d b666 d53c 3a55 62bd
00000060: 3429 9d3d 266f 9abc 9bfe 503c 8811 a53c
00000070: 1f7d 7abd a7b6 7abd f48b 96bd 45f8 b2bc
00000080: e428 24bd cdbe 9a3d b976 313b 3857 763c
00000090: 81d3 8f3d cfdd 983d 9f08 9abd e724 35bd
000000a0: a1fb 70bd 55ea 1e3c 6e01 87bb 818c 8cbd
000000b0: 7561 20bc 6660 603d 88dc a73d dc27 9e3d
000000c0: 1af6 383d 0ed6 93bd 4be5 f9bc e175 9dbd
000000d0: f152 683d 37de 953b 9e79 05bc 2404 60bd
000000e0: eb5a bcbc 71c6 58bd bb7b 43bd 1b31 313d
000000f0: 82ea 1bbd 4a32 87bd 2de6 9dbb 9365 96bd
00000100: d5b9 96bd 6a1c 633d d25e 55bd 8446 7e3d
00000110: d38e 853d d980 283d 0012 4bbc 5e16 2dbd
00000120: 435e 18bd 1c7e a53c 33eb e7bc f07c b63c
00000130: 56d5 933d 1678 06bc ae3c 11bd 7370 503c
00000140: 9e3d ed3c fad8 993a 0e34 963d a686 a8bd
00000150: 9a2b ae3c 425d a4bd 53b3 96bc 8042 43bd
00000160: 5907 3f3d b73e 903d 0db9 12bd 2af4 a6bd
00000170: 419c 8c3b a952 c93c ad70 9e3c 07dc fabc
00000180: 4352 8dbd 5eeb 86bc 8b51 8cbd 9e3e d7ba
00000190: fc66 053d 1030 f73c 304e 98bd bb75 a8bd
000001a0: 3178 26bd 1351 bdbc 4c43 1cbd 5b62 80bc
000001b0: d6f2 f6bc 6c64 adbd 1348 a9bb 0f93 36bd
000001c0: bf42 d43c 56bb 893d b2cf 9b3c 495f b0bd
000001d0: c9d8 5bbc 71da a33d 74fa 06bd 6bd0 81bc
000001e0: 1831 b4bd 6130 283d 2869 ffbc a8a7 053d
000001f0: 33b3 fb3b 0c1a a5bd 46d2 2b3c 8906 7bbd
00000200: e79c cdbc 3d42 f9bc 7891 553d 48ae b1bd
00000210: eefc 7ebd eef5 abbc 5ff4 b13d 1db9 b2bc
00000220: 8262 b4bc 643a cb3d 9b3c c63d 019c 833d
00000230: 3656 b33d 3a4d 91bd 9665 7dbd f332 913d
00000240: cacb 3e3d e135 b43c 4a3c 963d 5b69 a53d
00000250: 1f00 9c3d 9333 90bb c866 753c f247 8f3d
00000260: 7912 fa3c 6c9f 423d 3df2 f23c 06cd 90bd
00000270: ca96 5ebd 9fea 80bc 2cb4 743d fc97 35bd
00000280: d883 9a3d b74c 263d 0941 9d3b 2a25 973d
00000290: d2db d73c d9bd 173d 5bed 233d 62d6 683d
000002a0: 9289 8cbd b69f b0bd 519a 903c cb60 413d
000002b0: 0f85 23bd b291 ac3d 01e4 8d3d fe56 093d
000002c0: fbc3 d6ba 542f 5ebd 3e3c 8cbd 2b93 073a
000002d0: 95b8 f4ba b63d aa3d 34ec 71bc 817a 85bd
000002e0: 41b7 933d 9bcb 8bbd 6448 33bc 7ecc c13d
000002f0: e29c 8e3d 300c 83bd fb63 09bd 5690 bf3d
00000300: 73a1 453d 3ea0 2a3d 0839 ad3d 47b5 383d
00000310: 6576 2cbd 1a5e 90bc b24c 48bd 53d5 9abd
00000320: 3850 973d 7bf5 1ebc 5a45 383d bf49 8e3d
00000330: d878 b23d 9a3e 083d a9d7 4c3d 9fab aa3d
00000340: b750 9b3d afbd 3cbd d852 45bd 48b9 70bd
00000350: 226f 4a3c e94d 2d3d 2dcf c6bc 269d c53d
00000360: 8e48 69bd 8764 643c 7de0 afbc 474e f9ba
00000370: 63d3 11bd 5766 8dbd f724 e8bc 4680 bc3d
00000380: 0e29 153d cf96 8f3c 47df 33bc a9d8 88bc
00000390: b8ad 6ebc 7d10 4b3d 4d47 8cbd 6915 89bc
000003a0: b2ae 41bd d1eb e9bc 9674 3d3c 27ab 93bb
000003b0: b01c fbbc f2eb 923c b4be 703c 8636 393d
000003c0: 95c7 7e3d c7a6 80bb 73c9 b73d f558 96bd
000003d0: 3606 9dbb 79ab 903d 1977 453d 618d 7b3b
000003e0: b4eb 7a3d 9738 bb3c 6b94 503d 195f 93bd
000003f0: 7317 1cbd 0f51 bdbd c74b eabc 6f09 ab3c

layer2.bias f4 [128]
-0.08520465 0.055144165 -0.07792791 -0.016200274 0.0342769 0.03441222 0.07546943 0.061924525
-0.07649087 -0.09645689 0.055876803 -0.062473983 0.09728991 -0.0032881792 0.04484005 -0.039542407
0.035397343 -0.026748352 0.038981542 -0.046102416 -0.023051057 0.077473685 -0.055477805 -0.046275165
0.085900284 0.0026545916 -0.06604704 -0.07649691 0.10337416 -0.06768855 -0.095419385 0.03552366
0.0066509447 0.033663116 -0.009285859 -0.048793152 0.023187876 0.019603148 -0.007765094 0.05758793
0.02070496 0.0859854 0.033752363 0.036851585 -0.060384907 -0.013367852 -0.024765756 0.04095889
0.0385581 -0.07810367 0.0122176735 0.071339265 0.07112773 -0.021611042 -0.0002091248 0.05189404
0.07285301 0.043249395 0.0051774443 0.09384772 0.022930522 -0.07061866 0.017533937 0.11075562
-0.02148327 0.015423198 -0.05928091 0.07972917 0.03385897 0.07659836 -0.08014956 0.021367077
0.0005700218 0.03296311 -0.009428409 -0.057270862 -0.060316965 0.00462989 -0.080893375 0.030006444
0.0084321285 -0.04089096 -0.009480322 -0.07809845 0.021077191 -0.010381106 0.005431872 0.030006653
-0.008731759 0.022885783 0.10957089 -0.04323203 0.03897619 -0.05912719 -0.009242658 0.04587521
0.07609273 -0.00735055 0.07083637 -0.026487004 -0.053840503 -0.05591522 -0.027027912 -0.06960273
-0.045523286 0.068797566 0.04274962 0.0762972 -0.038360234 0.021699116 0.06821282 -0.020449843
0.06478775 0.026178654 0.023128992 -0.0811802 0.079001546 0.022644913 -0.07794622 -0.009666183
-0.054361667 -0.009469769 0.027647346 0.045671668 0.016602134 -0.00086508936 9.9574296e-05 -0.07063475
00000000: c77f aebd d9de 613d ab98 9fbd 70b6 84bc
00000010: ef65 0c3d d4f3 0c3d b78f 9a3d 92a4 7d3d
00000020: 3fa7 9cbd 318b c5bd 13df 643d b8e4 7fbd
00000030: ef3f c73d 7e7e 57bb 33aa 373d 38f7 21bd
00000040: cefc 103d 5c1f dbbc 1cab 1f3d e3d5 3cbd
00000050: 92d5 bcbc 86aa 9e3d b23c 63bd 078b 3dbd
00000060: 7dec af3d a8f8 2d3b ac43 87bd 69aa 9cbd
00000070: d5b5 d33d 4ba0 8abd 3d6b c3bd 4281 113d
00000080: 2bf0 d93b 56e2 093d b723 18bc 54db 47bd
00000090: 80f4 bd3c c896 a03c 5472 febb 52e1 6b3d
000000a0: 739d a93c 1d19 b03d eb3f 0a3d b0f1 163d
000000b0: 2a56 77bd d604 5bbc 8ee1 cabc 82c4 273d
000000c0: 19ef 1d3d d1f4 9fbd a32c 483c 521a 923d
000000d0: 6aab 913d a409 b1bc 8348 5bb9 d88e 543d
000000e0: f533 953d 4726 313d 8da7 a93b 3c33 c03d
000000f0: cad8 bb3c 84a0 90bd 55a3 8f3c d8d3 e23d
00000100: affd afbc 95b1 7c3c 8ad0 72bd 0c49 a33d
00000110: b4af 0a3d 9adf 9c3d 7425 a4bd 020a af3c
00000120: 846d 153a 5304 073d 9d79 1abc da94 6abd
00000130: ec0e 77bd 55b6 973b 6dab a5bd 13d0 f53c
00000140: e926 0a3c 477d 27bd 5a53 1bbc 15f2 9fbd
00000150: 13aa ac3c 8415 2abc d8fd b13b 83d0 f53c
00000160: a70f 0fbc f77a bb3c b466 e03d 1214 31bd
00000170: 7fa5 1f3d 5a2f 72bd 846e 17bc a5e7 3b3d
00000180: 81d6 9b3d e2dc f0bb a912 913d 46fb d8bc
00000190: dc87 5cbd 5c07 65bd a469 ddbc e08b 8ebd
000001a0: a076 3abd bde5 8c3d 3a1a 2f3d b541 9c3d
000001b0: 9f1f 1dbd 58c2 b13c 2ab3 8b3d 6e86 a7bc
000001c0: 71af 843d 9e74 d63c 0379 bd3c ce41 a6bd
000001d0: 90cb a13d d381 b93c 45a2 9fbd e95e 1ebc
000001e0: 57aa 5ebd 1727 1bbc b07c e23c 3712 3b3d
000001f0: 3301 883c 2ac7 62ba 8bd2 d038 f4a8 90bd

layer3.weight f4 [2, 128]
-0.044071905 0.03300987 0.046071503 0.028422372 -0.063312046 -0.017180223 0.034082334 -0.030988853
-0.057431016 0.09512624 0.026510533 -0.05780888 0.028613355 0.062289797 0.08050803 -0.068614826
0.041339755 -0.08033957 -0.023230828 0.07405596 0.10543921 0.0028550003 0.033889074 -0.0095290495
0.060819782 -0.00515801 -0.05237529 -0.028947115 -0.005387463 0.019151263 -0.053881474 0.0340485
0.09556766 0.03940979 0.055029336 0.032457143 0.01477014 -0.078227945 0.0034013726 -0.093708806
0.043731917 0.07193919 -0.01916654 0.006124061 -0.06597076 -0.07373495 0.02202476 0.0099530155
0.047147963 0.010422111 -0.03538629 0.08363488 0.047431 -0.056637354 0.0054327287 -0.069777854
0.0557265 -0.06254574 -0.021081954 0.0813091 -0.017218847 -0.08327343 -0.0149491755 0.110069804
0.022161707 -0.071884945 -0.034927238 0.06836842 0.06797341 0.03326489 0.062113628 0.046775103
-0.08010565 0.024146589 0.05475486 0.078553386 -0.08229443 0.0026359754 -0.04546275 0.11086436
0.018383069 -0.04700199 0.0037955174 -0.033954807 0.0049494626 -0.0027333559 0.08208513 0.03846336
0.017118786 0.08812306 0.05660486 0.054595377 -0.06422436 0.015581874 -0.052820325 0.0629268
0.037960574 0.052992754 0.08103347 0.08027109 0.04821379 -0.018284393 0.09206803 0.03979189
0.0759083 -0.07192996 -0.014602591 -0.064240634 0.03690404 0.09267795 0.027212797 -0.08393639
0.06474261 0.06561493 0.029901378 -0.079728596 0.08427478 -0.028465899 0.03465879 0.07369123
-0.018201875 -0.023448654 0.053357046 -0.026614418 0.022711461 0.0335854 0.032600082 -0.08713689
0.07046097 0.05899962 -0.03565275 -0.052663736 -0.064651676 0.0052309013 -0.039253682 0.01567994
-0.019736141 -0.04706936 0.1005268 -0.015942363 0.05109244 -0.079211324 0.034125037 -0.014459476
0.07821506 0.042628884 -0.044557717 -0.04175638 0.06645847 0.020683933 0.059041765 -0.04241159
-0.0011506116 -0.03367292 -0.02050875 0.010942713 0.06512969 -0.036654193 0.012476847 0.019826299
0.0038667119 0.046058796 0.057711665 -0.03912253 0.078519486 -0.035346344 -0.002670673 0.042104628
-0.073305205 0.022105364 0.0034387845 -0.016988078 -0.026924202 -0.02683923 0.08823615 -0.035077218
0.09930217 -0.0122861015 0.062368713 0.11079242 -0.019032134 -0.0041724257 -0.031538583 -0.037880495
-0.017233562 -0.011014321 -0.040888034 0.058453772 0.094532974 0.06342575 0.10443672 -0.05707422
0.09831763 -0.010905412 0.091899045 -0.042736642 -0.017636335 0.10195119 0.071160324 -0.07451027
0.03390981 0.03814343 0.0638446 0.078049846 0.02750657 -0.00077234633 0.018911276 -0.011551781
-0.0025945723 0.0846039 0.1052856 0.02170473 -0.054328606 0.0572167 -0.005236741 -0.055003613
0.08711781 0.07072852 -0.013276861 0.073490016 -0.035817586 0.10472819 -0.03217074 0.08592818
0.06753348 0.008921838 -0.0015568834 0.067556486 0.039513312 -0.05498462 0.06629634 -0.021911101
0.044618435 -0.08178234 -0.06513325 0.018430911 0.08410158 0.004779086 0.025873613 0.0814259
0.01267425 0.04117041 0.042896852 -0.084332384 0.07619445 0.0026815487 -0.05871727 0.102137044
-0.017635958 -0.013662722 -0.01969257 0.0073634125 -4.9366645e-05 0.095781386 0.07713881 0.023230119
00000000: be84 34bd 5c35 073d 79b5 3c3d 09d6 e83c
00000010: bfa9 81bd 8abd 8cbc eb99 0b3d 56dc fdbc
00000020: c93c 6bbd 8cd1 c23d 9e2c d93c 01c9 6cbd
00000030: 8e66 ea3c 9623 7f3d 65e1 a43d ee85 8cbd
00000040: e053 293d 1389 a4bd 944e bebc a7aa 973d
00000050: 83f0 d73d f51a 3b3b 45cf 0a3d bb1f 1cbc
00000060: 2a1e 793d 8604 a9bb 7987 56bd 8022 edbc
00000070: 5189 b0bb 1ce3 9c3c d2b2 5cbd 7176 0b3d
00000080: fab8 c33d 296c 213d 7166 613d c8f1 043d
00000090: 75fe 713c f935 a0bd 90e9 5e3b 67ea bfbd
000000a0: 3d20 333d db54 933d 2603 9dbc 59ac c83b
000000b0: ae1b 87bd 5902 97bd 456d b43c f911 233c
000000c0: 391e 413d 80c1 2a3c 37f1 10bd c448 ab3d
000000d0: 0247 423d 92fc 67bd 0805 b23b b1e7 8ebd
000000e0: 7841 643d fb17 80bd 10b4 acbc 6385 a63d
000000f0: 8a0e 8dbc 438b aabd 63ed 74bc 476c e13d
00000100: 788c b53c 6a38 93bd dd0f 0fbd be04 8c3d
00000110: a535 8b3d c440 083d dc6a 7e3d 4097 3f3d
00000120: 6e0e a4bd 11cf c53c a246 603d 99e0 a03d
00000130: fb89 a8bd 54c0 2c3b 2637 3abd db0c e33d
00000140: 1798 963c 2985 40bd 37be 783b 3214 0bbd
00000150: 1a2f a23b 1a22 33bb 401c a83d c28b 1d3d
00000160: b23c 8c3c dd79 b43d 7fda 673d 679f 5f3d
00000170: 1088 83bd 1e4b 7f3c 205a 58bd c4df 803d
00000180: 8c7c 1b3d ee0e 593d e0f4 a53d 2b65 a43d
00000190: d37b 453d 27c9 95bc 2a8e bc3d d2fc 223d
000001a0: d075 9b3d 0450 93bd b53f 6fbc 9890 83bd
000001b0: b128 173d f0cd bd3d 5fed de3c d8e6 abbd
000001c0: c697 843d 1f61 863d bcf3 f43c bf48 a3bd
000001d0: 4198 ac3d 5131 e9bc 60f6 0d3d 6deb 963d
000001e0: 191c 95bc 6417 c0bc eb8c 5a3d 7b06 dabc
000001f0: 630d ba3c d890 093d aa87 053d d374 b2bd
00000200: d74d 903d 96a9 713d 9e08 12bd eeb5 57bd
00000210: 1968 84bd fb67 ab3b 78c8 20bd 3873 803c
00000220: b0ad a1bc cdcb 40bd ffe0 cd3d 8f99 82bc
00000230: 4e46 513d 8c39 a2bd b2c6 0b3d 70e7 6cbc
00000240: 382f a03d a09b 2e3d 2782 36bd bd08 2bbd
00000250: 611b 883d 5a71 a93c c7d5 713d c7b7 2dbd
00000260: 1ed0 96ba 9eec 09bd f701 a8bc 1149 333c
00000270: b762 853d b522 16bd b06b 4c3c c36a a23c
00000280: a968 7d3b 26a8 3c3d 1163 6c3d f23e 20bd
00000290: d3ce a03d 54c7 10bd 7506 2fbb e775 2c3d
000002a0: 0a21 96bd 4f16 b53c 3b5d 613b 952a 8bbc
000002b0: 2590 dcbc f2dd dbbc 28b5 b43d 21ad 0fbd
000002c0: f05e cb3d a54b 49bc 5676 7f3d 23e7 e23d
000002d0: 47e9 9bbc d8b8 88bb 9a2e 01bd 9428 1bbd
000002e0: 662d 8dbc 6975 34bc 367a 27bd 396d 6f3d
000002f0: 819a c13d 5ce5 813d ebe2 d53d a8c6 69bd
00000300: c15a c93d 9dac 32bc 9135 bc3d 9e0c 2fbd
00000310: 137a 90bc c9cb d03d 81bc 913d d798 98bd
00000320: 03e5 0a3d 493c 1c3d f5c0 823d 99d8 9f3d
00000330: 7555 e13c 4977 4aba d2eb 9a3c ae43 3dbc
00000340: b309 2abb cf44 ad3d fa9f d73d 1ece b13c
00000350: ac87 5ebd 0f5c 6a3d f898 abbb 784b 61bd
00000360: d36a b23d 1dda 903d 3187 59bc ef81 963d
00000370: 76b5 12bd bc7b d63d 77c5 03bd 1dfb af3d
00000380: fe4e 8a3d e72c 123c 5710 ccba 0e5b 8a3d
00000390: b6d8 213d 8e37 61bd 60c6 873d e97e b3bc
000003a0: d2c1 363d 807d a7bd 9564 85bd 6cfc 963c
000003b0: 733d ac3d e199 9c3b e6f4 d33c 9fc2 a63d
000003c0: a8a7 4f3c 4ea2 283d 9cb4 2f3d 75b6 acbd
000003d0: d60b 9c3d ecbc 2f3b 8581 70bd 3a2d d13d
000003e0: 4979 90bc 9cd9 5fbc 5052 a1bc c848 f13b
000003f0: 080f 4fb8 0829 c43d f4fa 9d3d 174d be3c

layer3.bias f4 [2]
0.08745625 0.018351823
00000000: 431c b33d 9056 963c
